module attributes {stable_mosaic.version = 11 : i64} {
  func.func @_dma_double_buffer_load_kernel(%arg0: i32, %arg1: memref<8192x2048xbf16, #tpu.tiled<(8,128)(2,1),[16,1]>, #tpu.memory_space<hbm>>, %arg2: memref<1xf32, #tpu.tiled<(128),[1]>, #tpu.memory_space<vmem>>, %arg3: memref<2x1024x8192xbf16, #tpu.tiled<(16,128)(2,1),[4096,64,1]>, #tpu.memory_space<vmem>>, %arg4: memref<2x!tpu.dma_semaphore, #tpu.tiled<,[1]>, #tpu.memory_space<semaphore_mem>>) attributes {dimension_semantics = [#tpu.dimension_semantics<arbitrary>], iteration_bounds = array<i64: 1>, scalar_prefetch = 0 : i64, scratch_operands = 2 : i64, tpu.core_type = #tpu.core_type<tc>, window_params = [{}, {pipeline_mode = #tpu.pipeline_mode<synchronous>, transform_indices = @transform_1, window_bounds = array<i64: 1>}]} {
    %0 = tpu.erase_memref_layout %arg1 : memref<8192x2048xbf16, #tpu.tiled<(8,128)(2,1),[16,1]>, #tpu.memory_space<hbm>> -> memref<8192x2048xbf16, #tpu.memory_space<hbm>>
    %1 = tpu.erase_memref_layout %arg2 : memref<1xf32, #tpu.tiled<(128),[1]>, #tpu.memory_space<vmem>> -> memref<1xf32, #tpu.memory_space<vmem>>
    %2 = tpu.erase_memref_layout %arg3 : memref<2x1024x8192xbf16, #tpu.tiled<(16,128)(2,1),[4096,64,1]>, #tpu.memory_space<vmem>> -> memref<2x1024x8192xbf16, #tpu.memory_space<vmem>>
    %3 = tpu.erase_memref_layout %arg4 : memref<2x!tpu.dma_semaphore, #tpu.tiled<,[1]>, #tpu.memory_space<semaphore_mem>> -> memref<2x!tpu.dma_semaphore, #tpu.memory_space<semaphore_mem>>
    %c0_i32 = arith.constant 0 : i32
    %c0_i32_0 = arith.constant 0 : i32
    %c0_i32_1 = arith.constant 0 : i32
    %c0_i32_2 = arith.constant 0 : i32
    %4 = tpu.memref_slice %0[%c0_i32_1, %c0_i32_2] : memref<8192x2048xbf16, #tpu.memory_space<hbm>> -> memref<1024x8192xbf16, #tpu.memory_space<hbm>>
    %c0_i32_3 = arith.constant 0 : i32
    %c0_i32_4 = arith.constant 0 : i32
    %5 = tpu.memref_slice %2[%c0_i32, %c0_i32_3, %c0_i32_4] : memref<2x1024x8192xbf16, #tpu.memory_space<vmem>> -> memref<1x1024x8192xbf16, #tpu.memory_space<vmem>>
    %6 = tpu.memref_squeeze %5 : memref<1x1024x8192xbf16, #tpu.memory_space<vmem>> -> memref<1024x8192xbf16, #tpu.memory_space<vmem>>
    %7 = tpu.memref_slice %3[%c0_i32_0] : memref<2x!tpu.dma_semaphore, #tpu.memory_space<semaphore_mem>> -> memref<1x!tpu.dma_semaphore, #tpu.memory_space<semaphore_mem>>
    %8 = tpu.memref_squeeze %7 : memref<1x!tpu.dma_semaphore, #tpu.memory_space<semaphore_mem>> -> memref<!tpu.dma_semaphore, #tpu.memory_space<semaphore_mem>>
    tpu.enqueue_dma source(%4 : memref<1024x8192xbf16, #tpu.memory_space<hbm>>) target(%6 : memref<1024x8192xbf16, #tpu.memory_space<vmem>>) target_semaphore(%8 : memref<!tpu.dma_semaphore, #tpu.memory_space<semaphore_mem>>)
    %c1_i32 = arith.constant 1 : i32
    %c1_i32_5 = arith.constant 1 : i32
    %c1024_i32 = arith.constant 1024 : i32
    %c0_i32_6 = arith.constant 0 : i32
    %9 = tpu.memref_slice %0[%c1024_i32, %c0_i32_6] : memref<8192x2048xbf16, #tpu.memory_space<hbm>> -> memref<1024x8192xbf16, #tpu.memory_space<hbm>>
    %c0_i32_7 = arith.constant 0 : i32
    %c0_i32_8 = arith.constant 0 : i32
    %10 = tpu.memref_slice %2[%c1_i32, %c0_i32_7, %c0_i32_8] : memref<2x1024x8192xbf16, #tpu.memory_space<vmem>> -> memref<1x1024x8192xbf16, #tpu.memory_space<vmem>>
    %11 = tpu.memref_squeeze %10 : memref<1x1024x8192xbf16, #tpu.memory_space<vmem>> -> memref<1024x8192xbf16, #tpu.memory_space<vmem>>
    %12 = tpu.memref_slice %3[%c1_i32_5] : memref<2x!tpu.dma_semaphore, #tpu.memory_space<semaphore_mem>> -> memref<1x!tpu.dma_semaphore, #tpu.memory_space<semaphore_mem>>
    %13 = tpu.memref_squeeze %12 : memref<1x!tpu.dma_semaphore, #tpu.memory_space<semaphore_mem>> -> memref<!tpu.dma_semaphore, #tpu.memory_space<semaphore_mem>>
    tpu.enqueue_dma source(%9 : memref<1024x8192xbf16, #tpu.memory_space<hbm>>) target(%11 : memref<1024x8192xbf16, #tpu.memory_space<vmem>>) target_semaphore(%13 : memref<!tpu.dma_semaphore, #tpu.memory_space<semaphore_mem>>)
    %c0_i32_9 = arith.constant 0 : i32
    %c0_i32_10 = arith.constant 0 : i32
    %c0_i32_11 = arith.constant 0 : i32
    %c0_i32_12 = arith.constant 0 : i32
    %14 = tpu.memref_slice %0[%c0_i32_11, %c0_i32_12] : memref<8192x2048xbf16, #tpu.memory_space<hbm>> -> memref<1024x8192xbf16, #tpu.memory_space<hbm>>
    %c0_i32_13 = arith.constant 0 : i32
    %c0_i32_14 = arith.constant 0 : i32
    %15 = tpu.memref_slice %2[%c0_i32_9, %c0_i32_13, %c0_i32_14] : memref<2x1024x8192xbf16, #tpu.memory_space<vmem>> -> memref<1x1024x8192xbf16, #tpu.memory_space<vmem>>
    %16 = tpu.memref_squeeze %15 : memref<1x1024x8192xbf16, #tpu.memory_space<vmem>> -> memref<1024x8192xbf16, #tpu.memory_space<vmem>>
    %17 = tpu.memref_slice %3[%c0_i32_10] : memref<2x!tpu.dma_semaphore, #tpu.memory_space<semaphore_mem>> -> memref<1x!tpu.dma_semaphore, #tpu.memory_space<semaphore_mem>>
    %18 = tpu.memref_squeeze %17 : memref<1x!tpu.dma_semaphore, #tpu.memory_space<semaphore_mem>> -> memref<!tpu.dma_semaphore, #tpu.memory_space<semaphore_mem>>
    tpu.wait_dma2 semaphore(%18 : memref<!tpu.dma_semaphore, #tpu.memory_space<semaphore_mem>>) src(%14 : memref<1024x8192xbf16, #tpu.memory_space<hbm>>) dst(%16 : memref<1024x8192xbf16, #tpu.memory_space<vmem>>)
    %c0_i32_15 = arith.constant 0 : i32
    %c0_i32_16 = arith.constant 0 : i32
    %c2048_i32 = arith.constant 2048 : i32
    %c0_i32_17 = arith.constant 0 : i32
    %19 = tpu.memref_slice %0[%c2048_i32, %c0_i32_17] : memref<8192x2048xbf16, #tpu.memory_space<hbm>> -> memref<1024x8192xbf16, #tpu.memory_space<hbm>>
    %c0_i32_18 = arith.constant 0 : i32
    %c0_i32_19 = arith.constant 0 : i32
    %20 = tpu.memref_slice %2[%c0_i32_15, %c0_i32_18, %c0_i32_19] : memref<2x1024x8192xbf16, #tpu.memory_space<vmem>> -> memref<1x1024x8192xbf16, #tpu.memory_space<vmem>>
    %21 = tpu.memref_squeeze %20 : memref<1x1024x8192xbf16, #tpu.memory_space<vmem>> -> memref<1024x8192xbf16, #tpu.memory_space<vmem>>
    %22 = tpu.memref_slice %3[%c0_i32_16] : memref<2x!tpu.dma_semaphore, #tpu.memory_space<semaphore_mem>> -> memref<1x!tpu.dma_semaphore, #tpu.memory_space<semaphore_mem>>
    %23 = tpu.memref_squeeze %22 : memref<1x!tpu.dma_semaphore, #tpu.memory_space<semaphore_mem>> -> memref<!tpu.dma_semaphore, #tpu.memory_space<semaphore_mem>>
    tpu.enqueue_dma source(%19 : memref<1024x8192xbf16, #tpu.memory_space<hbm>>) target(%21 : memref<1024x8192xbf16, #tpu.memory_space<vmem>>) target_semaphore(%23 : memref<!tpu.dma_semaphore, #tpu.memory_space<semaphore_mem>>)
    %cst = arith.constant 0.000000e+00 : f32
    %cst_20 = arith.constant 1.000000e+00 : f32
    %24 = arith.addf %cst, %cst_20 : f32
    %c1_i32_21 = arith.constant 1 : i32
    %c1_i32_22 = arith.constant 1 : i32
    %c1024_i32_23 = arith.constant 1024 : i32
    %c0_i32_24 = arith.constant 0 : i32
    %25 = tpu.memref_slice %0[%c1024_i32_23, %c0_i32_24] : memref<8192x2048xbf16, #tpu.memory_space<hbm>> -> memref<1024x8192xbf16, #tpu.memory_space<hbm>>
    %c0_i32_25 = arith.constant 0 : i32
    %c0_i32_26 = arith.constant 0 : i32
    %26 = tpu.memref_slice %2[%c1_i32_21, %c0_i32_25, %c0_i32_26] : memref<2x1024x8192xbf16, #tpu.memory_space<vmem>> -> memref<1x1024x8192xbf16, #tpu.memory_space<vmem>>
    %27 = tpu.memref_squeeze %26 : memref<1x1024x8192xbf16, #tpu.memory_space<vmem>> -> memref<1024x8192xbf16, #tpu.memory_space<vmem>>
    %28 = tpu.memref_slice %3[%c1_i32_22] : memref<2x!tpu.dma_semaphore, #tpu.memory_space<semaphore_mem>> -> memref<1x!tpu.dma_semaphore, #tpu.memory_space<semaphore_mem>>
    %29 = tpu.memref_squeeze %28 : memref<1x!tpu.dma_semaphore, #tpu.memory_space<semaphore_mem>> -> memref<!tpu.dma_semaphore, #tpu.memory_space<semaphore_mem>>
    tpu.wait_dma2 semaphore(%29 : memref<!tpu.dma_semaphore, #tpu.memory_space<semaphore_mem>>) src(%25 : memref<1024x8192xbf16, #tpu.memory_space<hbm>>) dst(%27 : memref<1024x8192xbf16, #tpu.memory_space<vmem>>)
    %c1_i32_27 = arith.constant 1 : i32
    %c1_i32_28 = arith.constant 1 : i32
    %c3072_i32 = arith.constant 3072 : i32
    %c0_i32_29 = arith.constant 0 : i32
    %30 = tpu.memref_slice %0[%c3072_i32, %c0_i32_29] : memref<8192x2048xbf16, #tpu.memory_space<hbm>> -> memref<1024x8192xbf16, #tpu.memory_space<hbm>>
    %c0_i32_30 = arith.constant 0 : i32
    %c0_i32_31 = arith.constant 0 : i32
    %31 = tpu.memref_slice %2[%c1_i32_27, %c0_i32_30, %c0_i32_31] : memref<2x1024x8192xbf16, #tpu.memory_space<vmem>> -> memref<1x1024x8192xbf16, #tpu.memory_space<vmem>>
    %32 = tpu.memref_squeeze %31 : memref<1x1024x8192xbf16, #tpu.memory_space<vmem>> -> memref<1024x8192xbf16, #tpu.memory_space<vmem>>
    %33 = tpu.memref_slice %3[%c1_i32_28] : memref<2x!tpu.dma_semaphore, #tpu.memory_space<semaphore_mem>> -> memref<1x!tpu.dma_semaphore, #tpu.memory_space<semaphore_mem>>
    %34 = tpu.memref_squeeze %33 : memref<1x!tpu.dma_semaphore, #tpu.memory_space<semaphore_mem>> -> memref<!tpu.dma_semaphore, #tpu.memory_space<semaphore_mem>>
    tpu.enqueue_dma source(%30 : memref<1024x8192xbf16, #tpu.memory_space<hbm>>) target(%32 : memref<1024x8192xbf16, #tpu.memory_space<vmem>>) target_semaphore(%34 : memref<!tpu.dma_semaphore, #tpu.memory_space<semaphore_mem>>)
    %cst_32 = arith.constant 1.000000e+00 : f32
    %35 = arith.addf %24, %cst_32 : f32
    %c0_i32_33 = arith.constant 0 : i32
    %c0_i32_34 = arith.constant 0 : i32
    %c2048_i32_35 = arith.constant 2048 : i32
    %c0_i32_36 = arith.constant 0 : i32
    %36 = tpu.memref_slice %0[%c2048_i32_35, %c0_i32_36] : memref<8192x2048xbf16, #tpu.memory_space<hbm>> -> memref<1024x8192xbf16, #tpu.memory_space<hbm>>
    %c0_i32_37 = arith.constant 0 : i32
    %c0_i32_38 = arith.constant 0 : i32
    %37 = tpu.memref_slice %2[%c0_i32_33, %c0_i32_37, %c0_i32_38] : memref<2x1024x8192xbf16, #tpu.memory_space<vmem>> -> memref<1x1024x8192xbf16, #tpu.memory_space<vmem>>
    %38 = tpu.memref_squeeze %37 : memref<1x1024x8192xbf16, #tpu.memory_space<vmem>> -> memref<1024x8192xbf16, #tpu.memory_space<vmem>>
    %39 = tpu.memref_slice %3[%c0_i32_34] : memref<2x!tpu.dma_semaphore, #tpu.memory_space<semaphore_mem>> -> memref<1x!tpu.dma_semaphore, #tpu.memory_space<semaphore_mem>>
    %40 = tpu.memref_squeeze %39 : memref<1x!tpu.dma_semaphore, #tpu.memory_space<semaphore_mem>> -> memref<!tpu.dma_semaphore, #tpu.memory_space<semaphore_mem>>
    tpu.wait_dma2 semaphore(%40 : memref<!tpu.dma_semaphore, #tpu.memory_space<semaphore_mem>>) src(%36 : memref<1024x8192xbf16, #tpu.memory_space<hbm>>) dst(%38 : memref<1024x8192xbf16, #tpu.memory_space<vmem>>)
    %c0_i32_39 = arith.constant 0 : i32
    %c0_i32_40 = arith.constant 0 : i32
    %c4096_i32 = arith.constant 4096 : i32
    %c0_i32_41 = arith.constant 0 : i32
    %41 = tpu.memref_slice %0[%c4096_i32, %c0_i32_41] : memref<8192x2048xbf16, #tpu.memory_space<hbm>> -> memref<1024x8192xbf16, #tpu.memory_space<hbm>>
    %c0_i32_42 = arith.constant 0 : i32
    %c0_i32_43 = arith.constant 0 : i32
    %42 = tpu.memref_slice %2[%c0_i32_39, %c0_i32_42, %c0_i32_43] : memref<2x1024x8192xbf16, #tpu.memory_space<vmem>> -> memref<1x1024x8192xbf16, #tpu.memory_space<vmem>>
    %43 = tpu.memref_squeeze %42 : memref<1x1024x8192xbf16, #tpu.memory_space<vmem>> -> memref<1024x8192xbf16, #tpu.memory_space<vmem>>
    %44 = tpu.memref_slice %3[%c0_i32_40] : memref<2x!tpu.dma_semaphore, #tpu.memory_space<semaphore_mem>> -> memref<1x!tpu.dma_semaphore, #tpu.memory_space<semaphore_mem>>
    %45 = tpu.memref_squeeze %44 : memref<1x!tpu.dma_semaphore, #tpu.memory_space<semaphore_mem>> -> memref<!tpu.dma_semaphore, #tpu.memory_space<semaphore_mem>>
    tpu.enqueue_dma source(%41 : memref<1024x8192xbf16, #tpu.memory_space<hbm>>) target(%43 : memref<1024x8192xbf16, #tpu.memory_space<vmem>>) target_semaphore(%45 : memref<!tpu.dma_semaphore, #tpu.memory_space<semaphore_mem>>)
    %cst_44 = arith.constant 1.000000e+00 : f32
    %46 = arith.addf %35, %cst_44 : f32
    %c1_i32_45 = arith.constant 1 : i32
    %c1_i32_46 = arith.constant 1 : i32
    %c3072_i32_47 = arith.constant 3072 : i32
    %c0_i32_48 = arith.constant 0 : i32
    %47 = tpu.memref_slice %0[%c3072_i32_47, %c0_i32_48] : memref<8192x2048xbf16, #tpu.memory_space<hbm>> -> memref<1024x8192xbf16, #tpu.memory_space<hbm>>
    %c0_i32_49 = arith.constant 0 : i32
    %c0_i32_50 = arith.constant 0 : i32
    %48 = tpu.memref_slice %2[%c1_i32_45, %c0_i32_49, %c0_i32_50] : memref<2x1024x8192xbf16, #tpu.memory_space<vmem>> -> memref<1x1024x8192xbf16, #tpu.memory_space<vmem>>
    %49 = tpu.memref_squeeze %48 : memref<1x1024x8192xbf16, #tpu.memory_space<vmem>> -> memref<1024x8192xbf16, #tpu.memory_space<vmem>>
    %50 = tpu.memref_slice %3[%c1_i32_46] : memref<2x!tpu.dma_semaphore, #tpu.memory_space<semaphore_mem>> -> memref<1x!tpu.dma_semaphore, #tpu.memory_space<semaphore_mem>>
    %51 = tpu.memref_squeeze %50 : memref<1x!tpu.dma_semaphore, #tpu.memory_space<semaphore_mem>> -> memref<!tpu.dma_semaphore, #tpu.memory_space<semaphore_mem>>
    tpu.wait_dma2 semaphore(%51 : memref<!tpu.dma_semaphore, #tpu.memory_space<semaphore_mem>>) src(%47 : memref<1024x8192xbf16, #tpu.memory_space<hbm>>) dst(%49 : memref<1024x8192xbf16, #tpu.memory_space<vmem>>)
    %c1_i32_51 = arith.constant 1 : i32
    %c1_i32_52 = arith.constant 1 : i32
    %c5120_i32 = arith.constant 5120 : i32
    %c0_i32_53 = arith.constant 0 : i32
    %52 = tpu.memref_slice %0[%c5120_i32, %c0_i32_53] : memref<8192x2048xbf16, #tpu.memory_space<hbm>> -> memref<1024x8192xbf16, #tpu.memory_space<hbm>>
    %c0_i32_54 = arith.constant 0 : i32
    %c0_i32_55 = arith.constant 0 : i32
    %53 = tpu.memref_slice %2[%c1_i32_51, %c0_i32_54, %c0_i32_55] : memref<2x1024x8192xbf16, #tpu.memory_space<vmem>> -> memref<1x1024x8192xbf16, #tpu.memory_space<vmem>>
    %54 = tpu.memref_squeeze %53 : memref<1x1024x8192xbf16, #tpu.memory_space<vmem>> -> memref<1024x8192xbf16, #tpu.memory_space<vmem>>
    %55 = tpu.memref_slice %3[%c1_i32_52] : memref<2x!tpu.dma_semaphore, #tpu.memory_space<semaphore_mem>> -> memref<1x!tpu.dma_semaphore, #tpu.memory_space<semaphore_mem>>
    %56 = tpu.memref_squeeze %55 : memref<1x!tpu.dma_semaphore, #tpu.memory_space<semaphore_mem>> -> memref<!tpu.dma_semaphore, #tpu.memory_space<semaphore_mem>>
    tpu.enqueue_dma source(%52 : memref<1024x8192xbf16, #tpu.memory_space<hbm>>) target(%54 : memref<1024x8192xbf16, #tpu.memory_space<vmem>>) target_semaphore(%56 : memref<!tpu.dma_semaphore, #tpu.memory_space<semaphore_mem>>)
    %cst_56 = arith.constant 1.000000e+00 : f32
    %57 = arith.addf %46, %cst_56 : f32
    %c0_i32_57 = arith.constant 0 : i32
    %c0_i32_58 = arith.constant 0 : i32
    %c4096_i32_59 = arith.constant 4096 : i32
    %c0_i32_60 = arith.constant 0 : i32
    %58 = tpu.memref_slice %0[%c4096_i32_59, %c0_i32_60] : memref<8192x2048xbf16, #tpu.memory_space<hbm>> -> memref<1024x8192xbf16, #tpu.memory_space<hbm>>
    %c0_i32_61 = arith.constant 0 : i32
    %c0_i32_62 = arith.constant 0 : i32
    %59 = tpu.memref_slice %2[%c0_i32_57, %c0_i32_61, %c0_i32_62] : memref<2x1024x8192xbf16, #tpu.memory_space<vmem>> -> memref<1x1024x8192xbf16, #tpu.memory_space<vmem>>
    %60 = tpu.memref_squeeze %59 : memref<1x1024x8192xbf16, #tpu.memory_space<vmem>> -> memref<1024x8192xbf16, #tpu.memory_space<vmem>>
    %61 = tpu.memref_slice %3[%c0_i32_58] : memref<2x!tpu.dma_semaphore, #tpu.memory_space<semaphore_mem>> -> memref<1x!tpu.dma_semaphore, #tpu.memory_space<semaphore_mem>>
    %62 = tpu.memref_squeeze %61 : memref<1x!tpu.dma_semaphore, #tpu.memory_space<semaphore_mem>> -> memref<!tpu.dma_semaphore, #tpu.memory_space<semaphore_mem>>
    tpu.wait_dma2 semaphore(%62 : memref<!tpu.dma_semaphore, #tpu.memory_space<semaphore_mem>>) src(%58 : memref<1024x8192xbf16, #tpu.memory_space<hbm>>) dst(%60 : memref<1024x8192xbf16, #tpu.memory_space<vmem>>)
    %c0_i32_63 = arith.constant 0 : i32
    %c0_i32_64 = arith.constant 0 : i32
    %c6144_i32 = arith.constant 6144 : i32
    %c0_i32_65 = arith.constant 0 : i32
    %63 = tpu.memref_slice %0[%c6144_i32, %c0_i32_65] : memref<8192x2048xbf16, #tpu.memory_space<hbm>> -> memref<1024x8192xbf16, #tpu.memory_space<hbm>>
    %c0_i32_66 = arith.constant 0 : i32
    %c0_i32_67 = arith.constant 0 : i32
    %64 = tpu.memref_slice %2[%c0_i32_63, %c0_i32_66, %c0_i32_67] : memref<2x1024x8192xbf16, #tpu.memory_space<vmem>> -> memref<1x1024x8192xbf16, #tpu.memory_space<vmem>>
    %65 = tpu.memref_squeeze %64 : memref<1x1024x8192xbf16, #tpu.memory_space<vmem>> -> memref<1024x8192xbf16, #tpu.memory_space<vmem>>
    %66 = tpu.memref_slice %3[%c0_i32_64] : memref<2x!tpu.dma_semaphore, #tpu.memory_space<semaphore_mem>> -> memref<1x!tpu.dma_semaphore, #tpu.memory_space<semaphore_mem>>
    %67 = tpu.memref_squeeze %66 : memref<1x!tpu.dma_semaphore, #tpu.memory_space<semaphore_mem>> -> memref<!tpu.dma_semaphore, #tpu.memory_space<semaphore_mem>>
    tpu.enqueue_dma source(%63 : memref<1024x8192xbf16, #tpu.memory_space<hbm>>) target(%65 : memref<1024x8192xbf16, #tpu.memory_space<vmem>>) target_semaphore(%67 : memref<!tpu.dma_semaphore, #tpu.memory_space<semaphore_mem>>)
    %cst_68 = arith.constant 1.000000e+00 : f32
    %68 = arith.addf %57, %cst_68 : f32
    %c1_i32_69 = arith.constant 1 : i32
    %c1_i32_70 = arith.constant 1 : i32
    %c5120_i32_71 = arith.constant 5120 : i32
    %c0_i32_72 = arith.constant 0 : i32
    %69 = tpu.memref_slice %0[%c5120_i32_71, %c0_i32_72] : memref<8192x2048xbf16, #tpu.memory_space<hbm>> -> memref<1024x8192xbf16, #tpu.memory_space<hbm>>
    %c0_i32_73 = arith.constant 0 : i32
    %c0_i32_74 = arith.constant 0 : i32
    %70 = tpu.memref_slice %2[%c1_i32_69, %c0_i32_73, %c0_i32_74] : memref<2x1024x8192xbf16, #tpu.memory_space<vmem>> -> memref<1x1024x8192xbf16, #tpu.memory_space<vmem>>
    %71 = tpu.memref_squeeze %70 : memref<1x1024x8192xbf16, #tpu.memory_space<vmem>> -> memref<1024x8192xbf16, #tpu.memory_space<vmem>>
    %72 = tpu.memref_slice %3[%c1_i32_70] : memref<2x!tpu.dma_semaphore, #tpu.memory_space<semaphore_mem>> -> memref<1x!tpu.dma_semaphore, #tpu.memory_space<semaphore_mem>>
    %73 = tpu.memref_squeeze %72 : memref<1x!tpu.dma_semaphore, #tpu.memory_space<semaphore_mem>> -> memref<!tpu.dma_semaphore, #tpu.memory_space<semaphore_mem>>
    tpu.wait_dma2 semaphore(%73 : memref<!tpu.dma_semaphore, #tpu.memory_space<semaphore_mem>>) src(%69 : memref<1024x8192xbf16, #tpu.memory_space<hbm>>) dst(%71 : memref<1024x8192xbf16, #tpu.memory_space<vmem>>)
    %c1_i32_75 = arith.constant 1 : i32
    %c1_i32_76 = arith.constant 1 : i32
    %c7168_i32 = arith.constant 7168 : i32
    %c0_i32_77 = arith.constant 0 : i32
    %74 = tpu.memref_slice %0[%c7168_i32, %c0_i32_77] : memref<8192x2048xbf16, #tpu.memory_space<hbm>> -> memref<1024x8192xbf16, #tpu.memory_space<hbm>>
    %c0_i32_78 = arith.constant 0 : i32
    %c0_i32_79 = arith.constant 0 : i32
    %75 = tpu.memref_slice %2[%c1_i32_75, %c0_i32_78, %c0_i32_79] : memref<2x1024x8192xbf16, #tpu.memory_space<vmem>> -> memref<1x1024x8192xbf16, #tpu.memory_space<vmem>>
    %76 = tpu.memref_squeeze %75 : memref<1x1024x8192xbf16, #tpu.memory_space<vmem>> -> memref<1024x8192xbf16, #tpu.memory_space<vmem>>
    %77 = tpu.memref_slice %3[%c1_i32_76] : memref<2x!tpu.dma_semaphore, #tpu.memory_space<semaphore_mem>> -> memref<1x!tpu.dma_semaphore, #tpu.memory_space<semaphore_mem>>
    %78 = tpu.memref_squeeze %77 : memref<1x!tpu.dma_semaphore, #tpu.memory_space<semaphore_mem>> -> memref<!tpu.dma_semaphore, #tpu.memory_space<semaphore_mem>>
    tpu.enqueue_dma source(%74 : memref<1024x8192xbf16, #tpu.memory_space<hbm>>) target(%76 : memref<1024x8192xbf16, #tpu.memory_space<vmem>>) target_semaphore(%78 : memref<!tpu.dma_semaphore, #tpu.memory_space<semaphore_mem>>)
    %cst_80 = arith.constant 1.000000e+00 : f32
    %79 = arith.addf %68, %cst_80 : f32
    %c0_i32_81 = arith.constant 0 : i32
    %c0_i32_82 = arith.constant 0 : i32
    %c6144_i32_83 = arith.constant 6144 : i32
    %c0_i32_84 = arith.constant 0 : i32
    %80 = tpu.memref_slice %0[%c6144_i32_83, %c0_i32_84] : memref<8192x2048xbf16, #tpu.memory_space<hbm>> -> memref<1024x8192xbf16, #tpu.memory_space<hbm>>
    %c0_i32_85 = arith.constant 0 : i32
    %c0_i32_86 = arith.constant 0 : i32
    %81 = tpu.memref_slice %2[%c0_i32_81, %c0_i32_85, %c0_i32_86] : memref<2x1024x8192xbf16, #tpu.memory_space<vmem>> -> memref<1x1024x8192xbf16, #tpu.memory_space<vmem>>
    %82 = tpu.memref_squeeze %81 : memref<1x1024x8192xbf16, #tpu.memory_space<vmem>> -> memref<1024x8192xbf16, #tpu.memory_space<vmem>>
    %83 = tpu.memref_slice %3[%c0_i32_82] : memref<2x!tpu.dma_semaphore, #tpu.memory_space<semaphore_mem>> -> memref<1x!tpu.dma_semaphore, #tpu.memory_space<semaphore_mem>>
    %84 = tpu.memref_squeeze %83 : memref<1x!tpu.dma_semaphore, #tpu.memory_space<semaphore_mem>> -> memref<!tpu.dma_semaphore, #tpu.memory_space<semaphore_mem>>
    tpu.wait_dma2 semaphore(%84 : memref<!tpu.dma_semaphore, #tpu.memory_space<semaphore_mem>>) src(%80 : memref<1024x8192xbf16, #tpu.memory_space<hbm>>) dst(%82 : memref<1024x8192xbf16, #tpu.memory_space<vmem>>)
    %c0_i32_87 = arith.constant 0 : i32
    %c0_i32_88 = arith.constant 0 : i32
    %c0_i32_89 = arith.constant 0 : i32
    %c0_i32_90 = arith.constant 0 : i32
    %85 = tpu.memref_slice %0[%c0_i32_89, %c0_i32_90] : memref<8192x2048xbf16, #tpu.memory_space<hbm>> -> memref<1024x8192xbf16, #tpu.memory_space<hbm>>
    %c0_i32_91 = arith.constant 0 : i32
    %c0_i32_92 = arith.constant 0 : i32
    %86 = tpu.memref_slice %2[%c0_i32_87, %c0_i32_91, %c0_i32_92] : memref<2x1024x8192xbf16, #tpu.memory_space<vmem>> -> memref<1x1024x8192xbf16, #tpu.memory_space<vmem>>
    %87 = tpu.memref_squeeze %86 : memref<1x1024x8192xbf16, #tpu.memory_space<vmem>> -> memref<1024x8192xbf16, #tpu.memory_space<vmem>>
    %88 = tpu.memref_slice %3[%c0_i32_88] : memref<2x!tpu.dma_semaphore, #tpu.memory_space<semaphore_mem>> -> memref<1x!tpu.dma_semaphore, #tpu.memory_space<semaphore_mem>>
    %89 = tpu.memref_squeeze %88 : memref<1x!tpu.dma_semaphore, #tpu.memory_space<semaphore_mem>> -> memref<!tpu.dma_semaphore, #tpu.memory_space<semaphore_mem>>
    tpu.enqueue_dma source(%85 : memref<1024x8192xbf16, #tpu.memory_space<hbm>>) target(%87 : memref<1024x8192xbf16, #tpu.memory_space<vmem>>) target_semaphore(%89 : memref<!tpu.dma_semaphore, #tpu.memory_space<semaphore_mem>>)
    %cst_93 = arith.constant 1.000000e+00 : f32
    %90 = arith.addf %79, %cst_93 : f32
    %c1_i32_94 = arith.constant 1 : i32
    %c1_i32_95 = arith.constant 1 : i32
    %c7168_i32_96 = arith.constant 7168 : i32
    %c0_i32_97 = arith.constant 0 : i32
    %91 = tpu.memref_slice %0[%c7168_i32_96, %c0_i32_97] : memref<8192x2048xbf16, #tpu.memory_space<hbm>> -> memref<1024x8192xbf16, #tpu.memory_space<hbm>>
    %c0_i32_98 = arith.constant 0 : i32
    %c0_i32_99 = arith.constant 0 : i32
    %92 = tpu.memref_slice %2[%c1_i32_94, %c0_i32_98, %c0_i32_99] : memref<2x1024x8192xbf16, #tpu.memory_space<vmem>> -> memref<1x1024x8192xbf16, #tpu.memory_space<vmem>>
    %93 = tpu.memref_squeeze %92 : memref<1x1024x8192xbf16, #tpu.memory_space<vmem>> -> memref<1024x8192xbf16, #tpu.memory_space<vmem>>
    %94 = tpu.memref_slice %3[%c1_i32_95] : memref<2x!tpu.dma_semaphore, #tpu.memory_space<semaphore_mem>> -> memref<1x!tpu.dma_semaphore, #tpu.memory_space<semaphore_mem>>
    %95 = tpu.memref_squeeze %94 : memref<1x!tpu.dma_semaphore, #tpu.memory_space<semaphore_mem>> -> memref<!tpu.dma_semaphore, #tpu.memory_space<semaphore_mem>>
    tpu.wait_dma2 semaphore(%95 : memref<!tpu.dma_semaphore, #tpu.memory_space<semaphore_mem>>) src(%91 : memref<1024x8192xbf16, #tpu.memory_space<hbm>>) dst(%93 : memref<1024x8192xbf16, #tpu.memory_space<vmem>>)
    %c1_i32_100 = arith.constant 1 : i32
    %c1_i32_101 = arith.constant 1 : i32
    %c1024_i32_102 = arith.constant 1024 : i32
    %c0_i32_103 = arith.constant 0 : i32
    %96 = tpu.memref_slice %0[%c1024_i32_102, %c0_i32_103] : memref<8192x2048xbf16, #tpu.memory_space<hbm>> -> memref<1024x8192xbf16, #tpu.memory_space<hbm>>
    %c0_i32_104 = arith.constant 0 : i32
    %c0_i32_105 = arith.constant 0 : i32
    %97 = tpu.memref_slice %2[%c1_i32_100, %c0_i32_104, %c0_i32_105] : memref<2x1024x8192xbf16, #tpu.memory_space<vmem>> -> memref<1x1024x8192xbf16, #tpu.memory_space<vmem>>
    %98 = tpu.memref_squeeze %97 : memref<1x1024x8192xbf16, #tpu.memory_space<vmem>> -> memref<1024x8192xbf16, #tpu.memory_space<vmem>>
    %99 = tpu.memref_slice %3[%c1_i32_101] : memref<2x!tpu.dma_semaphore, #tpu.memory_space<semaphore_mem>> -> memref<1x!tpu.dma_semaphore, #tpu.memory_space<semaphore_mem>>
    %100 = tpu.memref_squeeze %99 : memref<1x!tpu.dma_semaphore, #tpu.memory_space<semaphore_mem>> -> memref<!tpu.dma_semaphore, #tpu.memory_space<semaphore_mem>>
    tpu.enqueue_dma source(%96 : memref<1024x8192xbf16, #tpu.memory_space<hbm>>) target(%98 : memref<1024x8192xbf16, #tpu.memory_space<vmem>>) target_semaphore(%100 : memref<!tpu.dma_semaphore, #tpu.memory_space<semaphore_mem>>)
    %cst_106 = arith.constant 1.000000e+00 : f32
    %101 = arith.addf %90, %cst_106 : f32
    %c0_i32_107 = arith.constant 0 : i32
    %c0_i32_108 = arith.constant 0 : i32
    %c0_i32_109 = arith.constant 0 : i32
    %c0_i32_110 = arith.constant 0 : i32
    %102 = tpu.memref_slice %0[%c0_i32_109, %c0_i32_110] : memref<8192x2048xbf16, #tpu.memory_space<hbm>> -> memref<1024x8192xbf16, #tpu.memory_space<hbm>>
    %c0_i32_111 = arith.constant 0 : i32
    %c0_i32_112 = arith.constant 0 : i32
    %103 = tpu.memref_slice %2[%c0_i32_107, %c0_i32_111, %c0_i32_112] : memref<2x1024x8192xbf16, #tpu.memory_space<vmem>> -> memref<1x1024x8192xbf16, #tpu.memory_space<vmem>>
    %104 = tpu.memref_squeeze %103 : memref<1x1024x8192xbf16, #tpu.memory_space<vmem>> -> memref<1024x8192xbf16, #tpu.memory_space<vmem>>
    %105 = tpu.memref_slice %3[%c0_i32_108] : memref<2x!tpu.dma_semaphore, #tpu.memory_space<semaphore_mem>> -> memref<1x!tpu.dma_semaphore, #tpu.memory_space<semaphore_mem>>
    %106 = tpu.memref_squeeze %105 : memref<1x!tpu.dma_semaphore, #tpu.memory_space<semaphore_mem>> -> memref<!tpu.dma_semaphore, #tpu.memory_space<semaphore_mem>>
    tpu.wait_dma2 semaphore(%106 : memref<!tpu.dma_semaphore, #tpu.memory_space<semaphore_mem>>) src(%102 : memref<1024x8192xbf16, #tpu.memory_space<hbm>>) dst(%104 : memref<1024x8192xbf16, #tpu.memory_space<vmem>>)
    %c0_i32_113 = arith.constant 0 : i32
    %c0_i32_114 = arith.constant 0 : i32
    %c2048_i32_115 = arith.constant 2048 : i32
    %c0_i32_116 = arith.constant 0 : i32
    %107 = tpu.memref_slice %0[%c2048_i32_115, %c0_i32_116] : memref<8192x2048xbf16, #tpu.memory_space<hbm>> -> memref<1024x8192xbf16, #tpu.memory_space<hbm>>
    %c0_i32_117 = arith.constant 0 : i32
    %c0_i32_118 = arith.constant 0 : i32
    %108 = tpu.memref_slice %2[%c0_i32_113, %c0_i32_117, %c0_i32_118] : memref<2x1024x8192xbf16, #tpu.memory_space<vmem>> -> memref<1x1024x8192xbf16, #tpu.memory_space<vmem>>
    %109 = tpu.memref_squeeze %108 : memref<1x1024x8192xbf16, #tpu.memory_space<vmem>> -> memref<1024x8192xbf16, #tpu.memory_space<vmem>>
    %110 = tpu.memref_slice %3[%c0_i32_114] : memref<2x!tpu.dma_semaphore, #tpu.memory_space<semaphore_mem>> -> memref<1x!tpu.dma_semaphore, #tpu.memory_space<semaphore_mem>>
    %111 = tpu.memref_squeeze %110 : memref<1x!tpu.dma_semaphore, #tpu.memory_space<semaphore_mem>> -> memref<!tpu.dma_semaphore, #tpu.memory_space<semaphore_mem>>
    tpu.enqueue_dma source(%107 : memref<1024x8192xbf16, #tpu.memory_space<hbm>>) target(%109 : memref<1024x8192xbf16, #tpu.memory_space<vmem>>) target_semaphore(%111 : memref<!tpu.dma_semaphore, #tpu.memory_space<semaphore_mem>>)
    %cst_119 = arith.constant 1.000000e+00 : f32
    %112 = arith.addf %101, %cst_119 : f32
    %c1_i32_120 = arith.constant 1 : i32
    %c1_i32_121 = arith.constant 1 : i32
    %c1024_i32_122 = arith.constant 1024 : i32
    %c0_i32_123 = arith.constant 0 : i32
    %113 = tpu.memref_slice %0[%c1024_i32_122, %c0_i32_123] : memref<8192x2048xbf16, #tpu.memory_space<hbm>> -> memref<1024x8192xbf16, #tpu.memory_space<hbm>>
    %c0_i32_124 = arith.constant 0 : i32
    %c0_i32_125 = arith.constant 0 : i32
    %114 = tpu.memref_slice %2[%c1_i32_120, %c0_i32_124, %c0_i32_125] : memref<2x1024x8192xbf16, #tpu.memory_space<vmem>> -> memref<1x1024x8192xbf16, #tpu.memory_space<vmem>>
    %115 = tpu.memref_squeeze %114 : memref<1x1024x8192xbf16, #tpu.memory_space<vmem>> -> memref<1024x8192xbf16, #tpu.memory_space<vmem>>
    %116 = tpu.memref_slice %3[%c1_i32_121] : memref<2x!tpu.dma_semaphore, #tpu.memory_space<semaphore_mem>> -> memref<1x!tpu.dma_semaphore, #tpu.memory_space<semaphore_mem>>
    %117 = tpu.memref_squeeze %116 : memref<1x!tpu.dma_semaphore, #tpu.memory_space<semaphore_mem>> -> memref<!tpu.dma_semaphore, #tpu.memory_space<semaphore_mem>>
    tpu.wait_dma2 semaphore(%117 : memref<!tpu.dma_semaphore, #tpu.memory_space<semaphore_mem>>) src(%113 : memref<1024x8192xbf16, #tpu.memory_space<hbm>>) dst(%115 : memref<1024x8192xbf16, #tpu.memory_space<vmem>>)
    %c1_i32_126 = arith.constant 1 : i32
    %c1_i32_127 = arith.constant 1 : i32
    %c3072_i32_128 = arith.constant 3072 : i32
    %c0_i32_129 = arith.constant 0 : i32
    %118 = tpu.memref_slice %0[%c3072_i32_128, %c0_i32_129] : memref<8192x2048xbf16, #tpu.memory_space<hbm>> -> memref<1024x8192xbf16, #tpu.memory_space<hbm>>
    %c0_i32_130 = arith.constant 0 : i32
    %c0_i32_131 = arith.constant 0 : i32
    %119 = tpu.memref_slice %2[%c1_i32_126, %c0_i32_130, %c0_i32_131] : memref<2x1024x8192xbf16, #tpu.memory_space<vmem>> -> memref<1x1024x8192xbf16, #tpu.memory_space<vmem>>
    %120 = tpu.memref_squeeze %119 : memref<1x1024x8192xbf16, #tpu.memory_space<vmem>> -> memref<1024x8192xbf16, #tpu.memory_space<vmem>>
    %121 = tpu.memref_slice %3[%c1_i32_127] : memref<2x!tpu.dma_semaphore, #tpu.memory_space<semaphore_mem>> -> memref<1x!tpu.dma_semaphore, #tpu.memory_space<semaphore_mem>>
    %122 = tpu.memref_squeeze %121 : memref<1x!tpu.dma_semaphore, #tpu.memory_space<semaphore_mem>> -> memref<!tpu.dma_semaphore, #tpu.memory_space<semaphore_mem>>
    tpu.enqueue_dma source(%118 : memref<1024x8192xbf16, #tpu.memory_space<hbm>>) target(%120 : memref<1024x8192xbf16, #tpu.memory_space<vmem>>) target_semaphore(%122 : memref<!tpu.dma_semaphore, #tpu.memory_space<semaphore_mem>>)
    %cst_132 = arith.constant 1.000000e+00 : f32
    %123 = arith.addf %112, %cst_132 : f32
    %c0_i32_133 = arith.constant 0 : i32
    %c0_i32_134 = arith.constant 0 : i32
    %c2048_i32_135 = arith.constant 2048 : i32
    %c0_i32_136 = arith.constant 0 : i32
    %124 = tpu.memref_slice %0[%c2048_i32_135, %c0_i32_136] : memref<8192x2048xbf16, #tpu.memory_space<hbm>> -> memref<1024x8192xbf16, #tpu.memory_space<hbm>>
    %c0_i32_137 = arith.constant 0 : i32
    %c0_i32_138 = arith.constant 0 : i32
    %125 = tpu.memref_slice %2[%c0_i32_133, %c0_i32_137, %c0_i32_138] : memref<2x1024x8192xbf16, #tpu.memory_space<vmem>> -> memref<1x1024x8192xbf16, #tpu.memory_space<vmem>>
    %126 = tpu.memref_squeeze %125 : memref<1x1024x8192xbf16, #tpu.memory_space<vmem>> -> memref<1024x8192xbf16, #tpu.memory_space<vmem>>
    %127 = tpu.memref_slice %3[%c0_i32_134] : memref<2x!tpu.dma_semaphore, #tpu.memory_space<semaphore_mem>> -> memref<1x!tpu.dma_semaphore, #tpu.memory_space<semaphore_mem>>
    %128 = tpu.memref_squeeze %127 : memref<1x!tpu.dma_semaphore, #tpu.memory_space<semaphore_mem>> -> memref<!tpu.dma_semaphore, #tpu.memory_space<semaphore_mem>>
    tpu.wait_dma2 semaphore(%128 : memref<!tpu.dma_semaphore, #tpu.memory_space<semaphore_mem>>) src(%124 : memref<1024x8192xbf16, #tpu.memory_space<hbm>>) dst(%126 : memref<1024x8192xbf16, #tpu.memory_space<vmem>>)
    %c0_i32_139 = arith.constant 0 : i32
    %c0_i32_140 = arith.constant 0 : i32
    %c4096_i32_141 = arith.constant 4096 : i32
    %c0_i32_142 = arith.constant 0 : i32
    %129 = tpu.memref_slice %0[%c4096_i32_141, %c0_i32_142] : memref<8192x2048xbf16, #tpu.memory_space<hbm>> -> memref<1024x8192xbf16, #tpu.memory_space<hbm>>
    %c0_i32_143 = arith.constant 0 : i32
    %c0_i32_144 = arith.constant 0 : i32
    %130 = tpu.memref_slice %2[%c0_i32_139, %c0_i32_143, %c0_i32_144] : memref<2x1024x8192xbf16, #tpu.memory_space<vmem>> -> memref<1x1024x8192xbf16, #tpu.memory_space<vmem>>
    %131 = tpu.memref_squeeze %130 : memref<1x1024x8192xbf16, #tpu.memory_space<vmem>> -> memref<1024x8192xbf16, #tpu.memory_space<vmem>>
    %132 = tpu.memref_slice %3[%c0_i32_140] : memref<2x!tpu.dma_semaphore, #tpu.memory_space<semaphore_mem>> -> memref<1x!tpu.dma_semaphore, #tpu.memory_space<semaphore_mem>>
    %133 = tpu.memref_squeeze %132 : memref<1x!tpu.dma_semaphore, #tpu.memory_space<semaphore_mem>> -> memref<!tpu.dma_semaphore, #tpu.memory_space<semaphore_mem>>
    tpu.enqueue_dma source(%129 : memref<1024x8192xbf16, #tpu.memory_space<hbm>>) target(%131 : memref<1024x8192xbf16, #tpu.memory_space<vmem>>) target_semaphore(%133 : memref<!tpu.dma_semaphore, #tpu.memory_space<semaphore_mem>>)
    %cst_145 = arith.constant 1.000000e+00 : f32
    %134 = arith.addf %123, %cst_145 : f32
    %c1_i32_146 = arith.constant 1 : i32
    %c1_i32_147 = arith.constant 1 : i32
    %c3072_i32_148 = arith.constant 3072 : i32
    %c0_i32_149 = arith.constant 0 : i32
    %135 = tpu.memref_slice %0[%c3072_i32_148, %c0_i32_149] : memref<8192x2048xbf16, #tpu.memory_space<hbm>> -> memref<1024x8192xbf16, #tpu.memory_space<hbm>>
    %c0_i32_150 = arith.constant 0 : i32
    %c0_i32_151 = arith.constant 0 : i32
    %136 = tpu.memref_slice %2[%c1_i32_146, %c0_i32_150, %c0_i32_151] : memref<2x1024x8192xbf16, #tpu.memory_space<vmem>> -> memref<1x1024x8192xbf16, #tpu.memory_space<vmem>>
    %137 = tpu.memref_squeeze %136 : memref<1x1024x8192xbf16, #tpu.memory_space<vmem>> -> memref<1024x8192xbf16, #tpu.memory_space<vmem>>
    %138 = tpu.memref_slice %3[%c1_i32_147] : memref<2x!tpu.dma_semaphore, #tpu.memory_space<semaphore_mem>> -> memref<1x!tpu.dma_semaphore, #tpu.memory_space<semaphore_mem>>
    %139 = tpu.memref_squeeze %138 : memref<1x!tpu.dma_semaphore, #tpu.memory_space<semaphore_mem>> -> memref<!tpu.dma_semaphore, #tpu.memory_space<semaphore_mem>>
    tpu.wait_dma2 semaphore(%139 : memref<!tpu.dma_semaphore, #tpu.memory_space<semaphore_mem>>) src(%135 : memref<1024x8192xbf16, #tpu.memory_space<hbm>>) dst(%137 : memref<1024x8192xbf16, #tpu.memory_space<vmem>>)
    %c1_i32_152 = arith.constant 1 : i32
    %c1_i32_153 = arith.constant 1 : i32
    %c5120_i32_154 = arith.constant 5120 : i32
    %c0_i32_155 = arith.constant 0 : i32
    %140 = tpu.memref_slice %0[%c5120_i32_154, %c0_i32_155] : memref<8192x2048xbf16, #tpu.memory_space<hbm>> -> memref<1024x8192xbf16, #tpu.memory_space<hbm>>
    %c0_i32_156 = arith.constant 0 : i32
    %c0_i32_157 = arith.constant 0 : i32
    %141 = tpu.memref_slice %2[%c1_i32_152, %c0_i32_156, %c0_i32_157] : memref<2x1024x8192xbf16, #tpu.memory_space<vmem>> -> memref<1x1024x8192xbf16, #tpu.memory_space<vmem>>
    %142 = tpu.memref_squeeze %141 : memref<1x1024x8192xbf16, #tpu.memory_space<vmem>> -> memref<1024x8192xbf16, #tpu.memory_space<vmem>>
    %143 = tpu.memref_slice %3[%c1_i32_153] : memref<2x!tpu.dma_semaphore, #tpu.memory_space<semaphore_mem>> -> memref<1x!tpu.dma_semaphore, #tpu.memory_space<semaphore_mem>>
    %144 = tpu.memref_squeeze %143 : memref<1x!tpu.dma_semaphore, #tpu.memory_space<semaphore_mem>> -> memref<!tpu.dma_semaphore, #tpu.memory_space<semaphore_mem>>
    tpu.enqueue_dma source(%140 : memref<1024x8192xbf16, #tpu.memory_space<hbm>>) target(%142 : memref<1024x8192xbf16, #tpu.memory_space<vmem>>) target_semaphore(%144 : memref<!tpu.dma_semaphore, #tpu.memory_space<semaphore_mem>>)
    %cst_158 = arith.constant 1.000000e+00 : f32
    %145 = arith.addf %134, %cst_158 : f32
    %c0_i32_159 = arith.constant 0 : i32
    %c0_i32_160 = arith.constant 0 : i32
    %c4096_i32_161 = arith.constant 4096 : i32
    %c0_i32_162 = arith.constant 0 : i32
    %146 = tpu.memref_slice %0[%c4096_i32_161, %c0_i32_162] : memref<8192x2048xbf16, #tpu.memory_space<hbm>> -> memref<1024x8192xbf16, #tpu.memory_space<hbm>>
    %c0_i32_163 = arith.constant 0 : i32
    %c0_i32_164 = arith.constant 0 : i32
    %147 = tpu.memref_slice %2[%c0_i32_159, %c0_i32_163, %c0_i32_164] : memref<2x1024x8192xbf16, #tpu.memory_space<vmem>> -> memref<1x1024x8192xbf16, #tpu.memory_space<vmem>>
    %148 = tpu.memref_squeeze %147 : memref<1x1024x8192xbf16, #tpu.memory_space<vmem>> -> memref<1024x8192xbf16, #tpu.memory_space<vmem>>
    %149 = tpu.memref_slice %3[%c0_i32_160] : memref<2x!tpu.dma_semaphore, #tpu.memory_space<semaphore_mem>> -> memref<1x!tpu.dma_semaphore, #tpu.memory_space<semaphore_mem>>
    %150 = tpu.memref_squeeze %149 : memref<1x!tpu.dma_semaphore, #tpu.memory_space<semaphore_mem>> -> memref<!tpu.dma_semaphore, #tpu.memory_space<semaphore_mem>>
    tpu.wait_dma2 semaphore(%150 : memref<!tpu.dma_semaphore, #tpu.memory_space<semaphore_mem>>) src(%146 : memref<1024x8192xbf16, #tpu.memory_space<hbm>>) dst(%148 : memref<1024x8192xbf16, #tpu.memory_space<vmem>>)
    %c0_i32_165 = arith.constant 0 : i32
    %c0_i32_166 = arith.constant 0 : i32
    %c6144_i32_167 = arith.constant 6144 : i32
    %c0_i32_168 = arith.constant 0 : i32
    %151 = tpu.memref_slice %0[%c6144_i32_167, %c0_i32_168] : memref<8192x2048xbf16, #tpu.memory_space<hbm>> -> memref<1024x8192xbf16, #tpu.memory_space<hbm>>
    %c0_i32_169 = arith.constant 0 : i32
    %c0_i32_170 = arith.constant 0 : i32
    %152 = tpu.memref_slice %2[%c0_i32_165, %c0_i32_169, %c0_i32_170] : memref<2x1024x8192xbf16, #tpu.memory_space<vmem>> -> memref<1x1024x8192xbf16, #tpu.memory_space<vmem>>
    %153 = tpu.memref_squeeze %152 : memref<1x1024x8192xbf16, #tpu.memory_space<vmem>> -> memref<1024x8192xbf16, #tpu.memory_space<vmem>>
    %154 = tpu.memref_slice %3[%c0_i32_166] : memref<2x!tpu.dma_semaphore, #tpu.memory_space<semaphore_mem>> -> memref<1x!tpu.dma_semaphore, #tpu.memory_space<semaphore_mem>>
    %155 = tpu.memref_squeeze %154 : memref<1x!tpu.dma_semaphore, #tpu.memory_space<semaphore_mem>> -> memref<!tpu.dma_semaphore, #tpu.memory_space<semaphore_mem>>
    tpu.enqueue_dma source(%151 : memref<1024x8192xbf16, #tpu.memory_space<hbm>>) target(%153 : memref<1024x8192xbf16, #tpu.memory_space<vmem>>) target_semaphore(%155 : memref<!tpu.dma_semaphore, #tpu.memory_space<semaphore_mem>>)
    %cst_171 = arith.constant 1.000000e+00 : f32
    %156 = arith.addf %145, %cst_171 : f32
    %c1_i32_172 = arith.constant 1 : i32
    %c1_i32_173 = arith.constant 1 : i32
    %c5120_i32_174 = arith.constant 5120 : i32
    %c0_i32_175 = arith.constant 0 : i32
    %157 = tpu.memref_slice %0[%c5120_i32_174, %c0_i32_175] : memref<8192x2048xbf16, #tpu.memory_space<hbm>> -> memref<1024x8192xbf16, #tpu.memory_space<hbm>>
    %c0_i32_176 = arith.constant 0 : i32
    %c0_i32_177 = arith.constant 0 : i32
    %158 = tpu.memref_slice %2[%c1_i32_172, %c0_i32_176, %c0_i32_177] : memref<2x1024x8192xbf16, #tpu.memory_space<vmem>> -> memref<1x1024x8192xbf16, #tpu.memory_space<vmem>>
    %159 = tpu.memref_squeeze %158 : memref<1x1024x8192xbf16, #tpu.memory_space<vmem>> -> memref<1024x8192xbf16, #tpu.memory_space<vmem>>
    %160 = tpu.memref_slice %3[%c1_i32_173] : memref<2x!tpu.dma_semaphore, #tpu.memory_space<semaphore_mem>> -> memref<1x!tpu.dma_semaphore, #tpu.memory_space<semaphore_mem>>
    %161 = tpu.memref_squeeze %160 : memref<1x!tpu.dma_semaphore, #tpu.memory_space<semaphore_mem>> -> memref<!tpu.dma_semaphore, #tpu.memory_space<semaphore_mem>>
    tpu.wait_dma2 semaphore(%161 : memref<!tpu.dma_semaphore, #tpu.memory_space<semaphore_mem>>) src(%157 : memref<1024x8192xbf16, #tpu.memory_space<hbm>>) dst(%159 : memref<1024x8192xbf16, #tpu.memory_space<vmem>>)
    %c1_i32_178 = arith.constant 1 : i32
    %c1_i32_179 = arith.constant 1 : i32
    %c7168_i32_180 = arith.constant 7168 : i32
    %c0_i32_181 = arith.constant 0 : i32
    %162 = tpu.memref_slice %0[%c7168_i32_180, %c0_i32_181] : memref<8192x2048xbf16, #tpu.memory_space<hbm>> -> memref<1024x8192xbf16, #tpu.memory_space<hbm>>
    %c0_i32_182 = arith.constant 0 : i32
    %c0_i32_183 = arith.constant 0 : i32
    %163 = tpu.memref_slice %2[%c1_i32_178, %c0_i32_182, %c0_i32_183] : memref<2x1024x8192xbf16, #tpu.memory_space<vmem>> -> memref<1x1024x8192xbf16, #tpu.memory_space<vmem>>
    %164 = tpu.memref_squeeze %163 : memref<1x1024x8192xbf16, #tpu.memory_space<vmem>> -> memref<1024x8192xbf16, #tpu.memory_space<vmem>>
    %165 = tpu.memref_slice %3[%c1_i32_179] : memref<2x!tpu.dma_semaphore, #tpu.memory_space<semaphore_mem>> -> memref<1x!tpu.dma_semaphore, #tpu.memory_space<semaphore_mem>>
    %166 = tpu.memref_squeeze %165 : memref<1x!tpu.dma_semaphore, #tpu.memory_space<semaphore_mem>> -> memref<!tpu.dma_semaphore, #tpu.memory_space<semaphore_mem>>
    tpu.enqueue_dma source(%162 : memref<1024x8192xbf16, #tpu.memory_space<hbm>>) target(%164 : memref<1024x8192xbf16, #tpu.memory_space<vmem>>) target_semaphore(%166 : memref<!tpu.dma_semaphore, #tpu.memory_space<semaphore_mem>>)
    %cst_184 = arith.constant 1.000000e+00 : f32
    %167 = arith.addf %156, %cst_184 : f32
    %c0_i32_185 = arith.constant 0 : i32
    %c0_i32_186 = arith.constant 0 : i32
    %c6144_i32_187 = arith.constant 6144 : i32
    %c0_i32_188 = arith.constant 0 : i32
    %168 = tpu.memref_slice %0[%c6144_i32_187, %c0_i32_188] : memref<8192x2048xbf16, #tpu.memory_space<hbm>> -> memref<1024x8192xbf16, #tpu.memory_space<hbm>>
    %c0_i32_189 = arith.constant 0 : i32
    %c0_i32_190 = arith.constant 0 : i32
    %169 = tpu.memref_slice %2[%c0_i32_185, %c0_i32_189, %c0_i32_190] : memref<2x1024x8192xbf16, #tpu.memory_space<vmem>> -> memref<1x1024x8192xbf16, #tpu.memory_space<vmem>>
    %170 = tpu.memref_squeeze %169 : memref<1x1024x8192xbf16, #tpu.memory_space<vmem>> -> memref<1024x8192xbf16, #tpu.memory_space<vmem>>
    %171 = tpu.memref_slice %3[%c0_i32_186] : memref<2x!tpu.dma_semaphore, #tpu.memory_space<semaphore_mem>> -> memref<1x!tpu.dma_semaphore, #tpu.memory_space<semaphore_mem>>
    %172 = tpu.memref_squeeze %171 : memref<1x!tpu.dma_semaphore, #tpu.memory_space<semaphore_mem>> -> memref<!tpu.dma_semaphore, #tpu.memory_space<semaphore_mem>>
    tpu.wait_dma2 semaphore(%172 : memref<!tpu.dma_semaphore, #tpu.memory_space<semaphore_mem>>) src(%168 : memref<1024x8192xbf16, #tpu.memory_space<hbm>>) dst(%170 : memref<1024x8192xbf16, #tpu.memory_space<vmem>>)
    %c0_i32_191 = arith.constant 0 : i32
    %c0_i32_192 = arith.constant 0 : i32
    %c0_i32_193 = arith.constant 0 : i32
    %c0_i32_194 = arith.constant 0 : i32
    %173 = tpu.memref_slice %0[%c0_i32_193, %c0_i32_194] : memref<8192x2048xbf16, #tpu.memory_space<hbm>> -> memref<1024x8192xbf16, #tpu.memory_space<hbm>>
    %c0_i32_195 = arith.constant 0 : i32
    %c0_i32_196 = arith.constant 0 : i32
    %174 = tpu.memref_slice %2[%c0_i32_191, %c0_i32_195, %c0_i32_196] : memref<2x1024x8192xbf16, #tpu.memory_space<vmem>> -> memref<1x1024x8192xbf16, #tpu.memory_space<vmem>>
    %175 = tpu.memref_squeeze %174 : memref<1x1024x8192xbf16, #tpu.memory_space<vmem>> -> memref<1024x8192xbf16, #tpu.memory_space<vmem>>
    %176 = tpu.memref_slice %3[%c0_i32_192] : memref<2x!tpu.dma_semaphore, #tpu.memory_space<semaphore_mem>> -> memref<1x!tpu.dma_semaphore, #tpu.memory_space<semaphore_mem>>
    %177 = tpu.memref_squeeze %176 : memref<1x!tpu.dma_semaphore, #tpu.memory_space<semaphore_mem>> -> memref<!tpu.dma_semaphore, #tpu.memory_space<semaphore_mem>>
    tpu.enqueue_dma source(%173 : memref<1024x8192xbf16, #tpu.memory_space<hbm>>) target(%175 : memref<1024x8192xbf16, #tpu.memory_space<vmem>>) target_semaphore(%177 : memref<!tpu.dma_semaphore, #tpu.memory_space<semaphore_mem>>)
    %cst_197 = arith.constant 1.000000e+00 : f32
    %178 = arith.addf %167, %cst_197 : f32
    %c1_i32_198 = arith.constant 1 : i32
    %c1_i32_199 = arith.constant 1 : i32
    %c7168_i32_200 = arith.constant 7168 : i32
    %c0_i32_201 = arith.constant 0 : i32
    %179 = tpu.memref_slice %0[%c7168_i32_200, %c0_i32_201] : memref<8192x2048xbf16, #tpu.memory_space<hbm>> -> memref<1024x8192xbf16, #tpu.memory_space<hbm>>
    %c0_i32_202 = arith.constant 0 : i32
    %c0_i32_203 = arith.constant 0 : i32
    %180 = tpu.memref_slice %2[%c1_i32_198, %c0_i32_202, %c0_i32_203] : memref<2x1024x8192xbf16, #tpu.memory_space<vmem>> -> memref<1x1024x8192xbf16, #tpu.memory_space<vmem>>
    %181 = tpu.memref_squeeze %180 : memref<1x1024x8192xbf16, #tpu.memory_space<vmem>> -> memref<1024x8192xbf16, #tpu.memory_space<vmem>>
    %182 = tpu.memref_slice %3[%c1_i32_199] : memref<2x!tpu.dma_semaphore, #tpu.memory_space<semaphore_mem>> -> memref<1x!tpu.dma_semaphore, #tpu.memory_space<semaphore_mem>>
    %183 = tpu.memref_squeeze %182 : memref<1x!tpu.dma_semaphore, #tpu.memory_space<semaphore_mem>> -> memref<!tpu.dma_semaphore, #tpu.memory_space<semaphore_mem>>
    tpu.wait_dma2 semaphore(%183 : memref<!tpu.dma_semaphore, #tpu.memory_space<semaphore_mem>>) src(%179 : memref<1024x8192xbf16, #tpu.memory_space<hbm>>) dst(%181 : memref<1024x8192xbf16, #tpu.memory_space<vmem>>)
    %c1_i32_204 = arith.constant 1 : i32
    %c1_i32_205 = arith.constant 1 : i32
    %c1024_i32_206 = arith.constant 1024 : i32
    %c0_i32_207 = arith.constant 0 : i32
    %184 = tpu.memref_slice %0[%c1024_i32_206, %c0_i32_207] : memref<8192x2048xbf16, #tpu.memory_space<hbm>> -> memref<1024x8192xbf16, #tpu.memory_space<hbm>>
    %c0_i32_208 = arith.constant 0 : i32
    %c0_i32_209 = arith.constant 0 : i32
    %185 = tpu.memref_slice %2[%c1_i32_204, %c0_i32_208, %c0_i32_209] : memref<2x1024x8192xbf16, #tpu.memory_space<vmem>> -> memref<1x1024x8192xbf16, #tpu.memory_space<vmem>>
    %186 = tpu.memref_squeeze %185 : memref<1x1024x8192xbf16, #tpu.memory_space<vmem>> -> memref<1024x8192xbf16, #tpu.memory_space<vmem>>
    %187 = tpu.memref_slice %3[%c1_i32_205] : memref<2x!tpu.dma_semaphore, #tpu.memory_space<semaphore_mem>> -> memref<1x!tpu.dma_semaphore, #tpu.memory_space<semaphore_mem>>
    %188 = tpu.memref_squeeze %187 : memref<1x!tpu.dma_semaphore, #tpu.memory_space<semaphore_mem>> -> memref<!tpu.dma_semaphore, #tpu.memory_space<semaphore_mem>>
    tpu.enqueue_dma source(%184 : memref<1024x8192xbf16, #tpu.memory_space<hbm>>) target(%186 : memref<1024x8192xbf16, #tpu.memory_space<vmem>>) target_semaphore(%188 : memref<!tpu.dma_semaphore, #tpu.memory_space<semaphore_mem>>)
    %cst_210 = arith.constant 1.000000e+00 : f32
    %189 = arith.addf %178, %cst_210 : f32
    %c0_i32_211 = arith.constant 0 : i32
    %c0_i32_212 = arith.constant 0 : i32
    %c0_i32_213 = arith.constant 0 : i32
    %c0_i32_214 = arith.constant 0 : i32
    %190 = tpu.memref_slice %0[%c0_i32_213, %c0_i32_214] : memref<8192x2048xbf16, #tpu.memory_space<hbm>> -> memref<1024x8192xbf16, #tpu.memory_space<hbm>>
    %c0_i32_215 = arith.constant 0 : i32
    %c0_i32_216 = arith.constant 0 : i32
    %191 = tpu.memref_slice %2[%c0_i32_211, %c0_i32_215, %c0_i32_216] : memref<2x1024x8192xbf16, #tpu.memory_space<vmem>> -> memref<1x1024x8192xbf16, #tpu.memory_space<vmem>>
    %192 = tpu.memref_squeeze %191 : memref<1x1024x8192xbf16, #tpu.memory_space<vmem>> -> memref<1024x8192xbf16, #tpu.memory_space<vmem>>
    %193 = tpu.memref_slice %3[%c0_i32_212] : memref<2x!tpu.dma_semaphore, #tpu.memory_space<semaphore_mem>> -> memref<1x!tpu.dma_semaphore, #tpu.memory_space<semaphore_mem>>
    %194 = tpu.memref_squeeze %193 : memref<1x!tpu.dma_semaphore, #tpu.memory_space<semaphore_mem>> -> memref<!tpu.dma_semaphore, #tpu.memory_space<semaphore_mem>>
    tpu.wait_dma2 semaphore(%194 : memref<!tpu.dma_semaphore, #tpu.memory_space<semaphore_mem>>) src(%190 : memref<1024x8192xbf16, #tpu.memory_space<hbm>>) dst(%192 : memref<1024x8192xbf16, #tpu.memory_space<vmem>>)
    %c0_i32_217 = arith.constant 0 : i32
    %c0_i32_218 = arith.constant 0 : i32
    %c2048_i32_219 = arith.constant 2048 : i32
    %c0_i32_220 = arith.constant 0 : i32
    %195 = tpu.memref_slice %0[%c2048_i32_219, %c0_i32_220] : memref<8192x2048xbf16, #tpu.memory_space<hbm>> -> memref<1024x8192xbf16, #tpu.memory_space<hbm>>
    %c0_i32_221 = arith.constant 0 : i32
    %c0_i32_222 = arith.constant 0 : i32
    %196 = tpu.memref_slice %2[%c0_i32_217, %c0_i32_221, %c0_i32_222] : memref<2x1024x8192xbf16, #tpu.memory_space<vmem>> -> memref<1x1024x8192xbf16, #tpu.memory_space<vmem>>
    %197 = tpu.memref_squeeze %196 : memref<1x1024x8192xbf16, #tpu.memory_space<vmem>> -> memref<1024x8192xbf16, #tpu.memory_space<vmem>>
    %198 = tpu.memref_slice %3[%c0_i32_218] : memref<2x!tpu.dma_semaphore, #tpu.memory_space<semaphore_mem>> -> memref<1x!tpu.dma_semaphore, #tpu.memory_space<semaphore_mem>>
    %199 = tpu.memref_squeeze %198 : memref<1x!tpu.dma_semaphore, #tpu.memory_space<semaphore_mem>> -> memref<!tpu.dma_semaphore, #tpu.memory_space<semaphore_mem>>
    tpu.enqueue_dma source(%195 : memref<1024x8192xbf16, #tpu.memory_space<hbm>>) target(%197 : memref<1024x8192xbf16, #tpu.memory_space<vmem>>) target_semaphore(%199 : memref<!tpu.dma_semaphore, #tpu.memory_space<semaphore_mem>>)
    %cst_223 = arith.constant 1.000000e+00 : f32
    %200 = arith.addf %189, %cst_223 : f32
    %c1_i32_224 = arith.constant 1 : i32
    %c1_i32_225 = arith.constant 1 : i32
    %c1024_i32_226 = arith.constant 1024 : i32
    %c0_i32_227 = arith.constant 0 : i32
    %201 = tpu.memref_slice %0[%c1024_i32_226, %c0_i32_227] : memref<8192x2048xbf16, #tpu.memory_space<hbm>> -> memref<1024x8192xbf16, #tpu.memory_space<hbm>>
    %c0_i32_228 = arith.constant 0 : i32
    %c0_i32_229 = arith.constant 0 : i32
    %202 = tpu.memref_slice %2[%c1_i32_224, %c0_i32_228, %c0_i32_229] : memref<2x1024x8192xbf16, #tpu.memory_space<vmem>> -> memref<1x1024x8192xbf16, #tpu.memory_space<vmem>>
    %203 = tpu.memref_squeeze %202 : memref<1x1024x8192xbf16, #tpu.memory_space<vmem>> -> memref<1024x8192xbf16, #tpu.memory_space<vmem>>
    %204 = tpu.memref_slice %3[%c1_i32_225] : memref<2x!tpu.dma_semaphore, #tpu.memory_space<semaphore_mem>> -> memref<1x!tpu.dma_semaphore, #tpu.memory_space<semaphore_mem>>
    %205 = tpu.memref_squeeze %204 : memref<1x!tpu.dma_semaphore, #tpu.memory_space<semaphore_mem>> -> memref<!tpu.dma_semaphore, #tpu.memory_space<semaphore_mem>>
    tpu.wait_dma2 semaphore(%205 : memref<!tpu.dma_semaphore, #tpu.memory_space<semaphore_mem>>) src(%201 : memref<1024x8192xbf16, #tpu.memory_space<hbm>>) dst(%203 : memref<1024x8192xbf16, #tpu.memory_space<vmem>>)
    %c1_i32_230 = arith.constant 1 : i32
    %c1_i32_231 = arith.constant 1 : i32
    %c3072_i32_232 = arith.constant 3072 : i32
    %c0_i32_233 = arith.constant 0 : i32
    %206 = tpu.memref_slice %0[%c3072_i32_232, %c0_i32_233] : memref<8192x2048xbf16, #tpu.memory_space<hbm>> -> memref<1024x8192xbf16, #tpu.memory_space<hbm>>
    %c0_i32_234 = arith.constant 0 : i32
    %c0_i32_235 = arith.constant 0 : i32
    %207 = tpu.memref_slice %2[%c1_i32_230, %c0_i32_234, %c0_i32_235] : memref<2x1024x8192xbf16, #tpu.memory_space<vmem>> -> memref<1x1024x8192xbf16, #tpu.memory_space<vmem>>
    %208 = tpu.memref_squeeze %207 : memref<1x1024x8192xbf16, #tpu.memory_space<vmem>> -> memref<1024x8192xbf16, #tpu.memory_space<vmem>>
    %209 = tpu.memref_slice %3[%c1_i32_231] : memref<2x!tpu.dma_semaphore, #tpu.memory_space<semaphore_mem>> -> memref<1x!tpu.dma_semaphore, #tpu.memory_space<semaphore_mem>>
    %210 = tpu.memref_squeeze %209 : memref<1x!tpu.dma_semaphore, #tpu.memory_space<semaphore_mem>> -> memref<!tpu.dma_semaphore, #tpu.memory_space<semaphore_mem>>
    tpu.enqueue_dma source(%206 : memref<1024x8192xbf16, #tpu.memory_space<hbm>>) target(%208 : memref<1024x8192xbf16, #tpu.memory_space<vmem>>) target_semaphore(%210 : memref<!tpu.dma_semaphore, #tpu.memory_space<semaphore_mem>>)
    %cst_236 = arith.constant 1.000000e+00 : f32
    %211 = arith.addf %200, %cst_236 : f32
    %c0_i32_237 = arith.constant 0 : i32
    %c0_i32_238 = arith.constant 0 : i32
    %c2048_i32_239 = arith.constant 2048 : i32
    %c0_i32_240 = arith.constant 0 : i32
    %212 = tpu.memref_slice %0[%c2048_i32_239, %c0_i32_240] : memref<8192x2048xbf16, #tpu.memory_space<hbm>> -> memref<1024x8192xbf16, #tpu.memory_space<hbm>>
    %c0_i32_241 = arith.constant 0 : i32
    %c0_i32_242 = arith.constant 0 : i32
    %213 = tpu.memref_slice %2[%c0_i32_237, %c0_i32_241, %c0_i32_242] : memref<2x1024x8192xbf16, #tpu.memory_space<vmem>> -> memref<1x1024x8192xbf16, #tpu.memory_space<vmem>>
    %214 = tpu.memref_squeeze %213 : memref<1x1024x8192xbf16, #tpu.memory_space<vmem>> -> memref<1024x8192xbf16, #tpu.memory_space<vmem>>
    %215 = tpu.memref_slice %3[%c0_i32_238] : memref<2x!tpu.dma_semaphore, #tpu.memory_space<semaphore_mem>> -> memref<1x!tpu.dma_semaphore, #tpu.memory_space<semaphore_mem>>
    %216 = tpu.memref_squeeze %215 : memref<1x!tpu.dma_semaphore, #tpu.memory_space<semaphore_mem>> -> memref<!tpu.dma_semaphore, #tpu.memory_space<semaphore_mem>>
    tpu.wait_dma2 semaphore(%216 : memref<!tpu.dma_semaphore, #tpu.memory_space<semaphore_mem>>) src(%212 : memref<1024x8192xbf16, #tpu.memory_space<hbm>>) dst(%214 : memref<1024x8192xbf16, #tpu.memory_space<vmem>>)
    %c0_i32_243 = arith.constant 0 : i32
    %c0_i32_244 = arith.constant 0 : i32
    %c4096_i32_245 = arith.constant 4096 : i32
    %c0_i32_246 = arith.constant 0 : i32
    %217 = tpu.memref_slice %0[%c4096_i32_245, %c0_i32_246] : memref<8192x2048xbf16, #tpu.memory_space<hbm>> -> memref<1024x8192xbf16, #tpu.memory_space<hbm>>
    %c0_i32_247 = arith.constant 0 : i32
    %c0_i32_248 = arith.constant 0 : i32
    %218 = tpu.memref_slice %2[%c0_i32_243, %c0_i32_247, %c0_i32_248] : memref<2x1024x8192xbf16, #tpu.memory_space<vmem>> -> memref<1x1024x8192xbf16, #tpu.memory_space<vmem>>
    %219 = tpu.memref_squeeze %218 : memref<1x1024x8192xbf16, #tpu.memory_space<vmem>> -> memref<1024x8192xbf16, #tpu.memory_space<vmem>>
    %220 = tpu.memref_slice %3[%c0_i32_244] : memref<2x!tpu.dma_semaphore, #tpu.memory_space<semaphore_mem>> -> memref<1x!tpu.dma_semaphore, #tpu.memory_space<semaphore_mem>>
    %221 = tpu.memref_squeeze %220 : memref<1x!tpu.dma_semaphore, #tpu.memory_space<semaphore_mem>> -> memref<!tpu.dma_semaphore, #tpu.memory_space<semaphore_mem>>
    tpu.enqueue_dma source(%217 : memref<1024x8192xbf16, #tpu.memory_space<hbm>>) target(%219 : memref<1024x8192xbf16, #tpu.memory_space<vmem>>) target_semaphore(%221 : memref<!tpu.dma_semaphore, #tpu.memory_space<semaphore_mem>>)
    %cst_249 = arith.constant 1.000000e+00 : f32
    %222 = arith.addf %211, %cst_249 : f32
    %c1_i32_250 = arith.constant 1 : i32
    %c1_i32_251 = arith.constant 1 : i32
    %c3072_i32_252 = arith.constant 3072 : i32
    %c0_i32_253 = arith.constant 0 : i32
    %223 = tpu.memref_slice %0[%c3072_i32_252, %c0_i32_253] : memref<8192x2048xbf16, #tpu.memory_space<hbm>> -> memref<1024x8192xbf16, #tpu.memory_space<hbm>>
    %c0_i32_254 = arith.constant 0 : i32
    %c0_i32_255 = arith.constant 0 : i32
    %224 = tpu.memref_slice %2[%c1_i32_250, %c0_i32_254, %c0_i32_255] : memref<2x1024x8192xbf16, #tpu.memory_space<vmem>> -> memref<1x1024x8192xbf16, #tpu.memory_space<vmem>>
    %225 = tpu.memref_squeeze %224 : memref<1x1024x8192xbf16, #tpu.memory_space<vmem>> -> memref<1024x8192xbf16, #tpu.memory_space<vmem>>
    %226 = tpu.memref_slice %3[%c1_i32_251] : memref<2x!tpu.dma_semaphore, #tpu.memory_space<semaphore_mem>> -> memref<1x!tpu.dma_semaphore, #tpu.memory_space<semaphore_mem>>
    %227 = tpu.memref_squeeze %226 : memref<1x!tpu.dma_semaphore, #tpu.memory_space<semaphore_mem>> -> memref<!tpu.dma_semaphore, #tpu.memory_space<semaphore_mem>>
    tpu.wait_dma2 semaphore(%227 : memref<!tpu.dma_semaphore, #tpu.memory_space<semaphore_mem>>) src(%223 : memref<1024x8192xbf16, #tpu.memory_space<hbm>>) dst(%225 : memref<1024x8192xbf16, #tpu.memory_space<vmem>>)
    %c1_i32_256 = arith.constant 1 : i32
    %c1_i32_257 = arith.constant 1 : i32
    %c5120_i32_258 = arith.constant 5120 : i32
    %c0_i32_259 = arith.constant 0 : i32
    %228 = tpu.memref_slice %0[%c5120_i32_258, %c0_i32_259] : memref<8192x2048xbf16, #tpu.memory_space<hbm>> -> memref<1024x8192xbf16, #tpu.memory_space<hbm>>
    %c0_i32_260 = arith.constant 0 : i32
    %c0_i32_261 = arith.constant 0 : i32
    %229 = tpu.memref_slice %2[%c1_i32_256, %c0_i32_260, %c0_i32_261] : memref<2x1024x8192xbf16, #tpu.memory_space<vmem>> -> memref<1x1024x8192xbf16, #tpu.memory_space<vmem>>
    %230 = tpu.memref_squeeze %229 : memref<1x1024x8192xbf16, #tpu.memory_space<vmem>> -> memref<1024x8192xbf16, #tpu.memory_space<vmem>>
    %231 = tpu.memref_slice %3[%c1_i32_257] : memref<2x!tpu.dma_semaphore, #tpu.memory_space<semaphore_mem>> -> memref<1x!tpu.dma_semaphore, #tpu.memory_space<semaphore_mem>>
    %232 = tpu.memref_squeeze %231 : memref<1x!tpu.dma_semaphore, #tpu.memory_space<semaphore_mem>> -> memref<!tpu.dma_semaphore, #tpu.memory_space<semaphore_mem>>
    tpu.enqueue_dma source(%228 : memref<1024x8192xbf16, #tpu.memory_space<hbm>>) target(%230 : memref<1024x8192xbf16, #tpu.memory_space<vmem>>) target_semaphore(%232 : memref<!tpu.dma_semaphore, #tpu.memory_space<semaphore_mem>>)
    %cst_262 = arith.constant 1.000000e+00 : f32
    %233 = arith.addf %222, %cst_262 : f32
    %c0_i32_263 = arith.constant 0 : i32
    %c0_i32_264 = arith.constant 0 : i32
    %c4096_i32_265 = arith.constant 4096 : i32
    %c0_i32_266 = arith.constant 0 : i32
    %234 = tpu.memref_slice %0[%c4096_i32_265, %c0_i32_266] : memref<8192x2048xbf16, #tpu.memory_space<hbm>> -> memref<1024x8192xbf16, #tpu.memory_space<hbm>>
    %c0_i32_267 = arith.constant 0 : i32
    %c0_i32_268 = arith.constant 0 : i32
    %235 = tpu.memref_slice %2[%c0_i32_263, %c0_i32_267, %c0_i32_268] : memref<2x1024x8192xbf16, #tpu.memory_space<vmem>> -> memref<1x1024x8192xbf16, #tpu.memory_space<vmem>>
    %236 = tpu.memref_squeeze %235 : memref<1x1024x8192xbf16, #tpu.memory_space<vmem>> -> memref<1024x8192xbf16, #tpu.memory_space<vmem>>
    %237 = tpu.memref_slice %3[%c0_i32_264] : memref<2x!tpu.dma_semaphore, #tpu.memory_space<semaphore_mem>> -> memref<1x!tpu.dma_semaphore, #tpu.memory_space<semaphore_mem>>
    %238 = tpu.memref_squeeze %237 : memref<1x!tpu.dma_semaphore, #tpu.memory_space<semaphore_mem>> -> memref<!tpu.dma_semaphore, #tpu.memory_space<semaphore_mem>>
    tpu.wait_dma2 semaphore(%238 : memref<!tpu.dma_semaphore, #tpu.memory_space<semaphore_mem>>) src(%234 : memref<1024x8192xbf16, #tpu.memory_space<hbm>>) dst(%236 : memref<1024x8192xbf16, #tpu.memory_space<vmem>>)
    %c0_i32_269 = arith.constant 0 : i32
    %c0_i32_270 = arith.constant 0 : i32
    %c6144_i32_271 = arith.constant 6144 : i32
    %c0_i32_272 = arith.constant 0 : i32
    %239 = tpu.memref_slice %0[%c6144_i32_271, %c0_i32_272] : memref<8192x2048xbf16, #tpu.memory_space<hbm>> -> memref<1024x8192xbf16, #tpu.memory_space<hbm>>
    %c0_i32_273 = arith.constant 0 : i32
    %c0_i32_274 = arith.constant 0 : i32
    %240 = tpu.memref_slice %2[%c0_i32_269, %c0_i32_273, %c0_i32_274] : memref<2x1024x8192xbf16, #tpu.memory_space<vmem>> -> memref<1x1024x8192xbf16, #tpu.memory_space<vmem>>
    %241 = tpu.memref_squeeze %240 : memref<1x1024x8192xbf16, #tpu.memory_space<vmem>> -> memref<1024x8192xbf16, #tpu.memory_space<vmem>>
    %242 = tpu.memref_slice %3[%c0_i32_270] : memref<2x!tpu.dma_semaphore, #tpu.memory_space<semaphore_mem>> -> memref<1x!tpu.dma_semaphore, #tpu.memory_space<semaphore_mem>>
    %243 = tpu.memref_squeeze %242 : memref<1x!tpu.dma_semaphore, #tpu.memory_space<semaphore_mem>> -> memref<!tpu.dma_semaphore, #tpu.memory_space<semaphore_mem>>
    tpu.enqueue_dma source(%239 : memref<1024x8192xbf16, #tpu.memory_space<hbm>>) target(%241 : memref<1024x8192xbf16, #tpu.memory_space<vmem>>) target_semaphore(%243 : memref<!tpu.dma_semaphore, #tpu.memory_space<semaphore_mem>>)
    %cst_275 = arith.constant 1.000000e+00 : f32
    %244 = arith.addf %233, %cst_275 : f32
    %c1_i32_276 = arith.constant 1 : i32
    %c1_i32_277 = arith.constant 1 : i32
    %c5120_i32_278 = arith.constant 5120 : i32
    %c0_i32_279 = arith.constant 0 : i32
    %245 = tpu.memref_slice %0[%c5120_i32_278, %c0_i32_279] : memref<8192x2048xbf16, #tpu.memory_space<hbm>> -> memref<1024x8192xbf16, #tpu.memory_space<hbm>>
    %c0_i32_280 = arith.constant 0 : i32
    %c0_i32_281 = arith.constant 0 : i32
    %246 = tpu.memref_slice %2[%c1_i32_276, %c0_i32_280, %c0_i32_281] : memref<2x1024x8192xbf16, #tpu.memory_space<vmem>> -> memref<1x1024x8192xbf16, #tpu.memory_space<vmem>>
    %247 = tpu.memref_squeeze %246 : memref<1x1024x8192xbf16, #tpu.memory_space<vmem>> -> memref<1024x8192xbf16, #tpu.memory_space<vmem>>
    %248 = tpu.memref_slice %3[%c1_i32_277] : memref<2x!tpu.dma_semaphore, #tpu.memory_space<semaphore_mem>> -> memref<1x!tpu.dma_semaphore, #tpu.memory_space<semaphore_mem>>
    %249 = tpu.memref_squeeze %248 : memref<1x!tpu.dma_semaphore, #tpu.memory_space<semaphore_mem>> -> memref<!tpu.dma_semaphore, #tpu.memory_space<semaphore_mem>>
    tpu.wait_dma2 semaphore(%249 : memref<!tpu.dma_semaphore, #tpu.memory_space<semaphore_mem>>) src(%245 : memref<1024x8192xbf16, #tpu.memory_space<hbm>>) dst(%247 : memref<1024x8192xbf16, #tpu.memory_space<vmem>>)
    %c1_i32_282 = arith.constant 1 : i32
    %c1_i32_283 = arith.constant 1 : i32
    %c7168_i32_284 = arith.constant 7168 : i32
    %c0_i32_285 = arith.constant 0 : i32
    %250 = tpu.memref_slice %0[%c7168_i32_284, %c0_i32_285] : memref<8192x2048xbf16, #tpu.memory_space<hbm>> -> memref<1024x8192xbf16, #tpu.memory_space<hbm>>
    %c0_i32_286 = arith.constant 0 : i32
    %c0_i32_287 = arith.constant 0 : i32
    %251 = tpu.memref_slice %2[%c1_i32_282, %c0_i32_286, %c0_i32_287] : memref<2x1024x8192xbf16, #tpu.memory_space<vmem>> -> memref<1x1024x8192xbf16, #tpu.memory_space<vmem>>
    %252 = tpu.memref_squeeze %251 : memref<1x1024x8192xbf16, #tpu.memory_space<vmem>> -> memref<1024x8192xbf16, #tpu.memory_space<vmem>>
    %253 = tpu.memref_slice %3[%c1_i32_283] : memref<2x!tpu.dma_semaphore, #tpu.memory_space<semaphore_mem>> -> memref<1x!tpu.dma_semaphore, #tpu.memory_space<semaphore_mem>>
    %254 = tpu.memref_squeeze %253 : memref<1x!tpu.dma_semaphore, #tpu.memory_space<semaphore_mem>> -> memref<!tpu.dma_semaphore, #tpu.memory_space<semaphore_mem>>
    tpu.enqueue_dma source(%250 : memref<1024x8192xbf16, #tpu.memory_space<hbm>>) target(%252 : memref<1024x8192xbf16, #tpu.memory_space<vmem>>) target_semaphore(%254 : memref<!tpu.dma_semaphore, #tpu.memory_space<semaphore_mem>>)
    %cst_288 = arith.constant 1.000000e+00 : f32
    %255 = arith.addf %244, %cst_288 : f32
    %c0_i32_289 = arith.constant 0 : i32
    %c0_i32_290 = arith.constant 0 : i32
    %c6144_i32_291 = arith.constant 6144 : i32
    %c0_i32_292 = arith.constant 0 : i32
    %256 = tpu.memref_slice %0[%c6144_i32_291, %c0_i32_292] : memref<8192x2048xbf16, #tpu.memory_space<hbm>> -> memref<1024x8192xbf16, #tpu.memory_space<hbm>>
    %c0_i32_293 = arith.constant 0 : i32
    %c0_i32_294 = arith.constant 0 : i32
    %257 = tpu.memref_slice %2[%c0_i32_289, %c0_i32_293, %c0_i32_294] : memref<2x1024x8192xbf16, #tpu.memory_space<vmem>> -> memref<1x1024x8192xbf16, #tpu.memory_space<vmem>>
    %258 = tpu.memref_squeeze %257 : memref<1x1024x8192xbf16, #tpu.memory_space<vmem>> -> memref<1024x8192xbf16, #tpu.memory_space<vmem>>
    %259 = tpu.memref_slice %3[%c0_i32_290] : memref<2x!tpu.dma_semaphore, #tpu.memory_space<semaphore_mem>> -> memref<1x!tpu.dma_semaphore, #tpu.memory_space<semaphore_mem>>
    %260 = tpu.memref_squeeze %259 : memref<1x!tpu.dma_semaphore, #tpu.memory_space<semaphore_mem>> -> memref<!tpu.dma_semaphore, #tpu.memory_space<semaphore_mem>>
    tpu.wait_dma2 semaphore(%260 : memref<!tpu.dma_semaphore, #tpu.memory_space<semaphore_mem>>) src(%256 : memref<1024x8192xbf16, #tpu.memory_space<hbm>>) dst(%258 : memref<1024x8192xbf16, #tpu.memory_space<vmem>>)
    %c0_i32_295 = arith.constant 0 : i32
    %c0_i32_296 = arith.constant 0 : i32
    %c0_i32_297 = arith.constant 0 : i32
    %c0_i32_298 = arith.constant 0 : i32
    %261 = tpu.memref_slice %0[%c0_i32_297, %c0_i32_298] : memref<8192x2048xbf16, #tpu.memory_space<hbm>> -> memref<1024x8192xbf16, #tpu.memory_space<hbm>>
    %c0_i32_299 = arith.constant 0 : i32
    %c0_i32_300 = arith.constant 0 : i32
    %262 = tpu.memref_slice %2[%c0_i32_295, %c0_i32_299, %c0_i32_300] : memref<2x1024x8192xbf16, #tpu.memory_space<vmem>> -> memref<1x1024x8192xbf16, #tpu.memory_space<vmem>>
    %263 = tpu.memref_squeeze %262 : memref<1x1024x8192xbf16, #tpu.memory_space<vmem>> -> memref<1024x8192xbf16, #tpu.memory_space<vmem>>
    %264 = tpu.memref_slice %3[%c0_i32_296] : memref<2x!tpu.dma_semaphore, #tpu.memory_space<semaphore_mem>> -> memref<1x!tpu.dma_semaphore, #tpu.memory_space<semaphore_mem>>
    %265 = tpu.memref_squeeze %264 : memref<1x!tpu.dma_semaphore, #tpu.memory_space<semaphore_mem>> -> memref<!tpu.dma_semaphore, #tpu.memory_space<semaphore_mem>>
    tpu.enqueue_dma source(%261 : memref<1024x8192xbf16, #tpu.memory_space<hbm>>) target(%263 : memref<1024x8192xbf16, #tpu.memory_space<vmem>>) target_semaphore(%265 : memref<!tpu.dma_semaphore, #tpu.memory_space<semaphore_mem>>)
    %cst_301 = arith.constant 1.000000e+00 : f32
    %266 = arith.addf %255, %cst_301 : f32
    %c1_i32_302 = arith.constant 1 : i32
    %c1_i32_303 = arith.constant 1 : i32
    %c7168_i32_304 = arith.constant 7168 : i32
    %c0_i32_305 = arith.constant 0 : i32
    %267 = tpu.memref_slice %0[%c7168_i32_304, %c0_i32_305] : memref<8192x2048xbf16, #tpu.memory_space<hbm>> -> memref<1024x8192xbf16, #tpu.memory_space<hbm>>
    %c0_i32_306 = arith.constant 0 : i32
    %c0_i32_307 = arith.constant 0 : i32
    %268 = tpu.memref_slice %2[%c1_i32_302, %c0_i32_306, %c0_i32_307] : memref<2x1024x8192xbf16, #tpu.memory_space<vmem>> -> memref<1x1024x8192xbf16, #tpu.memory_space<vmem>>
    %269 = tpu.memref_squeeze %268 : memref<1x1024x8192xbf16, #tpu.memory_space<vmem>> -> memref<1024x8192xbf16, #tpu.memory_space<vmem>>
    %270 = tpu.memref_slice %3[%c1_i32_303] : memref<2x!tpu.dma_semaphore, #tpu.memory_space<semaphore_mem>> -> memref<1x!tpu.dma_semaphore, #tpu.memory_space<semaphore_mem>>
    %271 = tpu.memref_squeeze %270 : memref<1x!tpu.dma_semaphore, #tpu.memory_space<semaphore_mem>> -> memref<!tpu.dma_semaphore, #tpu.memory_space<semaphore_mem>>
    tpu.wait_dma2 semaphore(%271 : memref<!tpu.dma_semaphore, #tpu.memory_space<semaphore_mem>>) src(%267 : memref<1024x8192xbf16, #tpu.memory_space<hbm>>) dst(%269 : memref<1024x8192xbf16, #tpu.memory_space<vmem>>)
    %c1_i32_308 = arith.constant 1 : i32
    %c1_i32_309 = arith.constant 1 : i32
    %c1024_i32_310 = arith.constant 1024 : i32
    %c0_i32_311 = arith.constant 0 : i32
    %272 = tpu.memref_slice %0[%c1024_i32_310, %c0_i32_311] : memref<8192x2048xbf16, #tpu.memory_space<hbm>> -> memref<1024x8192xbf16, #tpu.memory_space<hbm>>
    %c0_i32_312 = arith.constant 0 : i32
    %c0_i32_313 = arith.constant 0 : i32
    %273 = tpu.memref_slice %2[%c1_i32_308, %c0_i32_312, %c0_i32_313] : memref<2x1024x8192xbf16, #tpu.memory_space<vmem>> -> memref<1x1024x8192xbf16, #tpu.memory_space<vmem>>
    %274 = tpu.memref_squeeze %273 : memref<1x1024x8192xbf16, #tpu.memory_space<vmem>> -> memref<1024x8192xbf16, #tpu.memory_space<vmem>>
    %275 = tpu.memref_slice %3[%c1_i32_309] : memref<2x!tpu.dma_semaphore, #tpu.memory_space<semaphore_mem>> -> memref<1x!tpu.dma_semaphore, #tpu.memory_space<semaphore_mem>>
    %276 = tpu.memref_squeeze %275 : memref<1x!tpu.dma_semaphore, #tpu.memory_space<semaphore_mem>> -> memref<!tpu.dma_semaphore, #tpu.memory_space<semaphore_mem>>
    tpu.enqueue_dma source(%272 : memref<1024x8192xbf16, #tpu.memory_space<hbm>>) target(%274 : memref<1024x8192xbf16, #tpu.memory_space<vmem>>) target_semaphore(%276 : memref<!tpu.dma_semaphore, #tpu.memory_space<semaphore_mem>>)
    %cst_314 = arith.constant 1.000000e+00 : f32
    %277 = arith.addf %266, %cst_314 : f32
    %c0_i32_315 = arith.constant 0 : i32
    %c0_i32_316 = arith.constant 0 : i32
    %c0_i32_317 = arith.constant 0 : i32
    %c0_i32_318 = arith.constant 0 : i32
    %278 = tpu.memref_slice %0[%c0_i32_317, %c0_i32_318] : memref<8192x2048xbf16, #tpu.memory_space<hbm>> -> memref<1024x8192xbf16, #tpu.memory_space<hbm>>
    %c0_i32_319 = arith.constant 0 : i32
    %c0_i32_320 = arith.constant 0 : i32
    %279 = tpu.memref_slice %2[%c0_i32_315, %c0_i32_319, %c0_i32_320] : memref<2x1024x8192xbf16, #tpu.memory_space<vmem>> -> memref<1x1024x8192xbf16, #tpu.memory_space<vmem>>
    %280 = tpu.memref_squeeze %279 : memref<1x1024x8192xbf16, #tpu.memory_space<vmem>> -> memref<1024x8192xbf16, #tpu.memory_space<vmem>>
    %281 = tpu.memref_slice %3[%c0_i32_316] : memref<2x!tpu.dma_semaphore, #tpu.memory_space<semaphore_mem>> -> memref<1x!tpu.dma_semaphore, #tpu.memory_space<semaphore_mem>>
    %282 = tpu.memref_squeeze %281 : memref<1x!tpu.dma_semaphore, #tpu.memory_space<semaphore_mem>> -> memref<!tpu.dma_semaphore, #tpu.memory_space<semaphore_mem>>
    tpu.wait_dma2 semaphore(%282 : memref<!tpu.dma_semaphore, #tpu.memory_space<semaphore_mem>>) src(%278 : memref<1024x8192xbf16, #tpu.memory_space<hbm>>) dst(%280 : memref<1024x8192xbf16, #tpu.memory_space<vmem>>)
    %c0_i32_321 = arith.constant 0 : i32
    %c0_i32_322 = arith.constant 0 : i32
    %c2048_i32_323 = arith.constant 2048 : i32
    %c0_i32_324 = arith.constant 0 : i32
    %283 = tpu.memref_slice %0[%c2048_i32_323, %c0_i32_324] : memref<8192x2048xbf16, #tpu.memory_space<hbm>> -> memref<1024x8192xbf16, #tpu.memory_space<hbm>>
    %c0_i32_325 = arith.constant 0 : i32
    %c0_i32_326 = arith.constant 0 : i32
    %284 = tpu.memref_slice %2[%c0_i32_321, %c0_i32_325, %c0_i32_326] : memref<2x1024x8192xbf16, #tpu.memory_space<vmem>> -> memref<1x1024x8192xbf16, #tpu.memory_space<vmem>>
    %285 = tpu.memref_squeeze %284 : memref<1x1024x8192xbf16, #tpu.memory_space<vmem>> -> memref<1024x8192xbf16, #tpu.memory_space<vmem>>
    %286 = tpu.memref_slice %3[%c0_i32_322] : memref<2x!tpu.dma_semaphore, #tpu.memory_space<semaphore_mem>> -> memref<1x!tpu.dma_semaphore, #tpu.memory_space<semaphore_mem>>
    %287 = tpu.memref_squeeze %286 : memref<1x!tpu.dma_semaphore, #tpu.memory_space<semaphore_mem>> -> memref<!tpu.dma_semaphore, #tpu.memory_space<semaphore_mem>>
    tpu.enqueue_dma source(%283 : memref<1024x8192xbf16, #tpu.memory_space<hbm>>) target(%285 : memref<1024x8192xbf16, #tpu.memory_space<vmem>>) target_semaphore(%287 : memref<!tpu.dma_semaphore, #tpu.memory_space<semaphore_mem>>)
    %cst_327 = arith.constant 1.000000e+00 : f32
    %288 = arith.addf %277, %cst_327 : f32
    %c1_i32_328 = arith.constant 1 : i32
    %c1_i32_329 = arith.constant 1 : i32
    %c1024_i32_330 = arith.constant 1024 : i32
    %c0_i32_331 = arith.constant 0 : i32
    %289 = tpu.memref_slice %0[%c1024_i32_330, %c0_i32_331] : memref<8192x2048xbf16, #tpu.memory_space<hbm>> -> memref<1024x8192xbf16, #tpu.memory_space<hbm>>
    %c0_i32_332 = arith.constant 0 : i32
    %c0_i32_333 = arith.constant 0 : i32
    %290 = tpu.memref_slice %2[%c1_i32_328, %c0_i32_332, %c0_i32_333] : memref<2x1024x8192xbf16, #tpu.memory_space<vmem>> -> memref<1x1024x8192xbf16, #tpu.memory_space<vmem>>
    %291 = tpu.memref_squeeze %290 : memref<1x1024x8192xbf16, #tpu.memory_space<vmem>> -> memref<1024x8192xbf16, #tpu.memory_space<vmem>>
    %292 = tpu.memref_slice %3[%c1_i32_329] : memref<2x!tpu.dma_semaphore, #tpu.memory_space<semaphore_mem>> -> memref<1x!tpu.dma_semaphore, #tpu.memory_space<semaphore_mem>>
    %293 = tpu.memref_squeeze %292 : memref<1x!tpu.dma_semaphore, #tpu.memory_space<semaphore_mem>> -> memref<!tpu.dma_semaphore, #tpu.memory_space<semaphore_mem>>
    tpu.wait_dma2 semaphore(%293 : memref<!tpu.dma_semaphore, #tpu.memory_space<semaphore_mem>>) src(%289 : memref<1024x8192xbf16, #tpu.memory_space<hbm>>) dst(%291 : memref<1024x8192xbf16, #tpu.memory_space<vmem>>)
    %c1_i32_334 = arith.constant 1 : i32
    %c1_i32_335 = arith.constant 1 : i32
    %c3072_i32_336 = arith.constant 3072 : i32
    %c0_i32_337 = arith.constant 0 : i32
    %294 = tpu.memref_slice %0[%c3072_i32_336, %c0_i32_337] : memref<8192x2048xbf16, #tpu.memory_space<hbm>> -> memref<1024x8192xbf16, #tpu.memory_space<hbm>>
    %c0_i32_338 = arith.constant 0 : i32
    %c0_i32_339 = arith.constant 0 : i32
    %295 = tpu.memref_slice %2[%c1_i32_334, %c0_i32_338, %c0_i32_339] : memref<2x1024x8192xbf16, #tpu.memory_space<vmem>> -> memref<1x1024x8192xbf16, #tpu.memory_space<vmem>>
    %296 = tpu.memref_squeeze %295 : memref<1x1024x8192xbf16, #tpu.memory_space<vmem>> -> memref<1024x8192xbf16, #tpu.memory_space<vmem>>
    %297 = tpu.memref_slice %3[%c1_i32_335] : memref<2x!tpu.dma_semaphore, #tpu.memory_space<semaphore_mem>> -> memref<1x!tpu.dma_semaphore, #tpu.memory_space<semaphore_mem>>
    %298 = tpu.memref_squeeze %297 : memref<1x!tpu.dma_semaphore, #tpu.memory_space<semaphore_mem>> -> memref<!tpu.dma_semaphore, #tpu.memory_space<semaphore_mem>>
    tpu.enqueue_dma source(%294 : memref<1024x8192xbf16, #tpu.memory_space<hbm>>) target(%296 : memref<1024x8192xbf16, #tpu.memory_space<vmem>>) target_semaphore(%298 : memref<!tpu.dma_semaphore, #tpu.memory_space<semaphore_mem>>)
    %cst_340 = arith.constant 1.000000e+00 : f32
    %299 = arith.addf %288, %cst_340 : f32
    %c0_i32_341 = arith.constant 0 : i32
    %c0_i32_342 = arith.constant 0 : i32
    %c2048_i32_343 = arith.constant 2048 : i32
    %c0_i32_344 = arith.constant 0 : i32
    %300 = tpu.memref_slice %0[%c2048_i32_343, %c0_i32_344] : memref<8192x2048xbf16, #tpu.memory_space<hbm>> -> memref<1024x8192xbf16, #tpu.memory_space<hbm>>
    %c0_i32_345 = arith.constant 0 : i32
    %c0_i32_346 = arith.constant 0 : i32
    %301 = tpu.memref_slice %2[%c0_i32_341, %c0_i32_345, %c0_i32_346] : memref<2x1024x8192xbf16, #tpu.memory_space<vmem>> -> memref<1x1024x8192xbf16, #tpu.memory_space<vmem>>
    %302 = tpu.memref_squeeze %301 : memref<1x1024x8192xbf16, #tpu.memory_space<vmem>> -> memref<1024x8192xbf16, #tpu.memory_space<vmem>>
    %303 = tpu.memref_slice %3[%c0_i32_342] : memref<2x!tpu.dma_semaphore, #tpu.memory_space<semaphore_mem>> -> memref<1x!tpu.dma_semaphore, #tpu.memory_space<semaphore_mem>>
    %304 = tpu.memref_squeeze %303 : memref<1x!tpu.dma_semaphore, #tpu.memory_space<semaphore_mem>> -> memref<!tpu.dma_semaphore, #tpu.memory_space<semaphore_mem>>
    tpu.wait_dma2 semaphore(%304 : memref<!tpu.dma_semaphore, #tpu.memory_space<semaphore_mem>>) src(%300 : memref<1024x8192xbf16, #tpu.memory_space<hbm>>) dst(%302 : memref<1024x8192xbf16, #tpu.memory_space<vmem>>)
    %c0_i32_347 = arith.constant 0 : i32
    %c0_i32_348 = arith.constant 0 : i32
    %c4096_i32_349 = arith.constant 4096 : i32
    %c0_i32_350 = arith.constant 0 : i32
    %305 = tpu.memref_slice %0[%c4096_i32_349, %c0_i32_350] : memref<8192x2048xbf16, #tpu.memory_space<hbm>> -> memref<1024x8192xbf16, #tpu.memory_space<hbm>>
    %c0_i32_351 = arith.constant 0 : i32
    %c0_i32_352 = arith.constant 0 : i32
    %306 = tpu.memref_slice %2[%c0_i32_347, %c0_i32_351, %c0_i32_352] : memref<2x1024x8192xbf16, #tpu.memory_space<vmem>> -> memref<1x1024x8192xbf16, #tpu.memory_space<vmem>>
    %307 = tpu.memref_squeeze %306 : memref<1x1024x8192xbf16, #tpu.memory_space<vmem>> -> memref<1024x8192xbf16, #tpu.memory_space<vmem>>
    %308 = tpu.memref_slice %3[%c0_i32_348] : memref<2x!tpu.dma_semaphore, #tpu.memory_space<semaphore_mem>> -> memref<1x!tpu.dma_semaphore, #tpu.memory_space<semaphore_mem>>
    %309 = tpu.memref_squeeze %308 : memref<1x!tpu.dma_semaphore, #tpu.memory_space<semaphore_mem>> -> memref<!tpu.dma_semaphore, #tpu.memory_space<semaphore_mem>>
    tpu.enqueue_dma source(%305 : memref<1024x8192xbf16, #tpu.memory_space<hbm>>) target(%307 : memref<1024x8192xbf16, #tpu.memory_space<vmem>>) target_semaphore(%309 : memref<!tpu.dma_semaphore, #tpu.memory_space<semaphore_mem>>)
    %cst_353 = arith.constant 1.000000e+00 : f32
    %310 = arith.addf %299, %cst_353 : f32
    %c1_i32_354 = arith.constant 1 : i32
    %c1_i32_355 = arith.constant 1 : i32
    %c3072_i32_356 = arith.constant 3072 : i32
    %c0_i32_357 = arith.constant 0 : i32
    %311 = tpu.memref_slice %0[%c3072_i32_356, %c0_i32_357] : memref<8192x2048xbf16, #tpu.memory_space<hbm>> -> memref<1024x8192xbf16, #tpu.memory_space<hbm>>
    %c0_i32_358 = arith.constant 0 : i32
    %c0_i32_359 = arith.constant 0 : i32
    %312 = tpu.memref_slice %2[%c1_i32_354, %c0_i32_358, %c0_i32_359] : memref<2x1024x8192xbf16, #tpu.memory_space<vmem>> -> memref<1x1024x8192xbf16, #tpu.memory_space<vmem>>
    %313 = tpu.memref_squeeze %312 : memref<1x1024x8192xbf16, #tpu.memory_space<vmem>> -> memref<1024x8192xbf16, #tpu.memory_space<vmem>>
    %314 = tpu.memref_slice %3[%c1_i32_355] : memref<2x!tpu.dma_semaphore, #tpu.memory_space<semaphore_mem>> -> memref<1x!tpu.dma_semaphore, #tpu.memory_space<semaphore_mem>>
    %315 = tpu.memref_squeeze %314 : memref<1x!tpu.dma_semaphore, #tpu.memory_space<semaphore_mem>> -> memref<!tpu.dma_semaphore, #tpu.memory_space<semaphore_mem>>
    tpu.wait_dma2 semaphore(%315 : memref<!tpu.dma_semaphore, #tpu.memory_space<semaphore_mem>>) src(%311 : memref<1024x8192xbf16, #tpu.memory_space<hbm>>) dst(%313 : memref<1024x8192xbf16, #tpu.memory_space<vmem>>)
    %c1_i32_360 = arith.constant 1 : i32
    %c1_i32_361 = arith.constant 1 : i32
    %c5120_i32_362 = arith.constant 5120 : i32
    %c0_i32_363 = arith.constant 0 : i32
    %316 = tpu.memref_slice %0[%c5120_i32_362, %c0_i32_363] : memref<8192x2048xbf16, #tpu.memory_space<hbm>> -> memref<1024x8192xbf16, #tpu.memory_space<hbm>>
    %c0_i32_364 = arith.constant 0 : i32
    %c0_i32_365 = arith.constant 0 : i32
    %317 = tpu.memref_slice %2[%c1_i32_360, %c0_i32_364, %c0_i32_365] : memref<2x1024x8192xbf16, #tpu.memory_space<vmem>> -> memref<1x1024x8192xbf16, #tpu.memory_space<vmem>>
    %318 = tpu.memref_squeeze %317 : memref<1x1024x8192xbf16, #tpu.memory_space<vmem>> -> memref<1024x8192xbf16, #tpu.memory_space<vmem>>
    %319 = tpu.memref_slice %3[%c1_i32_361] : memref<2x!tpu.dma_semaphore, #tpu.memory_space<semaphore_mem>> -> memref<1x!tpu.dma_semaphore, #tpu.memory_space<semaphore_mem>>
    %320 = tpu.memref_squeeze %319 : memref<1x!tpu.dma_semaphore, #tpu.memory_space<semaphore_mem>> -> memref<!tpu.dma_semaphore, #tpu.memory_space<semaphore_mem>>
    tpu.enqueue_dma source(%316 : memref<1024x8192xbf16, #tpu.memory_space<hbm>>) target(%318 : memref<1024x8192xbf16, #tpu.memory_space<vmem>>) target_semaphore(%320 : memref<!tpu.dma_semaphore, #tpu.memory_space<semaphore_mem>>)
    %cst_366 = arith.constant 1.000000e+00 : f32
    %321 = arith.addf %310, %cst_366 : f32
    %c0_i32_367 = arith.constant 0 : i32
    %c0_i32_368 = arith.constant 0 : i32
    %c4096_i32_369 = arith.constant 4096 : i32
    %c0_i32_370 = arith.constant 0 : i32
    %322 = tpu.memref_slice %0[%c4096_i32_369, %c0_i32_370] : memref<8192x2048xbf16, #tpu.memory_space<hbm>> -> memref<1024x8192xbf16, #tpu.memory_space<hbm>>
    %c0_i32_371 = arith.constant 0 : i32
    %c0_i32_372 = arith.constant 0 : i32
    %323 = tpu.memref_slice %2[%c0_i32_367, %c0_i32_371, %c0_i32_372] : memref<2x1024x8192xbf16, #tpu.memory_space<vmem>> -> memref<1x1024x8192xbf16, #tpu.memory_space<vmem>>
    %324 = tpu.memref_squeeze %323 : memref<1x1024x8192xbf16, #tpu.memory_space<vmem>> -> memref<1024x8192xbf16, #tpu.memory_space<vmem>>
    %325 = tpu.memref_slice %3[%c0_i32_368] : memref<2x!tpu.dma_semaphore, #tpu.memory_space<semaphore_mem>> -> memref<1x!tpu.dma_semaphore, #tpu.memory_space<semaphore_mem>>
    %326 = tpu.memref_squeeze %325 : memref<1x!tpu.dma_semaphore, #tpu.memory_space<semaphore_mem>> -> memref<!tpu.dma_semaphore, #tpu.memory_space<semaphore_mem>>
    tpu.wait_dma2 semaphore(%326 : memref<!tpu.dma_semaphore, #tpu.memory_space<semaphore_mem>>) src(%322 : memref<1024x8192xbf16, #tpu.memory_space<hbm>>) dst(%324 : memref<1024x8192xbf16, #tpu.memory_space<vmem>>)
    %c0_i32_373 = arith.constant 0 : i32
    %c0_i32_374 = arith.constant 0 : i32
    %c6144_i32_375 = arith.constant 6144 : i32
    %c0_i32_376 = arith.constant 0 : i32
    %327 = tpu.memref_slice %0[%c6144_i32_375, %c0_i32_376] : memref<8192x2048xbf16, #tpu.memory_space<hbm>> -> memref<1024x8192xbf16, #tpu.memory_space<hbm>>
    %c0_i32_377 = arith.constant 0 : i32
    %c0_i32_378 = arith.constant 0 : i32
    %328 = tpu.memref_slice %2[%c0_i32_373, %c0_i32_377, %c0_i32_378] : memref<2x1024x8192xbf16, #tpu.memory_space<vmem>> -> memref<1x1024x8192xbf16, #tpu.memory_space<vmem>>
    %329 = tpu.memref_squeeze %328 : memref<1x1024x8192xbf16, #tpu.memory_space<vmem>> -> memref<1024x8192xbf16, #tpu.memory_space<vmem>>
    %330 = tpu.memref_slice %3[%c0_i32_374] : memref<2x!tpu.dma_semaphore, #tpu.memory_space<semaphore_mem>> -> memref<1x!tpu.dma_semaphore, #tpu.memory_space<semaphore_mem>>
    %331 = tpu.memref_squeeze %330 : memref<1x!tpu.dma_semaphore, #tpu.memory_space<semaphore_mem>> -> memref<!tpu.dma_semaphore, #tpu.memory_space<semaphore_mem>>
    tpu.enqueue_dma source(%327 : memref<1024x8192xbf16, #tpu.memory_space<hbm>>) target(%329 : memref<1024x8192xbf16, #tpu.memory_space<vmem>>) target_semaphore(%331 : memref<!tpu.dma_semaphore, #tpu.memory_space<semaphore_mem>>)
    %cst_379 = arith.constant 1.000000e+00 : f32
    %332 = arith.addf %321, %cst_379 : f32
    %c1_i32_380 = arith.constant 1 : i32
    %c1_i32_381 = arith.constant 1 : i32
    %c5120_i32_382 = arith.constant 5120 : i32
    %c0_i32_383 = arith.constant 0 : i32
    %333 = tpu.memref_slice %0[%c5120_i32_382, %c0_i32_383] : memref<8192x2048xbf16, #tpu.memory_space<hbm>> -> memref<1024x8192xbf16, #tpu.memory_space<hbm>>
    %c0_i32_384 = arith.constant 0 : i32
    %c0_i32_385 = arith.constant 0 : i32
    %334 = tpu.memref_slice %2[%c1_i32_380, %c0_i32_384, %c0_i32_385] : memref<2x1024x8192xbf16, #tpu.memory_space<vmem>> -> memref<1x1024x8192xbf16, #tpu.memory_space<vmem>>
    %335 = tpu.memref_squeeze %334 : memref<1x1024x8192xbf16, #tpu.memory_space<vmem>> -> memref<1024x8192xbf16, #tpu.memory_space<vmem>>
    %336 = tpu.memref_slice %3[%c1_i32_381] : memref<2x!tpu.dma_semaphore, #tpu.memory_space<semaphore_mem>> -> memref<1x!tpu.dma_semaphore, #tpu.memory_space<semaphore_mem>>
    %337 = tpu.memref_squeeze %336 : memref<1x!tpu.dma_semaphore, #tpu.memory_space<semaphore_mem>> -> memref<!tpu.dma_semaphore, #tpu.memory_space<semaphore_mem>>
    tpu.wait_dma2 semaphore(%337 : memref<!tpu.dma_semaphore, #tpu.memory_space<semaphore_mem>>) src(%333 : memref<1024x8192xbf16, #tpu.memory_space<hbm>>) dst(%335 : memref<1024x8192xbf16, #tpu.memory_space<vmem>>)
    %c1_i32_386 = arith.constant 1 : i32
    %c1_i32_387 = arith.constant 1 : i32
    %c7168_i32_388 = arith.constant 7168 : i32
    %c0_i32_389 = arith.constant 0 : i32
    %338 = tpu.memref_slice %0[%c7168_i32_388, %c0_i32_389] : memref<8192x2048xbf16, #tpu.memory_space<hbm>> -> memref<1024x8192xbf16, #tpu.memory_space<hbm>>
    %c0_i32_390 = arith.constant 0 : i32
    %c0_i32_391 = arith.constant 0 : i32
    %339 = tpu.memref_slice %2[%c1_i32_386, %c0_i32_390, %c0_i32_391] : memref<2x1024x8192xbf16, #tpu.memory_space<vmem>> -> memref<1x1024x8192xbf16, #tpu.memory_space<vmem>>
    %340 = tpu.memref_squeeze %339 : memref<1x1024x8192xbf16, #tpu.memory_space<vmem>> -> memref<1024x8192xbf16, #tpu.memory_space<vmem>>
    %341 = tpu.memref_slice %3[%c1_i32_387] : memref<2x!tpu.dma_semaphore, #tpu.memory_space<semaphore_mem>> -> memref<1x!tpu.dma_semaphore, #tpu.memory_space<semaphore_mem>>
    %342 = tpu.memref_squeeze %341 : memref<1x!tpu.dma_semaphore, #tpu.memory_space<semaphore_mem>> -> memref<!tpu.dma_semaphore, #tpu.memory_space<semaphore_mem>>
    tpu.enqueue_dma source(%338 : memref<1024x8192xbf16, #tpu.memory_space<hbm>>) target(%340 : memref<1024x8192xbf16, #tpu.memory_space<vmem>>) target_semaphore(%342 : memref<!tpu.dma_semaphore, #tpu.memory_space<semaphore_mem>>)
    %cst_392 = arith.constant 1.000000e+00 : f32
    %343 = arith.addf %332, %cst_392 : f32
    %c0_i32_393 = arith.constant 0 : i32
    %c0_i32_394 = arith.constant 0 : i32
    %c6144_i32_395 = arith.constant 6144 : i32
    %c0_i32_396 = arith.constant 0 : i32
    %344 = tpu.memref_slice %0[%c6144_i32_395, %c0_i32_396] : memref<8192x2048xbf16, #tpu.memory_space<hbm>> -> memref<1024x8192xbf16, #tpu.memory_space<hbm>>
    %c0_i32_397 = arith.constant 0 : i32
    %c0_i32_398 = arith.constant 0 : i32
    %345 = tpu.memref_slice %2[%c0_i32_393, %c0_i32_397, %c0_i32_398] : memref<2x1024x8192xbf16, #tpu.memory_space<vmem>> -> memref<1x1024x8192xbf16, #tpu.memory_space<vmem>>
    %346 = tpu.memref_squeeze %345 : memref<1x1024x8192xbf16, #tpu.memory_space<vmem>> -> memref<1024x8192xbf16, #tpu.memory_space<vmem>>
    %347 = tpu.memref_slice %3[%c0_i32_394] : memref<2x!tpu.dma_semaphore, #tpu.memory_space<semaphore_mem>> -> memref<1x!tpu.dma_semaphore, #tpu.memory_space<semaphore_mem>>
    %348 = tpu.memref_squeeze %347 : memref<1x!tpu.dma_semaphore, #tpu.memory_space<semaphore_mem>> -> memref<!tpu.dma_semaphore, #tpu.memory_space<semaphore_mem>>
    tpu.wait_dma2 semaphore(%348 : memref<!tpu.dma_semaphore, #tpu.memory_space<semaphore_mem>>) src(%344 : memref<1024x8192xbf16, #tpu.memory_space<hbm>>) dst(%346 : memref<1024x8192xbf16, #tpu.memory_space<vmem>>)
    %c0_i32_399 = arith.constant 0 : i32
    %c0_i32_400 = arith.constant 0 : i32
    %c0_i32_401 = arith.constant 0 : i32
    %c0_i32_402 = arith.constant 0 : i32
    %349 = tpu.memref_slice %0[%c0_i32_401, %c0_i32_402] : memref<8192x2048xbf16, #tpu.memory_space<hbm>> -> memref<1024x8192xbf16, #tpu.memory_space<hbm>>
    %c0_i32_403 = arith.constant 0 : i32
    %c0_i32_404 = arith.constant 0 : i32
    %350 = tpu.memref_slice %2[%c0_i32_399, %c0_i32_403, %c0_i32_404] : memref<2x1024x8192xbf16, #tpu.memory_space<vmem>> -> memref<1x1024x8192xbf16, #tpu.memory_space<vmem>>
    %351 = tpu.memref_squeeze %350 : memref<1x1024x8192xbf16, #tpu.memory_space<vmem>> -> memref<1024x8192xbf16, #tpu.memory_space<vmem>>
    %352 = tpu.memref_slice %3[%c0_i32_400] : memref<2x!tpu.dma_semaphore, #tpu.memory_space<semaphore_mem>> -> memref<1x!tpu.dma_semaphore, #tpu.memory_space<semaphore_mem>>
    %353 = tpu.memref_squeeze %352 : memref<1x!tpu.dma_semaphore, #tpu.memory_space<semaphore_mem>> -> memref<!tpu.dma_semaphore, #tpu.memory_space<semaphore_mem>>
    tpu.enqueue_dma source(%349 : memref<1024x8192xbf16, #tpu.memory_space<hbm>>) target(%351 : memref<1024x8192xbf16, #tpu.memory_space<vmem>>) target_semaphore(%353 : memref<!tpu.dma_semaphore, #tpu.memory_space<semaphore_mem>>)
    %cst_405 = arith.constant 1.000000e+00 : f32
    %354 = arith.addf %343, %cst_405 : f32
    %c1_i32_406 = arith.constant 1 : i32
    %c1_i32_407 = arith.constant 1 : i32
    %c7168_i32_408 = arith.constant 7168 : i32
    %c0_i32_409 = arith.constant 0 : i32
    %355 = tpu.memref_slice %0[%c7168_i32_408, %c0_i32_409] : memref<8192x2048xbf16, #tpu.memory_space<hbm>> -> memref<1024x8192xbf16, #tpu.memory_space<hbm>>
    %c0_i32_410 = arith.constant 0 : i32
    %c0_i32_411 = arith.constant 0 : i32
    %356 = tpu.memref_slice %2[%c1_i32_406, %c0_i32_410, %c0_i32_411] : memref<2x1024x8192xbf16, #tpu.memory_space<vmem>> -> memref<1x1024x8192xbf16, #tpu.memory_space<vmem>>
    %357 = tpu.memref_squeeze %356 : memref<1x1024x8192xbf16, #tpu.memory_space<vmem>> -> memref<1024x8192xbf16, #tpu.memory_space<vmem>>
    %358 = tpu.memref_slice %3[%c1_i32_407] : memref<2x!tpu.dma_semaphore, #tpu.memory_space<semaphore_mem>> -> memref<1x!tpu.dma_semaphore, #tpu.memory_space<semaphore_mem>>
    %359 = tpu.memref_squeeze %358 : memref<1x!tpu.dma_semaphore, #tpu.memory_space<semaphore_mem>> -> memref<!tpu.dma_semaphore, #tpu.memory_space<semaphore_mem>>
    tpu.wait_dma2 semaphore(%359 : memref<!tpu.dma_semaphore, #tpu.memory_space<semaphore_mem>>) src(%355 : memref<1024x8192xbf16, #tpu.memory_space<hbm>>) dst(%357 : memref<1024x8192xbf16, #tpu.memory_space<vmem>>)
    %c1_i32_412 = arith.constant 1 : i32
    %c1_i32_413 = arith.constant 1 : i32
    %c1024_i32_414 = arith.constant 1024 : i32
    %c0_i32_415 = arith.constant 0 : i32
    %360 = tpu.memref_slice %0[%c1024_i32_414, %c0_i32_415] : memref<8192x2048xbf16, #tpu.memory_space<hbm>> -> memref<1024x8192xbf16, #tpu.memory_space<hbm>>
    %c0_i32_416 = arith.constant 0 : i32
    %c0_i32_417 = arith.constant 0 : i32
    %361 = tpu.memref_slice %2[%c1_i32_412, %c0_i32_416, %c0_i32_417] : memref<2x1024x8192xbf16, #tpu.memory_space<vmem>> -> memref<1x1024x8192xbf16, #tpu.memory_space<vmem>>
    %362 = tpu.memref_squeeze %361 : memref<1x1024x8192xbf16, #tpu.memory_space<vmem>> -> memref<1024x8192xbf16, #tpu.memory_space<vmem>>
    %363 = tpu.memref_slice %3[%c1_i32_413] : memref<2x!tpu.dma_semaphore, #tpu.memory_space<semaphore_mem>> -> memref<1x!tpu.dma_semaphore, #tpu.memory_space<semaphore_mem>>
    %364 = tpu.memref_squeeze %363 : memref<1x!tpu.dma_semaphore, #tpu.memory_space<semaphore_mem>> -> memref<!tpu.dma_semaphore, #tpu.memory_space<semaphore_mem>>
    tpu.enqueue_dma source(%360 : memref<1024x8192xbf16, #tpu.memory_space<hbm>>) target(%362 : memref<1024x8192xbf16, #tpu.memory_space<vmem>>) target_semaphore(%364 : memref<!tpu.dma_semaphore, #tpu.memory_space<semaphore_mem>>)
    %cst_418 = arith.constant 1.000000e+00 : f32
    %365 = arith.addf %354, %cst_418 : f32
    %c0_i32_419 = arith.constant 0 : i32
    %c0_i32_420 = arith.constant 0 : i32
    %c0_i32_421 = arith.constant 0 : i32
    %c0_i32_422 = arith.constant 0 : i32
    %366 = tpu.memref_slice %0[%c0_i32_421, %c0_i32_422] : memref<8192x2048xbf16, #tpu.memory_space<hbm>> -> memref<1024x8192xbf16, #tpu.memory_space<hbm>>
    %c0_i32_423 = arith.constant 0 : i32
    %c0_i32_424 = arith.constant 0 : i32
    %367 = tpu.memref_slice %2[%c0_i32_419, %c0_i32_423, %c0_i32_424] : memref<2x1024x8192xbf16, #tpu.memory_space<vmem>> -> memref<1x1024x8192xbf16, #tpu.memory_space<vmem>>
    %368 = tpu.memref_squeeze %367 : memref<1x1024x8192xbf16, #tpu.memory_space<vmem>> -> memref<1024x8192xbf16, #tpu.memory_space<vmem>>
    %369 = tpu.memref_slice %3[%c0_i32_420] : memref<2x!tpu.dma_semaphore, #tpu.memory_space<semaphore_mem>> -> memref<1x!tpu.dma_semaphore, #tpu.memory_space<semaphore_mem>>
    %370 = tpu.memref_squeeze %369 : memref<1x!tpu.dma_semaphore, #tpu.memory_space<semaphore_mem>> -> memref<!tpu.dma_semaphore, #tpu.memory_space<semaphore_mem>>
    tpu.wait_dma2 semaphore(%370 : memref<!tpu.dma_semaphore, #tpu.memory_space<semaphore_mem>>) src(%366 : memref<1024x8192xbf16, #tpu.memory_space<hbm>>) dst(%368 : memref<1024x8192xbf16, #tpu.memory_space<vmem>>)
    %c0_i32_425 = arith.constant 0 : i32
    %c0_i32_426 = arith.constant 0 : i32
    %c2048_i32_427 = arith.constant 2048 : i32
    %c0_i32_428 = arith.constant 0 : i32
    %371 = tpu.memref_slice %0[%c2048_i32_427, %c0_i32_428] : memref<8192x2048xbf16, #tpu.memory_space<hbm>> -> memref<1024x8192xbf16, #tpu.memory_space<hbm>>
    %c0_i32_429 = arith.constant 0 : i32
    %c0_i32_430 = arith.constant 0 : i32
    %372 = tpu.memref_slice %2[%c0_i32_425, %c0_i32_429, %c0_i32_430] : memref<2x1024x8192xbf16, #tpu.memory_space<vmem>> -> memref<1x1024x8192xbf16, #tpu.memory_space<vmem>>
    %373 = tpu.memref_squeeze %372 : memref<1x1024x8192xbf16, #tpu.memory_space<vmem>> -> memref<1024x8192xbf16, #tpu.memory_space<vmem>>
    %374 = tpu.memref_slice %3[%c0_i32_426] : memref<2x!tpu.dma_semaphore, #tpu.memory_space<semaphore_mem>> -> memref<1x!tpu.dma_semaphore, #tpu.memory_space<semaphore_mem>>
    %375 = tpu.memref_squeeze %374 : memref<1x!tpu.dma_semaphore, #tpu.memory_space<semaphore_mem>> -> memref<!tpu.dma_semaphore, #tpu.memory_space<semaphore_mem>>
    tpu.enqueue_dma source(%371 : memref<1024x8192xbf16, #tpu.memory_space<hbm>>) target(%373 : memref<1024x8192xbf16, #tpu.memory_space<vmem>>) target_semaphore(%375 : memref<!tpu.dma_semaphore, #tpu.memory_space<semaphore_mem>>)
    %cst_431 = arith.constant 1.000000e+00 : f32
    %376 = arith.addf %365, %cst_431 : f32
    %c1_i32_432 = arith.constant 1 : i32
    %c1_i32_433 = arith.constant 1 : i32
    %c1024_i32_434 = arith.constant 1024 : i32
    %c0_i32_435 = arith.constant 0 : i32
    %377 = tpu.memref_slice %0[%c1024_i32_434, %c0_i32_435] : memref<8192x2048xbf16, #tpu.memory_space<hbm>> -> memref<1024x8192xbf16, #tpu.memory_space<hbm>>
    %c0_i32_436 = arith.constant 0 : i32
    %c0_i32_437 = arith.constant 0 : i32
    %378 = tpu.memref_slice %2[%c1_i32_432, %c0_i32_436, %c0_i32_437] : memref<2x1024x8192xbf16, #tpu.memory_space<vmem>> -> memref<1x1024x8192xbf16, #tpu.memory_space<vmem>>
    %379 = tpu.memref_squeeze %378 : memref<1x1024x8192xbf16, #tpu.memory_space<vmem>> -> memref<1024x8192xbf16, #tpu.memory_space<vmem>>
    %380 = tpu.memref_slice %3[%c1_i32_433] : memref<2x!tpu.dma_semaphore, #tpu.memory_space<semaphore_mem>> -> memref<1x!tpu.dma_semaphore, #tpu.memory_space<semaphore_mem>>
    %381 = tpu.memref_squeeze %380 : memref<1x!tpu.dma_semaphore, #tpu.memory_space<semaphore_mem>> -> memref<!tpu.dma_semaphore, #tpu.memory_space<semaphore_mem>>
    tpu.wait_dma2 semaphore(%381 : memref<!tpu.dma_semaphore, #tpu.memory_space<semaphore_mem>>) src(%377 : memref<1024x8192xbf16, #tpu.memory_space<hbm>>) dst(%379 : memref<1024x8192xbf16, #tpu.memory_space<vmem>>)
    %c1_i32_438 = arith.constant 1 : i32
    %c1_i32_439 = arith.constant 1 : i32
    %c3072_i32_440 = arith.constant 3072 : i32
    %c0_i32_441 = arith.constant 0 : i32
    %382 = tpu.memref_slice %0[%c3072_i32_440, %c0_i32_441] : memref<8192x2048xbf16, #tpu.memory_space<hbm>> -> memref<1024x8192xbf16, #tpu.memory_space<hbm>>
    %c0_i32_442 = arith.constant 0 : i32
    %c0_i32_443 = arith.constant 0 : i32
    %383 = tpu.memref_slice %2[%c1_i32_438, %c0_i32_442, %c0_i32_443] : memref<2x1024x8192xbf16, #tpu.memory_space<vmem>> -> memref<1x1024x8192xbf16, #tpu.memory_space<vmem>>
    %384 = tpu.memref_squeeze %383 : memref<1x1024x8192xbf16, #tpu.memory_space<vmem>> -> memref<1024x8192xbf16, #tpu.memory_space<vmem>>
    %385 = tpu.memref_slice %3[%c1_i32_439] : memref<2x!tpu.dma_semaphore, #tpu.memory_space<semaphore_mem>> -> memref<1x!tpu.dma_semaphore, #tpu.memory_space<semaphore_mem>>
    %386 = tpu.memref_squeeze %385 : memref<1x!tpu.dma_semaphore, #tpu.memory_space<semaphore_mem>> -> memref<!tpu.dma_semaphore, #tpu.memory_space<semaphore_mem>>
    tpu.enqueue_dma source(%382 : memref<1024x8192xbf16, #tpu.memory_space<hbm>>) target(%384 : memref<1024x8192xbf16, #tpu.memory_space<vmem>>) target_semaphore(%386 : memref<!tpu.dma_semaphore, #tpu.memory_space<semaphore_mem>>)
    %cst_444 = arith.constant 1.000000e+00 : f32
    %387 = arith.addf %376, %cst_444 : f32
    %c0_i32_445 = arith.constant 0 : i32
    %c0_i32_446 = arith.constant 0 : i32
    %c2048_i32_447 = arith.constant 2048 : i32
    %c0_i32_448 = arith.constant 0 : i32
    %388 = tpu.memref_slice %0[%c2048_i32_447, %c0_i32_448] : memref<8192x2048xbf16, #tpu.memory_space<hbm>> -> memref<1024x8192xbf16, #tpu.memory_space<hbm>>
    %c0_i32_449 = arith.constant 0 : i32
    %c0_i32_450 = arith.constant 0 : i32
    %389 = tpu.memref_slice %2[%c0_i32_445, %c0_i32_449, %c0_i32_450] : memref<2x1024x8192xbf16, #tpu.memory_space<vmem>> -> memref<1x1024x8192xbf16, #tpu.memory_space<vmem>>
    %390 = tpu.memref_squeeze %389 : memref<1x1024x8192xbf16, #tpu.memory_space<vmem>> -> memref<1024x8192xbf16, #tpu.memory_space<vmem>>
    %391 = tpu.memref_slice %3[%c0_i32_446] : memref<2x!tpu.dma_semaphore, #tpu.memory_space<semaphore_mem>> -> memref<1x!tpu.dma_semaphore, #tpu.memory_space<semaphore_mem>>
    %392 = tpu.memref_squeeze %391 : memref<1x!tpu.dma_semaphore, #tpu.memory_space<semaphore_mem>> -> memref<!tpu.dma_semaphore, #tpu.memory_space<semaphore_mem>>
    tpu.wait_dma2 semaphore(%392 : memref<!tpu.dma_semaphore, #tpu.memory_space<semaphore_mem>>) src(%388 : memref<1024x8192xbf16, #tpu.memory_space<hbm>>) dst(%390 : memref<1024x8192xbf16, #tpu.memory_space<vmem>>)
    %c0_i32_451 = arith.constant 0 : i32
    %c0_i32_452 = arith.constant 0 : i32
    %c4096_i32_453 = arith.constant 4096 : i32
    %c0_i32_454 = arith.constant 0 : i32
    %393 = tpu.memref_slice %0[%c4096_i32_453, %c0_i32_454] : memref<8192x2048xbf16, #tpu.memory_space<hbm>> -> memref<1024x8192xbf16, #tpu.memory_space<hbm>>
    %c0_i32_455 = arith.constant 0 : i32
    %c0_i32_456 = arith.constant 0 : i32
    %394 = tpu.memref_slice %2[%c0_i32_451, %c0_i32_455, %c0_i32_456] : memref<2x1024x8192xbf16, #tpu.memory_space<vmem>> -> memref<1x1024x8192xbf16, #tpu.memory_space<vmem>>
    %395 = tpu.memref_squeeze %394 : memref<1x1024x8192xbf16, #tpu.memory_space<vmem>> -> memref<1024x8192xbf16, #tpu.memory_space<vmem>>
    %396 = tpu.memref_slice %3[%c0_i32_452] : memref<2x!tpu.dma_semaphore, #tpu.memory_space<semaphore_mem>> -> memref<1x!tpu.dma_semaphore, #tpu.memory_space<semaphore_mem>>
    %397 = tpu.memref_squeeze %396 : memref<1x!tpu.dma_semaphore, #tpu.memory_space<semaphore_mem>> -> memref<!tpu.dma_semaphore, #tpu.memory_space<semaphore_mem>>
    tpu.enqueue_dma source(%393 : memref<1024x8192xbf16, #tpu.memory_space<hbm>>) target(%395 : memref<1024x8192xbf16, #tpu.memory_space<vmem>>) target_semaphore(%397 : memref<!tpu.dma_semaphore, #tpu.memory_space<semaphore_mem>>)
    %cst_457 = arith.constant 1.000000e+00 : f32
    %398 = arith.addf %387, %cst_457 : f32
    %c1_i32_458 = arith.constant 1 : i32
    %c1_i32_459 = arith.constant 1 : i32
    %c3072_i32_460 = arith.constant 3072 : i32
    %c0_i32_461 = arith.constant 0 : i32
    %399 = tpu.memref_slice %0[%c3072_i32_460, %c0_i32_461] : memref<8192x2048xbf16, #tpu.memory_space<hbm>> -> memref<1024x8192xbf16, #tpu.memory_space<hbm>>
    %c0_i32_462 = arith.constant 0 : i32
    %c0_i32_463 = arith.constant 0 : i32
    %400 = tpu.memref_slice %2[%c1_i32_458, %c0_i32_462, %c0_i32_463] : memref<2x1024x8192xbf16, #tpu.memory_space<vmem>> -> memref<1x1024x8192xbf16, #tpu.memory_space<vmem>>
    %401 = tpu.memref_squeeze %400 : memref<1x1024x8192xbf16, #tpu.memory_space<vmem>> -> memref<1024x8192xbf16, #tpu.memory_space<vmem>>
    %402 = tpu.memref_slice %3[%c1_i32_459] : memref<2x!tpu.dma_semaphore, #tpu.memory_space<semaphore_mem>> -> memref<1x!tpu.dma_semaphore, #tpu.memory_space<semaphore_mem>>
    %403 = tpu.memref_squeeze %402 : memref<1x!tpu.dma_semaphore, #tpu.memory_space<semaphore_mem>> -> memref<!tpu.dma_semaphore, #tpu.memory_space<semaphore_mem>>
    tpu.wait_dma2 semaphore(%403 : memref<!tpu.dma_semaphore, #tpu.memory_space<semaphore_mem>>) src(%399 : memref<1024x8192xbf16, #tpu.memory_space<hbm>>) dst(%401 : memref<1024x8192xbf16, #tpu.memory_space<vmem>>)
    %c1_i32_464 = arith.constant 1 : i32
    %c1_i32_465 = arith.constant 1 : i32
    %c5120_i32_466 = arith.constant 5120 : i32
    %c0_i32_467 = arith.constant 0 : i32
    %404 = tpu.memref_slice %0[%c5120_i32_466, %c0_i32_467] : memref<8192x2048xbf16, #tpu.memory_space<hbm>> -> memref<1024x8192xbf16, #tpu.memory_space<hbm>>
    %c0_i32_468 = arith.constant 0 : i32
    %c0_i32_469 = arith.constant 0 : i32
    %405 = tpu.memref_slice %2[%c1_i32_464, %c0_i32_468, %c0_i32_469] : memref<2x1024x8192xbf16, #tpu.memory_space<vmem>> -> memref<1x1024x8192xbf16, #tpu.memory_space<vmem>>
    %406 = tpu.memref_squeeze %405 : memref<1x1024x8192xbf16, #tpu.memory_space<vmem>> -> memref<1024x8192xbf16, #tpu.memory_space<vmem>>
    %407 = tpu.memref_slice %3[%c1_i32_465] : memref<2x!tpu.dma_semaphore, #tpu.memory_space<semaphore_mem>> -> memref<1x!tpu.dma_semaphore, #tpu.memory_space<semaphore_mem>>
    %408 = tpu.memref_squeeze %407 : memref<1x!tpu.dma_semaphore, #tpu.memory_space<semaphore_mem>> -> memref<!tpu.dma_semaphore, #tpu.memory_space<semaphore_mem>>
    tpu.enqueue_dma source(%404 : memref<1024x8192xbf16, #tpu.memory_space<hbm>>) target(%406 : memref<1024x8192xbf16, #tpu.memory_space<vmem>>) target_semaphore(%408 : memref<!tpu.dma_semaphore, #tpu.memory_space<semaphore_mem>>)
    %cst_470 = arith.constant 1.000000e+00 : f32
    %409 = arith.addf %398, %cst_470 : f32
    %c0_i32_471 = arith.constant 0 : i32
    %c0_i32_472 = arith.constant 0 : i32
    %c4096_i32_473 = arith.constant 4096 : i32
    %c0_i32_474 = arith.constant 0 : i32
    %410 = tpu.memref_slice %0[%c4096_i32_473, %c0_i32_474] : memref<8192x2048xbf16, #tpu.memory_space<hbm>> -> memref<1024x8192xbf16, #tpu.memory_space<hbm>>
    %c0_i32_475 = arith.constant 0 : i32
    %c0_i32_476 = arith.constant 0 : i32
    %411 = tpu.memref_slice %2[%c0_i32_471, %c0_i32_475, %c0_i32_476] : memref<2x1024x8192xbf16, #tpu.memory_space<vmem>> -> memref<1x1024x8192xbf16, #tpu.memory_space<vmem>>
    %412 = tpu.memref_squeeze %411 : memref<1x1024x8192xbf16, #tpu.memory_space<vmem>> -> memref<1024x8192xbf16, #tpu.memory_space<vmem>>
    %413 = tpu.memref_slice %3[%c0_i32_472] : memref<2x!tpu.dma_semaphore, #tpu.memory_space<semaphore_mem>> -> memref<1x!tpu.dma_semaphore, #tpu.memory_space<semaphore_mem>>
    %414 = tpu.memref_squeeze %413 : memref<1x!tpu.dma_semaphore, #tpu.memory_space<semaphore_mem>> -> memref<!tpu.dma_semaphore, #tpu.memory_space<semaphore_mem>>
    tpu.wait_dma2 semaphore(%414 : memref<!tpu.dma_semaphore, #tpu.memory_space<semaphore_mem>>) src(%410 : memref<1024x8192xbf16, #tpu.memory_space<hbm>>) dst(%412 : memref<1024x8192xbf16, #tpu.memory_space<vmem>>)
    %c0_i32_477 = arith.constant 0 : i32
    %c0_i32_478 = arith.constant 0 : i32
    %c6144_i32_479 = arith.constant 6144 : i32
    %c0_i32_480 = arith.constant 0 : i32
    %415 = tpu.memref_slice %0[%c6144_i32_479, %c0_i32_480] : memref<8192x2048xbf16, #tpu.memory_space<hbm>> -> memref<1024x8192xbf16, #tpu.memory_space<hbm>>
    %c0_i32_481 = arith.constant 0 : i32
    %c0_i32_482 = arith.constant 0 : i32
    %416 = tpu.memref_slice %2[%c0_i32_477, %c0_i32_481, %c0_i32_482] : memref<2x1024x8192xbf16, #tpu.memory_space<vmem>> -> memref<1x1024x8192xbf16, #tpu.memory_space<vmem>>
    %417 = tpu.memref_squeeze %416 : memref<1x1024x8192xbf16, #tpu.memory_space<vmem>> -> memref<1024x8192xbf16, #tpu.memory_space<vmem>>
    %418 = tpu.memref_slice %3[%c0_i32_478] : memref<2x!tpu.dma_semaphore, #tpu.memory_space<semaphore_mem>> -> memref<1x!tpu.dma_semaphore, #tpu.memory_space<semaphore_mem>>
    %419 = tpu.memref_squeeze %418 : memref<1x!tpu.dma_semaphore, #tpu.memory_space<semaphore_mem>> -> memref<!tpu.dma_semaphore, #tpu.memory_space<semaphore_mem>>
    tpu.enqueue_dma source(%415 : memref<1024x8192xbf16, #tpu.memory_space<hbm>>) target(%417 : memref<1024x8192xbf16, #tpu.memory_space<vmem>>) target_semaphore(%419 : memref<!tpu.dma_semaphore, #tpu.memory_space<semaphore_mem>>)
    %cst_483 = arith.constant 1.000000e+00 : f32
    %420 = arith.addf %409, %cst_483 : f32
    %c1_i32_484 = arith.constant 1 : i32
    %c1_i32_485 = arith.constant 1 : i32
    %c5120_i32_486 = arith.constant 5120 : i32
    %c0_i32_487 = arith.constant 0 : i32
    %421 = tpu.memref_slice %0[%c5120_i32_486, %c0_i32_487] : memref<8192x2048xbf16, #tpu.memory_space<hbm>> -> memref<1024x8192xbf16, #tpu.memory_space<hbm>>
    %c0_i32_488 = arith.constant 0 : i32
    %c0_i32_489 = arith.constant 0 : i32
    %422 = tpu.memref_slice %2[%c1_i32_484, %c0_i32_488, %c0_i32_489] : memref<2x1024x8192xbf16, #tpu.memory_space<vmem>> -> memref<1x1024x8192xbf16, #tpu.memory_space<vmem>>
    %423 = tpu.memref_squeeze %422 : memref<1x1024x8192xbf16, #tpu.memory_space<vmem>> -> memref<1024x8192xbf16, #tpu.memory_space<vmem>>
    %424 = tpu.memref_slice %3[%c1_i32_485] : memref<2x!tpu.dma_semaphore, #tpu.memory_space<semaphore_mem>> -> memref<1x!tpu.dma_semaphore, #tpu.memory_space<semaphore_mem>>
    %425 = tpu.memref_squeeze %424 : memref<1x!tpu.dma_semaphore, #tpu.memory_space<semaphore_mem>> -> memref<!tpu.dma_semaphore, #tpu.memory_space<semaphore_mem>>
    tpu.wait_dma2 semaphore(%425 : memref<!tpu.dma_semaphore, #tpu.memory_space<semaphore_mem>>) src(%421 : memref<1024x8192xbf16, #tpu.memory_space<hbm>>) dst(%423 : memref<1024x8192xbf16, #tpu.memory_space<vmem>>)
    %c1_i32_490 = arith.constant 1 : i32
    %c1_i32_491 = arith.constant 1 : i32
    %c7168_i32_492 = arith.constant 7168 : i32
    %c0_i32_493 = arith.constant 0 : i32
    %426 = tpu.memref_slice %0[%c7168_i32_492, %c0_i32_493] : memref<8192x2048xbf16, #tpu.memory_space<hbm>> -> memref<1024x8192xbf16, #tpu.memory_space<hbm>>
    %c0_i32_494 = arith.constant 0 : i32
    %c0_i32_495 = arith.constant 0 : i32
    %427 = tpu.memref_slice %2[%c1_i32_490, %c0_i32_494, %c0_i32_495] : memref<2x1024x8192xbf16, #tpu.memory_space<vmem>> -> memref<1x1024x8192xbf16, #tpu.memory_space<vmem>>
    %428 = tpu.memref_squeeze %427 : memref<1x1024x8192xbf16, #tpu.memory_space<vmem>> -> memref<1024x8192xbf16, #tpu.memory_space<vmem>>
    %429 = tpu.memref_slice %3[%c1_i32_491] : memref<2x!tpu.dma_semaphore, #tpu.memory_space<semaphore_mem>> -> memref<1x!tpu.dma_semaphore, #tpu.memory_space<semaphore_mem>>
    %430 = tpu.memref_squeeze %429 : memref<1x!tpu.dma_semaphore, #tpu.memory_space<semaphore_mem>> -> memref<!tpu.dma_semaphore, #tpu.memory_space<semaphore_mem>>
    tpu.enqueue_dma source(%426 : memref<1024x8192xbf16, #tpu.memory_space<hbm>>) target(%428 : memref<1024x8192xbf16, #tpu.memory_space<vmem>>) target_semaphore(%430 : memref<!tpu.dma_semaphore, #tpu.memory_space<semaphore_mem>>)
    %cst_496 = arith.constant 1.000000e+00 : f32
    %431 = arith.addf %420, %cst_496 : f32
    %c0_i32_497 = arith.constant 0 : i32
    %c0_i32_498 = arith.constant 0 : i32
    %c6144_i32_499 = arith.constant 6144 : i32
    %c0_i32_500 = arith.constant 0 : i32
    %432 = tpu.memref_slice %0[%c6144_i32_499, %c0_i32_500] : memref<8192x2048xbf16, #tpu.memory_space<hbm>> -> memref<1024x8192xbf16, #tpu.memory_space<hbm>>
    %c0_i32_501 = arith.constant 0 : i32
    %c0_i32_502 = arith.constant 0 : i32
    %433 = tpu.memref_slice %2[%c0_i32_497, %c0_i32_501, %c0_i32_502] : memref<2x1024x8192xbf16, #tpu.memory_space<vmem>> -> memref<1x1024x8192xbf16, #tpu.memory_space<vmem>>
    %434 = tpu.memref_squeeze %433 : memref<1x1024x8192xbf16, #tpu.memory_space<vmem>> -> memref<1024x8192xbf16, #tpu.memory_space<vmem>>
    %435 = tpu.memref_slice %3[%c0_i32_498] : memref<2x!tpu.dma_semaphore, #tpu.memory_space<semaphore_mem>> -> memref<1x!tpu.dma_semaphore, #tpu.memory_space<semaphore_mem>>
    %436 = tpu.memref_squeeze %435 : memref<1x!tpu.dma_semaphore, #tpu.memory_space<semaphore_mem>> -> memref<!tpu.dma_semaphore, #tpu.memory_space<semaphore_mem>>
    tpu.wait_dma2 semaphore(%436 : memref<!tpu.dma_semaphore, #tpu.memory_space<semaphore_mem>>) src(%432 : memref<1024x8192xbf16, #tpu.memory_space<hbm>>) dst(%434 : memref<1024x8192xbf16, #tpu.memory_space<vmem>>)
    %c0_i32_503 = arith.constant 0 : i32
    %c0_i32_504 = arith.constant 0 : i32
    %c0_i32_505 = arith.constant 0 : i32
    %c0_i32_506 = arith.constant 0 : i32
    %437 = tpu.memref_slice %0[%c0_i32_505, %c0_i32_506] : memref<8192x2048xbf16, #tpu.memory_space<hbm>> -> memref<1024x8192xbf16, #tpu.memory_space<hbm>>
    %c0_i32_507 = arith.constant 0 : i32
    %c0_i32_508 = arith.constant 0 : i32
    %438 = tpu.memref_slice %2[%c0_i32_503, %c0_i32_507, %c0_i32_508] : memref<2x1024x8192xbf16, #tpu.memory_space<vmem>> -> memref<1x1024x8192xbf16, #tpu.memory_space<vmem>>
    %439 = tpu.memref_squeeze %438 : memref<1x1024x8192xbf16, #tpu.memory_space<vmem>> -> memref<1024x8192xbf16, #tpu.memory_space<vmem>>
    %440 = tpu.memref_slice %3[%c0_i32_504] : memref<2x!tpu.dma_semaphore, #tpu.memory_space<semaphore_mem>> -> memref<1x!tpu.dma_semaphore, #tpu.memory_space<semaphore_mem>>
    %441 = tpu.memref_squeeze %440 : memref<1x!tpu.dma_semaphore, #tpu.memory_space<semaphore_mem>> -> memref<!tpu.dma_semaphore, #tpu.memory_space<semaphore_mem>>
    tpu.enqueue_dma source(%437 : memref<1024x8192xbf16, #tpu.memory_space<hbm>>) target(%439 : memref<1024x8192xbf16, #tpu.memory_space<vmem>>) target_semaphore(%441 : memref<!tpu.dma_semaphore, #tpu.memory_space<semaphore_mem>>)
    %cst_509 = arith.constant 1.000000e+00 : f32
    %442 = arith.addf %431, %cst_509 : f32
    %c1_i32_510 = arith.constant 1 : i32
    %c1_i32_511 = arith.constant 1 : i32
    %c7168_i32_512 = arith.constant 7168 : i32
    %c0_i32_513 = arith.constant 0 : i32
    %443 = tpu.memref_slice %0[%c7168_i32_512, %c0_i32_513] : memref<8192x2048xbf16, #tpu.memory_space<hbm>> -> memref<1024x8192xbf16, #tpu.memory_space<hbm>>
    %c0_i32_514 = arith.constant 0 : i32
    %c0_i32_515 = arith.constant 0 : i32
    %444 = tpu.memref_slice %2[%c1_i32_510, %c0_i32_514, %c0_i32_515] : memref<2x1024x8192xbf16, #tpu.memory_space<vmem>> -> memref<1x1024x8192xbf16, #tpu.memory_space<vmem>>
    %445 = tpu.memref_squeeze %444 : memref<1x1024x8192xbf16, #tpu.memory_space<vmem>> -> memref<1024x8192xbf16, #tpu.memory_space<vmem>>
    %446 = tpu.memref_slice %3[%c1_i32_511] : memref<2x!tpu.dma_semaphore, #tpu.memory_space<semaphore_mem>> -> memref<1x!tpu.dma_semaphore, #tpu.memory_space<semaphore_mem>>
    %447 = tpu.memref_squeeze %446 : memref<1x!tpu.dma_semaphore, #tpu.memory_space<semaphore_mem>> -> memref<!tpu.dma_semaphore, #tpu.memory_space<semaphore_mem>>
    tpu.wait_dma2 semaphore(%447 : memref<!tpu.dma_semaphore, #tpu.memory_space<semaphore_mem>>) src(%443 : memref<1024x8192xbf16, #tpu.memory_space<hbm>>) dst(%445 : memref<1024x8192xbf16, #tpu.memory_space<vmem>>)
    %c1_i32_516 = arith.constant 1 : i32
    %c1_i32_517 = arith.constant 1 : i32
    %c1024_i32_518 = arith.constant 1024 : i32
    %c0_i32_519 = arith.constant 0 : i32
    %448 = tpu.memref_slice %0[%c1024_i32_518, %c0_i32_519] : memref<8192x2048xbf16, #tpu.memory_space<hbm>> -> memref<1024x8192xbf16, #tpu.memory_space<hbm>>
    %c0_i32_520 = arith.constant 0 : i32
    %c0_i32_521 = arith.constant 0 : i32
    %449 = tpu.memref_slice %2[%c1_i32_516, %c0_i32_520, %c0_i32_521] : memref<2x1024x8192xbf16, #tpu.memory_space<vmem>> -> memref<1x1024x8192xbf16, #tpu.memory_space<vmem>>
    %450 = tpu.memref_squeeze %449 : memref<1x1024x8192xbf16, #tpu.memory_space<vmem>> -> memref<1024x8192xbf16, #tpu.memory_space<vmem>>
    %451 = tpu.memref_slice %3[%c1_i32_517] : memref<2x!tpu.dma_semaphore, #tpu.memory_space<semaphore_mem>> -> memref<1x!tpu.dma_semaphore, #tpu.memory_space<semaphore_mem>>
    %452 = tpu.memref_squeeze %451 : memref<1x!tpu.dma_semaphore, #tpu.memory_space<semaphore_mem>> -> memref<!tpu.dma_semaphore, #tpu.memory_space<semaphore_mem>>
    tpu.enqueue_dma source(%448 : memref<1024x8192xbf16, #tpu.memory_space<hbm>>) target(%450 : memref<1024x8192xbf16, #tpu.memory_space<vmem>>) target_semaphore(%452 : memref<!tpu.dma_semaphore, #tpu.memory_space<semaphore_mem>>)
    %cst_522 = arith.constant 1.000000e+00 : f32
    %453 = arith.addf %442, %cst_522 : f32
    %c0_i32_523 = arith.constant 0 : i32
    %c0_i32_524 = arith.constant 0 : i32
    %c0_i32_525 = arith.constant 0 : i32
    %c0_i32_526 = arith.constant 0 : i32
    %454 = tpu.memref_slice %0[%c0_i32_525, %c0_i32_526] : memref<8192x2048xbf16, #tpu.memory_space<hbm>> -> memref<1024x8192xbf16, #tpu.memory_space<hbm>>
    %c0_i32_527 = arith.constant 0 : i32
    %c0_i32_528 = arith.constant 0 : i32
    %455 = tpu.memref_slice %2[%c0_i32_523, %c0_i32_527, %c0_i32_528] : memref<2x1024x8192xbf16, #tpu.memory_space<vmem>> -> memref<1x1024x8192xbf16, #tpu.memory_space<vmem>>
    %456 = tpu.memref_squeeze %455 : memref<1x1024x8192xbf16, #tpu.memory_space<vmem>> -> memref<1024x8192xbf16, #tpu.memory_space<vmem>>
    %457 = tpu.memref_slice %3[%c0_i32_524] : memref<2x!tpu.dma_semaphore, #tpu.memory_space<semaphore_mem>> -> memref<1x!tpu.dma_semaphore, #tpu.memory_space<semaphore_mem>>
    %458 = tpu.memref_squeeze %457 : memref<1x!tpu.dma_semaphore, #tpu.memory_space<semaphore_mem>> -> memref<!tpu.dma_semaphore, #tpu.memory_space<semaphore_mem>>
    tpu.wait_dma2 semaphore(%458 : memref<!tpu.dma_semaphore, #tpu.memory_space<semaphore_mem>>) src(%454 : memref<1024x8192xbf16, #tpu.memory_space<hbm>>) dst(%456 : memref<1024x8192xbf16, #tpu.memory_space<vmem>>)
    %c0_i32_529 = arith.constant 0 : i32
    %c0_i32_530 = arith.constant 0 : i32
    %c2048_i32_531 = arith.constant 2048 : i32
    %c0_i32_532 = arith.constant 0 : i32
    %459 = tpu.memref_slice %0[%c2048_i32_531, %c0_i32_532] : memref<8192x2048xbf16, #tpu.memory_space<hbm>> -> memref<1024x8192xbf16, #tpu.memory_space<hbm>>
    %c0_i32_533 = arith.constant 0 : i32
    %c0_i32_534 = arith.constant 0 : i32
    %460 = tpu.memref_slice %2[%c0_i32_529, %c0_i32_533, %c0_i32_534] : memref<2x1024x8192xbf16, #tpu.memory_space<vmem>> -> memref<1x1024x8192xbf16, #tpu.memory_space<vmem>>
    %461 = tpu.memref_squeeze %460 : memref<1x1024x8192xbf16, #tpu.memory_space<vmem>> -> memref<1024x8192xbf16, #tpu.memory_space<vmem>>
    %462 = tpu.memref_slice %3[%c0_i32_530] : memref<2x!tpu.dma_semaphore, #tpu.memory_space<semaphore_mem>> -> memref<1x!tpu.dma_semaphore, #tpu.memory_space<semaphore_mem>>
    %463 = tpu.memref_squeeze %462 : memref<1x!tpu.dma_semaphore, #tpu.memory_space<semaphore_mem>> -> memref<!tpu.dma_semaphore, #tpu.memory_space<semaphore_mem>>
    tpu.enqueue_dma source(%459 : memref<1024x8192xbf16, #tpu.memory_space<hbm>>) target(%461 : memref<1024x8192xbf16, #tpu.memory_space<vmem>>) target_semaphore(%463 : memref<!tpu.dma_semaphore, #tpu.memory_space<semaphore_mem>>)
    %cst_535 = arith.constant 1.000000e+00 : f32
    %464 = arith.addf %453, %cst_535 : f32
    %c1_i32_536 = arith.constant 1 : i32
    %c1_i32_537 = arith.constant 1 : i32
    %c1024_i32_538 = arith.constant 1024 : i32
    %c0_i32_539 = arith.constant 0 : i32
    %465 = tpu.memref_slice %0[%c1024_i32_538, %c0_i32_539] : memref<8192x2048xbf16, #tpu.memory_space<hbm>> -> memref<1024x8192xbf16, #tpu.memory_space<hbm>>
    %c0_i32_540 = arith.constant 0 : i32
    %c0_i32_541 = arith.constant 0 : i32
    %466 = tpu.memref_slice %2[%c1_i32_536, %c0_i32_540, %c0_i32_541] : memref<2x1024x8192xbf16, #tpu.memory_space<vmem>> -> memref<1x1024x8192xbf16, #tpu.memory_space<vmem>>
    %467 = tpu.memref_squeeze %466 : memref<1x1024x8192xbf16, #tpu.memory_space<vmem>> -> memref<1024x8192xbf16, #tpu.memory_space<vmem>>
    %468 = tpu.memref_slice %3[%c1_i32_537] : memref<2x!tpu.dma_semaphore, #tpu.memory_space<semaphore_mem>> -> memref<1x!tpu.dma_semaphore, #tpu.memory_space<semaphore_mem>>
    %469 = tpu.memref_squeeze %468 : memref<1x!tpu.dma_semaphore, #tpu.memory_space<semaphore_mem>> -> memref<!tpu.dma_semaphore, #tpu.memory_space<semaphore_mem>>
    tpu.wait_dma2 semaphore(%469 : memref<!tpu.dma_semaphore, #tpu.memory_space<semaphore_mem>>) src(%465 : memref<1024x8192xbf16, #tpu.memory_space<hbm>>) dst(%467 : memref<1024x8192xbf16, #tpu.memory_space<vmem>>)
    %c1_i32_542 = arith.constant 1 : i32
    %c1_i32_543 = arith.constant 1 : i32
    %c3072_i32_544 = arith.constant 3072 : i32
    %c0_i32_545 = arith.constant 0 : i32
    %470 = tpu.memref_slice %0[%c3072_i32_544, %c0_i32_545] : memref<8192x2048xbf16, #tpu.memory_space<hbm>> -> memref<1024x8192xbf16, #tpu.memory_space<hbm>>
    %c0_i32_546 = arith.constant 0 : i32
    %c0_i32_547 = arith.constant 0 : i32
    %471 = tpu.memref_slice %2[%c1_i32_542, %c0_i32_546, %c0_i32_547] : memref<2x1024x8192xbf16, #tpu.memory_space<vmem>> -> memref<1x1024x8192xbf16, #tpu.memory_space<vmem>>
    %472 = tpu.memref_squeeze %471 : memref<1x1024x8192xbf16, #tpu.memory_space<vmem>> -> memref<1024x8192xbf16, #tpu.memory_space<vmem>>
    %473 = tpu.memref_slice %3[%c1_i32_543] : memref<2x!tpu.dma_semaphore, #tpu.memory_space<semaphore_mem>> -> memref<1x!tpu.dma_semaphore, #tpu.memory_space<semaphore_mem>>
    %474 = tpu.memref_squeeze %473 : memref<1x!tpu.dma_semaphore, #tpu.memory_space<semaphore_mem>> -> memref<!tpu.dma_semaphore, #tpu.memory_space<semaphore_mem>>
    tpu.enqueue_dma source(%470 : memref<1024x8192xbf16, #tpu.memory_space<hbm>>) target(%472 : memref<1024x8192xbf16, #tpu.memory_space<vmem>>) target_semaphore(%474 : memref<!tpu.dma_semaphore, #tpu.memory_space<semaphore_mem>>)
    %cst_548 = arith.constant 1.000000e+00 : f32
    %475 = arith.addf %464, %cst_548 : f32
    %c0_i32_549 = arith.constant 0 : i32
    %c0_i32_550 = arith.constant 0 : i32
    %c2048_i32_551 = arith.constant 2048 : i32
    %c0_i32_552 = arith.constant 0 : i32
    %476 = tpu.memref_slice %0[%c2048_i32_551, %c0_i32_552] : memref<8192x2048xbf16, #tpu.memory_space<hbm>> -> memref<1024x8192xbf16, #tpu.memory_space<hbm>>
    %c0_i32_553 = arith.constant 0 : i32
    %c0_i32_554 = arith.constant 0 : i32
    %477 = tpu.memref_slice %2[%c0_i32_549, %c0_i32_553, %c0_i32_554] : memref<2x1024x8192xbf16, #tpu.memory_space<vmem>> -> memref<1x1024x8192xbf16, #tpu.memory_space<vmem>>
    %478 = tpu.memref_squeeze %477 : memref<1x1024x8192xbf16, #tpu.memory_space<vmem>> -> memref<1024x8192xbf16, #tpu.memory_space<vmem>>
    %479 = tpu.memref_slice %3[%c0_i32_550] : memref<2x!tpu.dma_semaphore, #tpu.memory_space<semaphore_mem>> -> memref<1x!tpu.dma_semaphore, #tpu.memory_space<semaphore_mem>>
    %480 = tpu.memref_squeeze %479 : memref<1x!tpu.dma_semaphore, #tpu.memory_space<semaphore_mem>> -> memref<!tpu.dma_semaphore, #tpu.memory_space<semaphore_mem>>
    tpu.wait_dma2 semaphore(%480 : memref<!tpu.dma_semaphore, #tpu.memory_space<semaphore_mem>>) src(%476 : memref<1024x8192xbf16, #tpu.memory_space<hbm>>) dst(%478 : memref<1024x8192xbf16, #tpu.memory_space<vmem>>)
    %c0_i32_555 = arith.constant 0 : i32
    %c0_i32_556 = arith.constant 0 : i32
    %c4096_i32_557 = arith.constant 4096 : i32
    %c0_i32_558 = arith.constant 0 : i32
    %481 = tpu.memref_slice %0[%c4096_i32_557, %c0_i32_558] : memref<8192x2048xbf16, #tpu.memory_space<hbm>> -> memref<1024x8192xbf16, #tpu.memory_space<hbm>>
    %c0_i32_559 = arith.constant 0 : i32
    %c0_i32_560 = arith.constant 0 : i32
    %482 = tpu.memref_slice %2[%c0_i32_555, %c0_i32_559, %c0_i32_560] : memref<2x1024x8192xbf16, #tpu.memory_space<vmem>> -> memref<1x1024x8192xbf16, #tpu.memory_space<vmem>>
    %483 = tpu.memref_squeeze %482 : memref<1x1024x8192xbf16, #tpu.memory_space<vmem>> -> memref<1024x8192xbf16, #tpu.memory_space<vmem>>
    %484 = tpu.memref_slice %3[%c0_i32_556] : memref<2x!tpu.dma_semaphore, #tpu.memory_space<semaphore_mem>> -> memref<1x!tpu.dma_semaphore, #tpu.memory_space<semaphore_mem>>
    %485 = tpu.memref_squeeze %484 : memref<1x!tpu.dma_semaphore, #tpu.memory_space<semaphore_mem>> -> memref<!tpu.dma_semaphore, #tpu.memory_space<semaphore_mem>>
    tpu.enqueue_dma source(%481 : memref<1024x8192xbf16, #tpu.memory_space<hbm>>) target(%483 : memref<1024x8192xbf16, #tpu.memory_space<vmem>>) target_semaphore(%485 : memref<!tpu.dma_semaphore, #tpu.memory_space<semaphore_mem>>)
    %cst_561 = arith.constant 1.000000e+00 : f32
    %486 = arith.addf %475, %cst_561 : f32
    %c1_i32_562 = arith.constant 1 : i32
    %c1_i32_563 = arith.constant 1 : i32
    %c3072_i32_564 = arith.constant 3072 : i32
    %c0_i32_565 = arith.constant 0 : i32
    %487 = tpu.memref_slice %0[%c3072_i32_564, %c0_i32_565] : memref<8192x2048xbf16, #tpu.memory_space<hbm>> -> memref<1024x8192xbf16, #tpu.memory_space<hbm>>
    %c0_i32_566 = arith.constant 0 : i32
    %c0_i32_567 = arith.constant 0 : i32
    %488 = tpu.memref_slice %2[%c1_i32_562, %c0_i32_566, %c0_i32_567] : memref<2x1024x8192xbf16, #tpu.memory_space<vmem>> -> memref<1x1024x8192xbf16, #tpu.memory_space<vmem>>
    %489 = tpu.memref_squeeze %488 : memref<1x1024x8192xbf16, #tpu.memory_space<vmem>> -> memref<1024x8192xbf16, #tpu.memory_space<vmem>>
    %490 = tpu.memref_slice %3[%c1_i32_563] : memref<2x!tpu.dma_semaphore, #tpu.memory_space<semaphore_mem>> -> memref<1x!tpu.dma_semaphore, #tpu.memory_space<semaphore_mem>>
    %491 = tpu.memref_squeeze %490 : memref<1x!tpu.dma_semaphore, #tpu.memory_space<semaphore_mem>> -> memref<!tpu.dma_semaphore, #tpu.memory_space<semaphore_mem>>
    tpu.wait_dma2 semaphore(%491 : memref<!tpu.dma_semaphore, #tpu.memory_space<semaphore_mem>>) src(%487 : memref<1024x8192xbf16, #tpu.memory_space<hbm>>) dst(%489 : memref<1024x8192xbf16, #tpu.memory_space<vmem>>)
    %c1_i32_568 = arith.constant 1 : i32
    %c1_i32_569 = arith.constant 1 : i32
    %c5120_i32_570 = arith.constant 5120 : i32
    %c0_i32_571 = arith.constant 0 : i32
    %492 = tpu.memref_slice %0[%c5120_i32_570, %c0_i32_571] : memref<8192x2048xbf16, #tpu.memory_space<hbm>> -> memref<1024x8192xbf16, #tpu.memory_space<hbm>>
    %c0_i32_572 = arith.constant 0 : i32
    %c0_i32_573 = arith.constant 0 : i32
    %493 = tpu.memref_slice %2[%c1_i32_568, %c0_i32_572, %c0_i32_573] : memref<2x1024x8192xbf16, #tpu.memory_space<vmem>> -> memref<1x1024x8192xbf16, #tpu.memory_space<vmem>>
    %494 = tpu.memref_squeeze %493 : memref<1x1024x8192xbf16, #tpu.memory_space<vmem>> -> memref<1024x8192xbf16, #tpu.memory_space<vmem>>
    %495 = tpu.memref_slice %3[%c1_i32_569] : memref<2x!tpu.dma_semaphore, #tpu.memory_space<semaphore_mem>> -> memref<1x!tpu.dma_semaphore, #tpu.memory_space<semaphore_mem>>
    %496 = tpu.memref_squeeze %495 : memref<1x!tpu.dma_semaphore, #tpu.memory_space<semaphore_mem>> -> memref<!tpu.dma_semaphore, #tpu.memory_space<semaphore_mem>>
    tpu.enqueue_dma source(%492 : memref<1024x8192xbf16, #tpu.memory_space<hbm>>) target(%494 : memref<1024x8192xbf16, #tpu.memory_space<vmem>>) target_semaphore(%496 : memref<!tpu.dma_semaphore, #tpu.memory_space<semaphore_mem>>)
    %cst_574 = arith.constant 1.000000e+00 : f32
    %497 = arith.addf %486, %cst_574 : f32
    %c0_i32_575 = arith.constant 0 : i32
    %c0_i32_576 = arith.constant 0 : i32
    %c4096_i32_577 = arith.constant 4096 : i32
    %c0_i32_578 = arith.constant 0 : i32
    %498 = tpu.memref_slice %0[%c4096_i32_577, %c0_i32_578] : memref<8192x2048xbf16, #tpu.memory_space<hbm>> -> memref<1024x8192xbf16, #tpu.memory_space<hbm>>
    %c0_i32_579 = arith.constant 0 : i32
    %c0_i32_580 = arith.constant 0 : i32
    %499 = tpu.memref_slice %2[%c0_i32_575, %c0_i32_579, %c0_i32_580] : memref<2x1024x8192xbf16, #tpu.memory_space<vmem>> -> memref<1x1024x8192xbf16, #tpu.memory_space<vmem>>
    %500 = tpu.memref_squeeze %499 : memref<1x1024x8192xbf16, #tpu.memory_space<vmem>> -> memref<1024x8192xbf16, #tpu.memory_space<vmem>>
    %501 = tpu.memref_slice %3[%c0_i32_576] : memref<2x!tpu.dma_semaphore, #tpu.memory_space<semaphore_mem>> -> memref<1x!tpu.dma_semaphore, #tpu.memory_space<semaphore_mem>>
    %502 = tpu.memref_squeeze %501 : memref<1x!tpu.dma_semaphore, #tpu.memory_space<semaphore_mem>> -> memref<!tpu.dma_semaphore, #tpu.memory_space<semaphore_mem>>
    tpu.wait_dma2 semaphore(%502 : memref<!tpu.dma_semaphore, #tpu.memory_space<semaphore_mem>>) src(%498 : memref<1024x8192xbf16, #tpu.memory_space<hbm>>) dst(%500 : memref<1024x8192xbf16, #tpu.memory_space<vmem>>)
    %c0_i32_581 = arith.constant 0 : i32
    %c0_i32_582 = arith.constant 0 : i32
    %c6144_i32_583 = arith.constant 6144 : i32
    %c0_i32_584 = arith.constant 0 : i32
    %503 = tpu.memref_slice %0[%c6144_i32_583, %c0_i32_584] : memref<8192x2048xbf16, #tpu.memory_space<hbm>> -> memref<1024x8192xbf16, #tpu.memory_space<hbm>>
    %c0_i32_585 = arith.constant 0 : i32
    %c0_i32_586 = arith.constant 0 : i32
    %504 = tpu.memref_slice %2[%c0_i32_581, %c0_i32_585, %c0_i32_586] : memref<2x1024x8192xbf16, #tpu.memory_space<vmem>> -> memref<1x1024x8192xbf16, #tpu.memory_space<vmem>>
    %505 = tpu.memref_squeeze %504 : memref<1x1024x8192xbf16, #tpu.memory_space<vmem>> -> memref<1024x8192xbf16, #tpu.memory_space<vmem>>
    %506 = tpu.memref_slice %3[%c0_i32_582] : memref<2x!tpu.dma_semaphore, #tpu.memory_space<semaphore_mem>> -> memref<1x!tpu.dma_semaphore, #tpu.memory_space<semaphore_mem>>
    %507 = tpu.memref_squeeze %506 : memref<1x!tpu.dma_semaphore, #tpu.memory_space<semaphore_mem>> -> memref<!tpu.dma_semaphore, #tpu.memory_space<semaphore_mem>>
    tpu.enqueue_dma source(%503 : memref<1024x8192xbf16, #tpu.memory_space<hbm>>) target(%505 : memref<1024x8192xbf16, #tpu.memory_space<vmem>>) target_semaphore(%507 : memref<!tpu.dma_semaphore, #tpu.memory_space<semaphore_mem>>)
    %cst_587 = arith.constant 1.000000e+00 : f32
    %508 = arith.addf %497, %cst_587 : f32
    %c1_i32_588 = arith.constant 1 : i32
    %c1_i32_589 = arith.constant 1 : i32
    %c5120_i32_590 = arith.constant 5120 : i32
    %c0_i32_591 = arith.constant 0 : i32
    %509 = tpu.memref_slice %0[%c5120_i32_590, %c0_i32_591] : memref<8192x2048xbf16, #tpu.memory_space<hbm>> -> memref<1024x8192xbf16, #tpu.memory_space<hbm>>
    %c0_i32_592 = arith.constant 0 : i32
    %c0_i32_593 = arith.constant 0 : i32
    %510 = tpu.memref_slice %2[%c1_i32_588, %c0_i32_592, %c0_i32_593] : memref<2x1024x8192xbf16, #tpu.memory_space<vmem>> -> memref<1x1024x8192xbf16, #tpu.memory_space<vmem>>
    %511 = tpu.memref_squeeze %510 : memref<1x1024x8192xbf16, #tpu.memory_space<vmem>> -> memref<1024x8192xbf16, #tpu.memory_space<vmem>>
    %512 = tpu.memref_slice %3[%c1_i32_589] : memref<2x!tpu.dma_semaphore, #tpu.memory_space<semaphore_mem>> -> memref<1x!tpu.dma_semaphore, #tpu.memory_space<semaphore_mem>>
    %513 = tpu.memref_squeeze %512 : memref<1x!tpu.dma_semaphore, #tpu.memory_space<semaphore_mem>> -> memref<!tpu.dma_semaphore, #tpu.memory_space<semaphore_mem>>
    tpu.wait_dma2 semaphore(%513 : memref<!tpu.dma_semaphore, #tpu.memory_space<semaphore_mem>>) src(%509 : memref<1024x8192xbf16, #tpu.memory_space<hbm>>) dst(%511 : memref<1024x8192xbf16, #tpu.memory_space<vmem>>)
    %c1_i32_594 = arith.constant 1 : i32
    %c1_i32_595 = arith.constant 1 : i32
    %c7168_i32_596 = arith.constant 7168 : i32
    %c0_i32_597 = arith.constant 0 : i32
    %514 = tpu.memref_slice %0[%c7168_i32_596, %c0_i32_597] : memref<8192x2048xbf16, #tpu.memory_space<hbm>> -> memref<1024x8192xbf16, #tpu.memory_space<hbm>>
    %c0_i32_598 = arith.constant 0 : i32
    %c0_i32_599 = arith.constant 0 : i32
    %515 = tpu.memref_slice %2[%c1_i32_594, %c0_i32_598, %c0_i32_599] : memref<2x1024x8192xbf16, #tpu.memory_space<vmem>> -> memref<1x1024x8192xbf16, #tpu.memory_space<vmem>>
    %516 = tpu.memref_squeeze %515 : memref<1x1024x8192xbf16, #tpu.memory_space<vmem>> -> memref<1024x8192xbf16, #tpu.memory_space<vmem>>
    %517 = tpu.memref_slice %3[%c1_i32_595] : memref<2x!tpu.dma_semaphore, #tpu.memory_space<semaphore_mem>> -> memref<1x!tpu.dma_semaphore, #tpu.memory_space<semaphore_mem>>
    %518 = tpu.memref_squeeze %517 : memref<1x!tpu.dma_semaphore, #tpu.memory_space<semaphore_mem>> -> memref<!tpu.dma_semaphore, #tpu.memory_space<semaphore_mem>>
    tpu.enqueue_dma source(%514 : memref<1024x8192xbf16, #tpu.memory_space<hbm>>) target(%516 : memref<1024x8192xbf16, #tpu.memory_space<vmem>>) target_semaphore(%518 : memref<!tpu.dma_semaphore, #tpu.memory_space<semaphore_mem>>)
    %cst_600 = arith.constant 1.000000e+00 : f32
    %519 = arith.addf %508, %cst_600 : f32
    %c0_i32_601 = arith.constant 0 : i32
    %c0_i32_602 = arith.constant 0 : i32
    %c6144_i32_603 = arith.constant 6144 : i32
    %c0_i32_604 = arith.constant 0 : i32
    %520 = tpu.memref_slice %0[%c6144_i32_603, %c0_i32_604] : memref<8192x2048xbf16, #tpu.memory_space<hbm>> -> memref<1024x8192xbf16, #tpu.memory_space<hbm>>
    %c0_i32_605 = arith.constant 0 : i32
    %c0_i32_606 = arith.constant 0 : i32
    %521 = tpu.memref_slice %2[%c0_i32_601, %c0_i32_605, %c0_i32_606] : memref<2x1024x8192xbf16, #tpu.memory_space<vmem>> -> memref<1x1024x8192xbf16, #tpu.memory_space<vmem>>
    %522 = tpu.memref_squeeze %521 : memref<1x1024x8192xbf16, #tpu.memory_space<vmem>> -> memref<1024x8192xbf16, #tpu.memory_space<vmem>>
    %523 = tpu.memref_slice %3[%c0_i32_602] : memref<2x!tpu.dma_semaphore, #tpu.memory_space<semaphore_mem>> -> memref<1x!tpu.dma_semaphore, #tpu.memory_space<semaphore_mem>>
    %524 = tpu.memref_squeeze %523 : memref<1x!tpu.dma_semaphore, #tpu.memory_space<semaphore_mem>> -> memref<!tpu.dma_semaphore, #tpu.memory_space<semaphore_mem>>
    tpu.wait_dma2 semaphore(%524 : memref<!tpu.dma_semaphore, #tpu.memory_space<semaphore_mem>>) src(%520 : memref<1024x8192xbf16, #tpu.memory_space<hbm>>) dst(%522 : memref<1024x8192xbf16, #tpu.memory_space<vmem>>)
    %c0_i32_607 = arith.constant 0 : i32
    %c0_i32_608 = arith.constant 0 : i32
    %c0_i32_609 = arith.constant 0 : i32
    %c0_i32_610 = arith.constant 0 : i32
    %525 = tpu.memref_slice %0[%c0_i32_609, %c0_i32_610] : memref<8192x2048xbf16, #tpu.memory_space<hbm>> -> memref<1024x8192xbf16, #tpu.memory_space<hbm>>
    %c0_i32_611 = arith.constant 0 : i32
    %c0_i32_612 = arith.constant 0 : i32
    %526 = tpu.memref_slice %2[%c0_i32_607, %c0_i32_611, %c0_i32_612] : memref<2x1024x8192xbf16, #tpu.memory_space<vmem>> -> memref<1x1024x8192xbf16, #tpu.memory_space<vmem>>
    %527 = tpu.memref_squeeze %526 : memref<1x1024x8192xbf16, #tpu.memory_space<vmem>> -> memref<1024x8192xbf16, #tpu.memory_space<vmem>>
    %528 = tpu.memref_slice %3[%c0_i32_608] : memref<2x!tpu.dma_semaphore, #tpu.memory_space<semaphore_mem>> -> memref<1x!tpu.dma_semaphore, #tpu.memory_space<semaphore_mem>>
    %529 = tpu.memref_squeeze %528 : memref<1x!tpu.dma_semaphore, #tpu.memory_space<semaphore_mem>> -> memref<!tpu.dma_semaphore, #tpu.memory_space<semaphore_mem>>
    tpu.enqueue_dma source(%525 : memref<1024x8192xbf16, #tpu.memory_space<hbm>>) target(%527 : memref<1024x8192xbf16, #tpu.memory_space<vmem>>) target_semaphore(%529 : memref<!tpu.dma_semaphore, #tpu.memory_space<semaphore_mem>>)
    %cst_613 = arith.constant 1.000000e+00 : f32
    %530 = arith.addf %519, %cst_613 : f32
    %c1_i32_614 = arith.constant 1 : i32
    %c1_i32_615 = arith.constant 1 : i32
    %c7168_i32_616 = arith.constant 7168 : i32
    %c0_i32_617 = arith.constant 0 : i32
    %531 = tpu.memref_slice %0[%c7168_i32_616, %c0_i32_617] : memref<8192x2048xbf16, #tpu.memory_space<hbm>> -> memref<1024x8192xbf16, #tpu.memory_space<hbm>>
    %c0_i32_618 = arith.constant 0 : i32
    %c0_i32_619 = arith.constant 0 : i32
    %532 = tpu.memref_slice %2[%c1_i32_614, %c0_i32_618, %c0_i32_619] : memref<2x1024x8192xbf16, #tpu.memory_space<vmem>> -> memref<1x1024x8192xbf16, #tpu.memory_space<vmem>>
    %533 = tpu.memref_squeeze %532 : memref<1x1024x8192xbf16, #tpu.memory_space<vmem>> -> memref<1024x8192xbf16, #tpu.memory_space<vmem>>
    %534 = tpu.memref_slice %3[%c1_i32_615] : memref<2x!tpu.dma_semaphore, #tpu.memory_space<semaphore_mem>> -> memref<1x!tpu.dma_semaphore, #tpu.memory_space<semaphore_mem>>
    %535 = tpu.memref_squeeze %534 : memref<1x!tpu.dma_semaphore, #tpu.memory_space<semaphore_mem>> -> memref<!tpu.dma_semaphore, #tpu.memory_space<semaphore_mem>>
    tpu.wait_dma2 semaphore(%535 : memref<!tpu.dma_semaphore, #tpu.memory_space<semaphore_mem>>) src(%531 : memref<1024x8192xbf16, #tpu.memory_space<hbm>>) dst(%533 : memref<1024x8192xbf16, #tpu.memory_space<vmem>>)
    %c1_i32_620 = arith.constant 1 : i32
    %c1_i32_621 = arith.constant 1 : i32
    %c1024_i32_622 = arith.constant 1024 : i32
    %c0_i32_623 = arith.constant 0 : i32
    %536 = tpu.memref_slice %0[%c1024_i32_622, %c0_i32_623] : memref<8192x2048xbf16, #tpu.memory_space<hbm>> -> memref<1024x8192xbf16, #tpu.memory_space<hbm>>
    %c0_i32_624 = arith.constant 0 : i32
    %c0_i32_625 = arith.constant 0 : i32
    %537 = tpu.memref_slice %2[%c1_i32_620, %c0_i32_624, %c0_i32_625] : memref<2x1024x8192xbf16, #tpu.memory_space<vmem>> -> memref<1x1024x8192xbf16, #tpu.memory_space<vmem>>
    %538 = tpu.memref_squeeze %537 : memref<1x1024x8192xbf16, #tpu.memory_space<vmem>> -> memref<1024x8192xbf16, #tpu.memory_space<vmem>>
    %539 = tpu.memref_slice %3[%c1_i32_621] : memref<2x!tpu.dma_semaphore, #tpu.memory_space<semaphore_mem>> -> memref<1x!tpu.dma_semaphore, #tpu.memory_space<semaphore_mem>>
    %540 = tpu.memref_squeeze %539 : memref<1x!tpu.dma_semaphore, #tpu.memory_space<semaphore_mem>> -> memref<!tpu.dma_semaphore, #tpu.memory_space<semaphore_mem>>
    tpu.enqueue_dma source(%536 : memref<1024x8192xbf16, #tpu.memory_space<hbm>>) target(%538 : memref<1024x8192xbf16, #tpu.memory_space<vmem>>) target_semaphore(%540 : memref<!tpu.dma_semaphore, #tpu.memory_space<semaphore_mem>>)
    %cst_626 = arith.constant 1.000000e+00 : f32
    %541 = arith.addf %530, %cst_626 : f32
    %c0_i32_627 = arith.constant 0 : i32
    %c0_i32_628 = arith.constant 0 : i32
    %c0_i32_629 = arith.constant 0 : i32
    %c0_i32_630 = arith.constant 0 : i32
    %542 = tpu.memref_slice %0[%c0_i32_629, %c0_i32_630] : memref<8192x2048xbf16, #tpu.memory_space<hbm>> -> memref<1024x8192xbf16, #tpu.memory_space<hbm>>
    %c0_i32_631 = arith.constant 0 : i32
    %c0_i32_632 = arith.constant 0 : i32
    %543 = tpu.memref_slice %2[%c0_i32_627, %c0_i32_631, %c0_i32_632] : memref<2x1024x8192xbf16, #tpu.memory_space<vmem>> -> memref<1x1024x8192xbf16, #tpu.memory_space<vmem>>
    %544 = tpu.memref_squeeze %543 : memref<1x1024x8192xbf16, #tpu.memory_space<vmem>> -> memref<1024x8192xbf16, #tpu.memory_space<vmem>>
    %545 = tpu.memref_slice %3[%c0_i32_628] : memref<2x!tpu.dma_semaphore, #tpu.memory_space<semaphore_mem>> -> memref<1x!tpu.dma_semaphore, #tpu.memory_space<semaphore_mem>>
    %546 = tpu.memref_squeeze %545 : memref<1x!tpu.dma_semaphore, #tpu.memory_space<semaphore_mem>> -> memref<!tpu.dma_semaphore, #tpu.memory_space<semaphore_mem>>
    tpu.wait_dma2 semaphore(%546 : memref<!tpu.dma_semaphore, #tpu.memory_space<semaphore_mem>>) src(%542 : memref<1024x8192xbf16, #tpu.memory_space<hbm>>) dst(%544 : memref<1024x8192xbf16, #tpu.memory_space<vmem>>)
    %c0_i32_633 = arith.constant 0 : i32
    %c0_i32_634 = arith.constant 0 : i32
    %c2048_i32_635 = arith.constant 2048 : i32
    %c0_i32_636 = arith.constant 0 : i32
    %547 = tpu.memref_slice %0[%c2048_i32_635, %c0_i32_636] : memref<8192x2048xbf16, #tpu.memory_space<hbm>> -> memref<1024x8192xbf16, #tpu.memory_space<hbm>>
    %c0_i32_637 = arith.constant 0 : i32
    %c0_i32_638 = arith.constant 0 : i32
    %548 = tpu.memref_slice %2[%c0_i32_633, %c0_i32_637, %c0_i32_638] : memref<2x1024x8192xbf16, #tpu.memory_space<vmem>> -> memref<1x1024x8192xbf16, #tpu.memory_space<vmem>>
    %549 = tpu.memref_squeeze %548 : memref<1x1024x8192xbf16, #tpu.memory_space<vmem>> -> memref<1024x8192xbf16, #tpu.memory_space<vmem>>
    %550 = tpu.memref_slice %3[%c0_i32_634] : memref<2x!tpu.dma_semaphore, #tpu.memory_space<semaphore_mem>> -> memref<1x!tpu.dma_semaphore, #tpu.memory_space<semaphore_mem>>
    %551 = tpu.memref_squeeze %550 : memref<1x!tpu.dma_semaphore, #tpu.memory_space<semaphore_mem>> -> memref<!tpu.dma_semaphore, #tpu.memory_space<semaphore_mem>>
    tpu.enqueue_dma source(%547 : memref<1024x8192xbf16, #tpu.memory_space<hbm>>) target(%549 : memref<1024x8192xbf16, #tpu.memory_space<vmem>>) target_semaphore(%551 : memref<!tpu.dma_semaphore, #tpu.memory_space<semaphore_mem>>)
    %cst_639 = arith.constant 1.000000e+00 : f32
    %552 = arith.addf %541, %cst_639 : f32
    %c1_i32_640 = arith.constant 1 : i32
    %c1_i32_641 = arith.constant 1 : i32
    %c1024_i32_642 = arith.constant 1024 : i32
    %c0_i32_643 = arith.constant 0 : i32
    %553 = tpu.memref_slice %0[%c1024_i32_642, %c0_i32_643] : memref<8192x2048xbf16, #tpu.memory_space<hbm>> -> memref<1024x8192xbf16, #tpu.memory_space<hbm>>
    %c0_i32_644 = arith.constant 0 : i32
    %c0_i32_645 = arith.constant 0 : i32
    %554 = tpu.memref_slice %2[%c1_i32_640, %c0_i32_644, %c0_i32_645] : memref<2x1024x8192xbf16, #tpu.memory_space<vmem>> -> memref<1x1024x8192xbf16, #tpu.memory_space<vmem>>
    %555 = tpu.memref_squeeze %554 : memref<1x1024x8192xbf16, #tpu.memory_space<vmem>> -> memref<1024x8192xbf16, #tpu.memory_space<vmem>>
    %556 = tpu.memref_slice %3[%c1_i32_641] : memref<2x!tpu.dma_semaphore, #tpu.memory_space<semaphore_mem>> -> memref<1x!tpu.dma_semaphore, #tpu.memory_space<semaphore_mem>>
    %557 = tpu.memref_squeeze %556 : memref<1x!tpu.dma_semaphore, #tpu.memory_space<semaphore_mem>> -> memref<!tpu.dma_semaphore, #tpu.memory_space<semaphore_mem>>
    tpu.wait_dma2 semaphore(%557 : memref<!tpu.dma_semaphore, #tpu.memory_space<semaphore_mem>>) src(%553 : memref<1024x8192xbf16, #tpu.memory_space<hbm>>) dst(%555 : memref<1024x8192xbf16, #tpu.memory_space<vmem>>)
    %c1_i32_646 = arith.constant 1 : i32
    %c1_i32_647 = arith.constant 1 : i32
    %c3072_i32_648 = arith.constant 3072 : i32
    %c0_i32_649 = arith.constant 0 : i32
    %558 = tpu.memref_slice %0[%c3072_i32_648, %c0_i32_649] : memref<8192x2048xbf16, #tpu.memory_space<hbm>> -> memref<1024x8192xbf16, #tpu.memory_space<hbm>>
    %c0_i32_650 = arith.constant 0 : i32
    %c0_i32_651 = arith.constant 0 : i32
    %559 = tpu.memref_slice %2[%c1_i32_646, %c0_i32_650, %c0_i32_651] : memref<2x1024x8192xbf16, #tpu.memory_space<vmem>> -> memref<1x1024x8192xbf16, #tpu.memory_space<vmem>>
    %560 = tpu.memref_squeeze %559 : memref<1x1024x8192xbf16, #tpu.memory_space<vmem>> -> memref<1024x8192xbf16, #tpu.memory_space<vmem>>
    %561 = tpu.memref_slice %3[%c1_i32_647] : memref<2x!tpu.dma_semaphore, #tpu.memory_space<semaphore_mem>> -> memref<1x!tpu.dma_semaphore, #tpu.memory_space<semaphore_mem>>
    %562 = tpu.memref_squeeze %561 : memref<1x!tpu.dma_semaphore, #tpu.memory_space<semaphore_mem>> -> memref<!tpu.dma_semaphore, #tpu.memory_space<semaphore_mem>>
    tpu.enqueue_dma source(%558 : memref<1024x8192xbf16, #tpu.memory_space<hbm>>) target(%560 : memref<1024x8192xbf16, #tpu.memory_space<vmem>>) target_semaphore(%562 : memref<!tpu.dma_semaphore, #tpu.memory_space<semaphore_mem>>)
    %cst_652 = arith.constant 1.000000e+00 : f32
    %563 = arith.addf %552, %cst_652 : f32
    %c0_i32_653 = arith.constant 0 : i32
    %c0_i32_654 = arith.constant 0 : i32
    %c2048_i32_655 = arith.constant 2048 : i32
    %c0_i32_656 = arith.constant 0 : i32
    %564 = tpu.memref_slice %0[%c2048_i32_655, %c0_i32_656] : memref<8192x2048xbf16, #tpu.memory_space<hbm>> -> memref<1024x8192xbf16, #tpu.memory_space<hbm>>
    %c0_i32_657 = arith.constant 0 : i32
    %c0_i32_658 = arith.constant 0 : i32
    %565 = tpu.memref_slice %2[%c0_i32_653, %c0_i32_657, %c0_i32_658] : memref<2x1024x8192xbf16, #tpu.memory_space<vmem>> -> memref<1x1024x8192xbf16, #tpu.memory_space<vmem>>
    %566 = tpu.memref_squeeze %565 : memref<1x1024x8192xbf16, #tpu.memory_space<vmem>> -> memref<1024x8192xbf16, #tpu.memory_space<vmem>>
    %567 = tpu.memref_slice %3[%c0_i32_654] : memref<2x!tpu.dma_semaphore, #tpu.memory_space<semaphore_mem>> -> memref<1x!tpu.dma_semaphore, #tpu.memory_space<semaphore_mem>>
    %568 = tpu.memref_squeeze %567 : memref<1x!tpu.dma_semaphore, #tpu.memory_space<semaphore_mem>> -> memref<!tpu.dma_semaphore, #tpu.memory_space<semaphore_mem>>
    tpu.wait_dma2 semaphore(%568 : memref<!tpu.dma_semaphore, #tpu.memory_space<semaphore_mem>>) src(%564 : memref<1024x8192xbf16, #tpu.memory_space<hbm>>) dst(%566 : memref<1024x8192xbf16, #tpu.memory_space<vmem>>)
    %c0_i32_659 = arith.constant 0 : i32
    %c0_i32_660 = arith.constant 0 : i32
    %c4096_i32_661 = arith.constant 4096 : i32
    %c0_i32_662 = arith.constant 0 : i32
    %569 = tpu.memref_slice %0[%c4096_i32_661, %c0_i32_662] : memref<8192x2048xbf16, #tpu.memory_space<hbm>> -> memref<1024x8192xbf16, #tpu.memory_space<hbm>>
    %c0_i32_663 = arith.constant 0 : i32
    %c0_i32_664 = arith.constant 0 : i32
    %570 = tpu.memref_slice %2[%c0_i32_659, %c0_i32_663, %c0_i32_664] : memref<2x1024x8192xbf16, #tpu.memory_space<vmem>> -> memref<1x1024x8192xbf16, #tpu.memory_space<vmem>>
    %571 = tpu.memref_squeeze %570 : memref<1x1024x8192xbf16, #tpu.memory_space<vmem>> -> memref<1024x8192xbf16, #tpu.memory_space<vmem>>
    %572 = tpu.memref_slice %3[%c0_i32_660] : memref<2x!tpu.dma_semaphore, #tpu.memory_space<semaphore_mem>> -> memref<1x!tpu.dma_semaphore, #tpu.memory_space<semaphore_mem>>
    %573 = tpu.memref_squeeze %572 : memref<1x!tpu.dma_semaphore, #tpu.memory_space<semaphore_mem>> -> memref<!tpu.dma_semaphore, #tpu.memory_space<semaphore_mem>>
    tpu.enqueue_dma source(%569 : memref<1024x8192xbf16, #tpu.memory_space<hbm>>) target(%571 : memref<1024x8192xbf16, #tpu.memory_space<vmem>>) target_semaphore(%573 : memref<!tpu.dma_semaphore, #tpu.memory_space<semaphore_mem>>)
    %cst_665 = arith.constant 1.000000e+00 : f32
    %574 = arith.addf %563, %cst_665 : f32
    %c1_i32_666 = arith.constant 1 : i32
    %c1_i32_667 = arith.constant 1 : i32
    %c3072_i32_668 = arith.constant 3072 : i32
    %c0_i32_669 = arith.constant 0 : i32
    %575 = tpu.memref_slice %0[%c3072_i32_668, %c0_i32_669] : memref<8192x2048xbf16, #tpu.memory_space<hbm>> -> memref<1024x8192xbf16, #tpu.memory_space<hbm>>
    %c0_i32_670 = arith.constant 0 : i32
    %c0_i32_671 = arith.constant 0 : i32
    %576 = tpu.memref_slice %2[%c1_i32_666, %c0_i32_670, %c0_i32_671] : memref<2x1024x8192xbf16, #tpu.memory_space<vmem>> -> memref<1x1024x8192xbf16, #tpu.memory_space<vmem>>
    %577 = tpu.memref_squeeze %576 : memref<1x1024x8192xbf16, #tpu.memory_space<vmem>> -> memref<1024x8192xbf16, #tpu.memory_space<vmem>>
    %578 = tpu.memref_slice %3[%c1_i32_667] : memref<2x!tpu.dma_semaphore, #tpu.memory_space<semaphore_mem>> -> memref<1x!tpu.dma_semaphore, #tpu.memory_space<semaphore_mem>>
    %579 = tpu.memref_squeeze %578 : memref<1x!tpu.dma_semaphore, #tpu.memory_space<semaphore_mem>> -> memref<!tpu.dma_semaphore, #tpu.memory_space<semaphore_mem>>
    tpu.wait_dma2 semaphore(%579 : memref<!tpu.dma_semaphore, #tpu.memory_space<semaphore_mem>>) src(%575 : memref<1024x8192xbf16, #tpu.memory_space<hbm>>) dst(%577 : memref<1024x8192xbf16, #tpu.memory_space<vmem>>)
    %c1_i32_672 = arith.constant 1 : i32
    %c1_i32_673 = arith.constant 1 : i32
    %c5120_i32_674 = arith.constant 5120 : i32
    %c0_i32_675 = arith.constant 0 : i32
    %580 = tpu.memref_slice %0[%c5120_i32_674, %c0_i32_675] : memref<8192x2048xbf16, #tpu.memory_space<hbm>> -> memref<1024x8192xbf16, #tpu.memory_space<hbm>>
    %c0_i32_676 = arith.constant 0 : i32
    %c0_i32_677 = arith.constant 0 : i32
    %581 = tpu.memref_slice %2[%c1_i32_672, %c0_i32_676, %c0_i32_677] : memref<2x1024x8192xbf16, #tpu.memory_space<vmem>> -> memref<1x1024x8192xbf16, #tpu.memory_space<vmem>>
    %582 = tpu.memref_squeeze %581 : memref<1x1024x8192xbf16, #tpu.memory_space<vmem>> -> memref<1024x8192xbf16, #tpu.memory_space<vmem>>
    %583 = tpu.memref_slice %3[%c1_i32_673] : memref<2x!tpu.dma_semaphore, #tpu.memory_space<semaphore_mem>> -> memref<1x!tpu.dma_semaphore, #tpu.memory_space<semaphore_mem>>
    %584 = tpu.memref_squeeze %583 : memref<1x!tpu.dma_semaphore, #tpu.memory_space<semaphore_mem>> -> memref<!tpu.dma_semaphore, #tpu.memory_space<semaphore_mem>>
    tpu.enqueue_dma source(%580 : memref<1024x8192xbf16, #tpu.memory_space<hbm>>) target(%582 : memref<1024x8192xbf16, #tpu.memory_space<vmem>>) target_semaphore(%584 : memref<!tpu.dma_semaphore, #tpu.memory_space<semaphore_mem>>)
    %cst_678 = arith.constant 1.000000e+00 : f32
    %585 = arith.addf %574, %cst_678 : f32
    %c0_i32_679 = arith.constant 0 : i32
    %c0_i32_680 = arith.constant 0 : i32
    %c4096_i32_681 = arith.constant 4096 : i32
    %c0_i32_682 = arith.constant 0 : i32
    %586 = tpu.memref_slice %0[%c4096_i32_681, %c0_i32_682] : memref<8192x2048xbf16, #tpu.memory_space<hbm>> -> memref<1024x8192xbf16, #tpu.memory_space<hbm>>
    %c0_i32_683 = arith.constant 0 : i32
    %c0_i32_684 = arith.constant 0 : i32
    %587 = tpu.memref_slice %2[%c0_i32_679, %c0_i32_683, %c0_i32_684] : memref<2x1024x8192xbf16, #tpu.memory_space<vmem>> -> memref<1x1024x8192xbf16, #tpu.memory_space<vmem>>
    %588 = tpu.memref_squeeze %587 : memref<1x1024x8192xbf16, #tpu.memory_space<vmem>> -> memref<1024x8192xbf16, #tpu.memory_space<vmem>>
    %589 = tpu.memref_slice %3[%c0_i32_680] : memref<2x!tpu.dma_semaphore, #tpu.memory_space<semaphore_mem>> -> memref<1x!tpu.dma_semaphore, #tpu.memory_space<semaphore_mem>>
    %590 = tpu.memref_squeeze %589 : memref<1x!tpu.dma_semaphore, #tpu.memory_space<semaphore_mem>> -> memref<!tpu.dma_semaphore, #tpu.memory_space<semaphore_mem>>
    tpu.wait_dma2 semaphore(%590 : memref<!tpu.dma_semaphore, #tpu.memory_space<semaphore_mem>>) src(%586 : memref<1024x8192xbf16, #tpu.memory_space<hbm>>) dst(%588 : memref<1024x8192xbf16, #tpu.memory_space<vmem>>)
    %c0_i32_685 = arith.constant 0 : i32
    %c0_i32_686 = arith.constant 0 : i32
    %c6144_i32_687 = arith.constant 6144 : i32
    %c0_i32_688 = arith.constant 0 : i32
    %591 = tpu.memref_slice %0[%c6144_i32_687, %c0_i32_688] : memref<8192x2048xbf16, #tpu.memory_space<hbm>> -> memref<1024x8192xbf16, #tpu.memory_space<hbm>>
    %c0_i32_689 = arith.constant 0 : i32
    %c0_i32_690 = arith.constant 0 : i32
    %592 = tpu.memref_slice %2[%c0_i32_685, %c0_i32_689, %c0_i32_690] : memref<2x1024x8192xbf16, #tpu.memory_space<vmem>> -> memref<1x1024x8192xbf16, #tpu.memory_space<vmem>>
    %593 = tpu.memref_squeeze %592 : memref<1x1024x8192xbf16, #tpu.memory_space<vmem>> -> memref<1024x8192xbf16, #tpu.memory_space<vmem>>
    %594 = tpu.memref_slice %3[%c0_i32_686] : memref<2x!tpu.dma_semaphore, #tpu.memory_space<semaphore_mem>> -> memref<1x!tpu.dma_semaphore, #tpu.memory_space<semaphore_mem>>
    %595 = tpu.memref_squeeze %594 : memref<1x!tpu.dma_semaphore, #tpu.memory_space<semaphore_mem>> -> memref<!tpu.dma_semaphore, #tpu.memory_space<semaphore_mem>>
    tpu.enqueue_dma source(%591 : memref<1024x8192xbf16, #tpu.memory_space<hbm>>) target(%593 : memref<1024x8192xbf16, #tpu.memory_space<vmem>>) target_semaphore(%595 : memref<!tpu.dma_semaphore, #tpu.memory_space<semaphore_mem>>)
    %cst_691 = arith.constant 1.000000e+00 : f32
    %596 = arith.addf %585, %cst_691 : f32
    %c1_i32_692 = arith.constant 1 : i32
    %c1_i32_693 = arith.constant 1 : i32
    %c5120_i32_694 = arith.constant 5120 : i32
    %c0_i32_695 = arith.constant 0 : i32
    %597 = tpu.memref_slice %0[%c5120_i32_694, %c0_i32_695] : memref<8192x2048xbf16, #tpu.memory_space<hbm>> -> memref<1024x8192xbf16, #tpu.memory_space<hbm>>
    %c0_i32_696 = arith.constant 0 : i32
    %c0_i32_697 = arith.constant 0 : i32
    %598 = tpu.memref_slice %2[%c1_i32_692, %c0_i32_696, %c0_i32_697] : memref<2x1024x8192xbf16, #tpu.memory_space<vmem>> -> memref<1x1024x8192xbf16, #tpu.memory_space<vmem>>
    %599 = tpu.memref_squeeze %598 : memref<1x1024x8192xbf16, #tpu.memory_space<vmem>> -> memref<1024x8192xbf16, #tpu.memory_space<vmem>>
    %600 = tpu.memref_slice %3[%c1_i32_693] : memref<2x!tpu.dma_semaphore, #tpu.memory_space<semaphore_mem>> -> memref<1x!tpu.dma_semaphore, #tpu.memory_space<semaphore_mem>>
    %601 = tpu.memref_squeeze %600 : memref<1x!tpu.dma_semaphore, #tpu.memory_space<semaphore_mem>> -> memref<!tpu.dma_semaphore, #tpu.memory_space<semaphore_mem>>
    tpu.wait_dma2 semaphore(%601 : memref<!tpu.dma_semaphore, #tpu.memory_space<semaphore_mem>>) src(%597 : memref<1024x8192xbf16, #tpu.memory_space<hbm>>) dst(%599 : memref<1024x8192xbf16, #tpu.memory_space<vmem>>)
    %c1_i32_698 = arith.constant 1 : i32
    %c1_i32_699 = arith.constant 1 : i32
    %c7168_i32_700 = arith.constant 7168 : i32
    %c0_i32_701 = arith.constant 0 : i32
    %602 = tpu.memref_slice %0[%c7168_i32_700, %c0_i32_701] : memref<8192x2048xbf16, #tpu.memory_space<hbm>> -> memref<1024x8192xbf16, #tpu.memory_space<hbm>>
    %c0_i32_702 = arith.constant 0 : i32
    %c0_i32_703 = arith.constant 0 : i32
    %603 = tpu.memref_slice %2[%c1_i32_698, %c0_i32_702, %c0_i32_703] : memref<2x1024x8192xbf16, #tpu.memory_space<vmem>> -> memref<1x1024x8192xbf16, #tpu.memory_space<vmem>>
    %604 = tpu.memref_squeeze %603 : memref<1x1024x8192xbf16, #tpu.memory_space<vmem>> -> memref<1024x8192xbf16, #tpu.memory_space<vmem>>
    %605 = tpu.memref_slice %3[%c1_i32_699] : memref<2x!tpu.dma_semaphore, #tpu.memory_space<semaphore_mem>> -> memref<1x!tpu.dma_semaphore, #tpu.memory_space<semaphore_mem>>
    %606 = tpu.memref_squeeze %605 : memref<1x!tpu.dma_semaphore, #tpu.memory_space<semaphore_mem>> -> memref<!tpu.dma_semaphore, #tpu.memory_space<semaphore_mem>>
    tpu.enqueue_dma source(%602 : memref<1024x8192xbf16, #tpu.memory_space<hbm>>) target(%604 : memref<1024x8192xbf16, #tpu.memory_space<vmem>>) target_semaphore(%606 : memref<!tpu.dma_semaphore, #tpu.memory_space<semaphore_mem>>)
    %cst_704 = arith.constant 1.000000e+00 : f32
    %607 = arith.addf %596, %cst_704 : f32
    %c0_i32_705 = arith.constant 0 : i32
    %c0_i32_706 = arith.constant 0 : i32
    %c6144_i32_707 = arith.constant 6144 : i32
    %c0_i32_708 = arith.constant 0 : i32
    %608 = tpu.memref_slice %0[%c6144_i32_707, %c0_i32_708] : memref<8192x2048xbf16, #tpu.memory_space<hbm>> -> memref<1024x8192xbf16, #tpu.memory_space<hbm>>
    %c0_i32_709 = arith.constant 0 : i32
    %c0_i32_710 = arith.constant 0 : i32
    %609 = tpu.memref_slice %2[%c0_i32_705, %c0_i32_709, %c0_i32_710] : memref<2x1024x8192xbf16, #tpu.memory_space<vmem>> -> memref<1x1024x8192xbf16, #tpu.memory_space<vmem>>
    %610 = tpu.memref_squeeze %609 : memref<1x1024x8192xbf16, #tpu.memory_space<vmem>> -> memref<1024x8192xbf16, #tpu.memory_space<vmem>>
    %611 = tpu.memref_slice %3[%c0_i32_706] : memref<2x!tpu.dma_semaphore, #tpu.memory_space<semaphore_mem>> -> memref<1x!tpu.dma_semaphore, #tpu.memory_space<semaphore_mem>>
    %612 = tpu.memref_squeeze %611 : memref<1x!tpu.dma_semaphore, #tpu.memory_space<semaphore_mem>> -> memref<!tpu.dma_semaphore, #tpu.memory_space<semaphore_mem>>
    tpu.wait_dma2 semaphore(%612 : memref<!tpu.dma_semaphore, #tpu.memory_space<semaphore_mem>>) src(%608 : memref<1024x8192xbf16, #tpu.memory_space<hbm>>) dst(%610 : memref<1024x8192xbf16, #tpu.memory_space<vmem>>)
    %c0_i32_711 = arith.constant 0 : i32
    %c0_i32_712 = arith.constant 0 : i32
    %c0_i32_713 = arith.constant 0 : i32
    %c0_i32_714 = arith.constant 0 : i32
    %613 = tpu.memref_slice %0[%c0_i32_713, %c0_i32_714] : memref<8192x2048xbf16, #tpu.memory_space<hbm>> -> memref<1024x8192xbf16, #tpu.memory_space<hbm>>
    %c0_i32_715 = arith.constant 0 : i32
    %c0_i32_716 = arith.constant 0 : i32
    %614 = tpu.memref_slice %2[%c0_i32_711, %c0_i32_715, %c0_i32_716] : memref<2x1024x8192xbf16, #tpu.memory_space<vmem>> -> memref<1x1024x8192xbf16, #tpu.memory_space<vmem>>
    %615 = tpu.memref_squeeze %614 : memref<1x1024x8192xbf16, #tpu.memory_space<vmem>> -> memref<1024x8192xbf16, #tpu.memory_space<vmem>>
    %616 = tpu.memref_slice %3[%c0_i32_712] : memref<2x!tpu.dma_semaphore, #tpu.memory_space<semaphore_mem>> -> memref<1x!tpu.dma_semaphore, #tpu.memory_space<semaphore_mem>>
    %617 = tpu.memref_squeeze %616 : memref<1x!tpu.dma_semaphore, #tpu.memory_space<semaphore_mem>> -> memref<!tpu.dma_semaphore, #tpu.memory_space<semaphore_mem>>
    tpu.enqueue_dma source(%613 : memref<1024x8192xbf16, #tpu.memory_space<hbm>>) target(%615 : memref<1024x8192xbf16, #tpu.memory_space<vmem>>) target_semaphore(%617 : memref<!tpu.dma_semaphore, #tpu.memory_space<semaphore_mem>>)
    %cst_717 = arith.constant 1.000000e+00 : f32
    %618 = arith.addf %607, %cst_717 : f32
    %c1_i32_718 = arith.constant 1 : i32
    %c1_i32_719 = arith.constant 1 : i32
    %c7168_i32_720 = arith.constant 7168 : i32
    %c0_i32_721 = arith.constant 0 : i32
    %619 = tpu.memref_slice %0[%c7168_i32_720, %c0_i32_721] : memref<8192x2048xbf16, #tpu.memory_space<hbm>> -> memref<1024x8192xbf16, #tpu.memory_space<hbm>>
    %c0_i32_722 = arith.constant 0 : i32
    %c0_i32_723 = arith.constant 0 : i32
    %620 = tpu.memref_slice %2[%c1_i32_718, %c0_i32_722, %c0_i32_723] : memref<2x1024x8192xbf16, #tpu.memory_space<vmem>> -> memref<1x1024x8192xbf16, #tpu.memory_space<vmem>>
    %621 = tpu.memref_squeeze %620 : memref<1x1024x8192xbf16, #tpu.memory_space<vmem>> -> memref<1024x8192xbf16, #tpu.memory_space<vmem>>
    %622 = tpu.memref_slice %3[%c1_i32_719] : memref<2x!tpu.dma_semaphore, #tpu.memory_space<semaphore_mem>> -> memref<1x!tpu.dma_semaphore, #tpu.memory_space<semaphore_mem>>
    %623 = tpu.memref_squeeze %622 : memref<1x!tpu.dma_semaphore, #tpu.memory_space<semaphore_mem>> -> memref<!tpu.dma_semaphore, #tpu.memory_space<semaphore_mem>>
    tpu.wait_dma2 semaphore(%623 : memref<!tpu.dma_semaphore, #tpu.memory_space<semaphore_mem>>) src(%619 : memref<1024x8192xbf16, #tpu.memory_space<hbm>>) dst(%621 : memref<1024x8192xbf16, #tpu.memory_space<vmem>>)
    %c1_i32_724 = arith.constant 1 : i32
    %c1_i32_725 = arith.constant 1 : i32
    %c1024_i32_726 = arith.constant 1024 : i32
    %c0_i32_727 = arith.constant 0 : i32
    %624 = tpu.memref_slice %0[%c1024_i32_726, %c0_i32_727] : memref<8192x2048xbf16, #tpu.memory_space<hbm>> -> memref<1024x8192xbf16, #tpu.memory_space<hbm>>
    %c0_i32_728 = arith.constant 0 : i32
    %c0_i32_729 = arith.constant 0 : i32
    %625 = tpu.memref_slice %2[%c1_i32_724, %c0_i32_728, %c0_i32_729] : memref<2x1024x8192xbf16, #tpu.memory_space<vmem>> -> memref<1x1024x8192xbf16, #tpu.memory_space<vmem>>
    %626 = tpu.memref_squeeze %625 : memref<1x1024x8192xbf16, #tpu.memory_space<vmem>> -> memref<1024x8192xbf16, #tpu.memory_space<vmem>>
    %627 = tpu.memref_slice %3[%c1_i32_725] : memref<2x!tpu.dma_semaphore, #tpu.memory_space<semaphore_mem>> -> memref<1x!tpu.dma_semaphore, #tpu.memory_space<semaphore_mem>>
    %628 = tpu.memref_squeeze %627 : memref<1x!tpu.dma_semaphore, #tpu.memory_space<semaphore_mem>> -> memref<!tpu.dma_semaphore, #tpu.memory_space<semaphore_mem>>
    tpu.enqueue_dma source(%624 : memref<1024x8192xbf16, #tpu.memory_space<hbm>>) target(%626 : memref<1024x8192xbf16, #tpu.memory_space<vmem>>) target_semaphore(%628 : memref<!tpu.dma_semaphore, #tpu.memory_space<semaphore_mem>>)
    %cst_730 = arith.constant 1.000000e+00 : f32
    %629 = arith.addf %618, %cst_730 : f32
    %c0_i32_731 = arith.constant 0 : i32
    %c0_i32_732 = arith.constant 0 : i32
    %c0_i32_733 = arith.constant 0 : i32
    %c0_i32_734 = arith.constant 0 : i32
    %630 = tpu.memref_slice %0[%c0_i32_733, %c0_i32_734] : memref<8192x2048xbf16, #tpu.memory_space<hbm>> -> memref<1024x8192xbf16, #tpu.memory_space<hbm>>
    %c0_i32_735 = arith.constant 0 : i32
    %c0_i32_736 = arith.constant 0 : i32
    %631 = tpu.memref_slice %2[%c0_i32_731, %c0_i32_735, %c0_i32_736] : memref<2x1024x8192xbf16, #tpu.memory_space<vmem>> -> memref<1x1024x8192xbf16, #tpu.memory_space<vmem>>
    %632 = tpu.memref_squeeze %631 : memref<1x1024x8192xbf16, #tpu.memory_space<vmem>> -> memref<1024x8192xbf16, #tpu.memory_space<vmem>>
    %633 = tpu.memref_slice %3[%c0_i32_732] : memref<2x!tpu.dma_semaphore, #tpu.memory_space<semaphore_mem>> -> memref<1x!tpu.dma_semaphore, #tpu.memory_space<semaphore_mem>>
    %634 = tpu.memref_squeeze %633 : memref<1x!tpu.dma_semaphore, #tpu.memory_space<semaphore_mem>> -> memref<!tpu.dma_semaphore, #tpu.memory_space<semaphore_mem>>
    tpu.wait_dma2 semaphore(%634 : memref<!tpu.dma_semaphore, #tpu.memory_space<semaphore_mem>>) src(%630 : memref<1024x8192xbf16, #tpu.memory_space<hbm>>) dst(%632 : memref<1024x8192xbf16, #tpu.memory_space<vmem>>)
    %c0_i32_737 = arith.constant 0 : i32
    %c0_i32_738 = arith.constant 0 : i32
    %c2048_i32_739 = arith.constant 2048 : i32
    %c0_i32_740 = arith.constant 0 : i32
    %635 = tpu.memref_slice %0[%c2048_i32_739, %c0_i32_740] : memref<8192x2048xbf16, #tpu.memory_space<hbm>> -> memref<1024x8192xbf16, #tpu.memory_space<hbm>>
    %c0_i32_741 = arith.constant 0 : i32
    %c0_i32_742 = arith.constant 0 : i32
    %636 = tpu.memref_slice %2[%c0_i32_737, %c0_i32_741, %c0_i32_742] : memref<2x1024x8192xbf16, #tpu.memory_space<vmem>> -> memref<1x1024x8192xbf16, #tpu.memory_space<vmem>>
    %637 = tpu.memref_squeeze %636 : memref<1x1024x8192xbf16, #tpu.memory_space<vmem>> -> memref<1024x8192xbf16, #tpu.memory_space<vmem>>
    %638 = tpu.memref_slice %3[%c0_i32_738] : memref<2x!tpu.dma_semaphore, #tpu.memory_space<semaphore_mem>> -> memref<1x!tpu.dma_semaphore, #tpu.memory_space<semaphore_mem>>
    %639 = tpu.memref_squeeze %638 : memref<1x!tpu.dma_semaphore, #tpu.memory_space<semaphore_mem>> -> memref<!tpu.dma_semaphore, #tpu.memory_space<semaphore_mem>>
    tpu.enqueue_dma source(%635 : memref<1024x8192xbf16, #tpu.memory_space<hbm>>) target(%637 : memref<1024x8192xbf16, #tpu.memory_space<vmem>>) target_semaphore(%639 : memref<!tpu.dma_semaphore, #tpu.memory_space<semaphore_mem>>)
    %cst_743 = arith.constant 1.000000e+00 : f32
    %640 = arith.addf %629, %cst_743 : f32
    %c1_i32_744 = arith.constant 1 : i32
    %c1_i32_745 = arith.constant 1 : i32
    %c1024_i32_746 = arith.constant 1024 : i32
    %c0_i32_747 = arith.constant 0 : i32
    %641 = tpu.memref_slice %0[%c1024_i32_746, %c0_i32_747] : memref<8192x2048xbf16, #tpu.memory_space<hbm>> -> memref<1024x8192xbf16, #tpu.memory_space<hbm>>
    %c0_i32_748 = arith.constant 0 : i32
    %c0_i32_749 = arith.constant 0 : i32
    %642 = tpu.memref_slice %2[%c1_i32_744, %c0_i32_748, %c0_i32_749] : memref<2x1024x8192xbf16, #tpu.memory_space<vmem>> -> memref<1x1024x8192xbf16, #tpu.memory_space<vmem>>
    %643 = tpu.memref_squeeze %642 : memref<1x1024x8192xbf16, #tpu.memory_space<vmem>> -> memref<1024x8192xbf16, #tpu.memory_space<vmem>>
    %644 = tpu.memref_slice %3[%c1_i32_745] : memref<2x!tpu.dma_semaphore, #tpu.memory_space<semaphore_mem>> -> memref<1x!tpu.dma_semaphore, #tpu.memory_space<semaphore_mem>>
    %645 = tpu.memref_squeeze %644 : memref<1x!tpu.dma_semaphore, #tpu.memory_space<semaphore_mem>> -> memref<!tpu.dma_semaphore, #tpu.memory_space<semaphore_mem>>
    tpu.wait_dma2 semaphore(%645 : memref<!tpu.dma_semaphore, #tpu.memory_space<semaphore_mem>>) src(%641 : memref<1024x8192xbf16, #tpu.memory_space<hbm>>) dst(%643 : memref<1024x8192xbf16, #tpu.memory_space<vmem>>)
    %c1_i32_750 = arith.constant 1 : i32
    %c1_i32_751 = arith.constant 1 : i32
    %c3072_i32_752 = arith.constant 3072 : i32
    %c0_i32_753 = arith.constant 0 : i32
    %646 = tpu.memref_slice %0[%c3072_i32_752, %c0_i32_753] : memref<8192x2048xbf16, #tpu.memory_space<hbm>> -> memref<1024x8192xbf16, #tpu.memory_space<hbm>>
    %c0_i32_754 = arith.constant 0 : i32
    %c0_i32_755 = arith.constant 0 : i32
    %647 = tpu.memref_slice %2[%c1_i32_750, %c0_i32_754, %c0_i32_755] : memref<2x1024x8192xbf16, #tpu.memory_space<vmem>> -> memref<1x1024x8192xbf16, #tpu.memory_space<vmem>>
    %648 = tpu.memref_squeeze %647 : memref<1x1024x8192xbf16, #tpu.memory_space<vmem>> -> memref<1024x8192xbf16, #tpu.memory_space<vmem>>
    %649 = tpu.memref_slice %3[%c1_i32_751] : memref<2x!tpu.dma_semaphore, #tpu.memory_space<semaphore_mem>> -> memref<1x!tpu.dma_semaphore, #tpu.memory_space<semaphore_mem>>
    %650 = tpu.memref_squeeze %649 : memref<1x!tpu.dma_semaphore, #tpu.memory_space<semaphore_mem>> -> memref<!tpu.dma_semaphore, #tpu.memory_space<semaphore_mem>>
    tpu.enqueue_dma source(%646 : memref<1024x8192xbf16, #tpu.memory_space<hbm>>) target(%648 : memref<1024x8192xbf16, #tpu.memory_space<vmem>>) target_semaphore(%650 : memref<!tpu.dma_semaphore, #tpu.memory_space<semaphore_mem>>)
    %cst_756 = arith.constant 1.000000e+00 : f32
    %651 = arith.addf %640, %cst_756 : f32
    %c0_i32_757 = arith.constant 0 : i32
    %c0_i32_758 = arith.constant 0 : i32
    %c2048_i32_759 = arith.constant 2048 : i32
    %c0_i32_760 = arith.constant 0 : i32
    %652 = tpu.memref_slice %0[%c2048_i32_759, %c0_i32_760] : memref<8192x2048xbf16, #tpu.memory_space<hbm>> -> memref<1024x8192xbf16, #tpu.memory_space<hbm>>
    %c0_i32_761 = arith.constant 0 : i32
    %c0_i32_762 = arith.constant 0 : i32
    %653 = tpu.memref_slice %2[%c0_i32_757, %c0_i32_761, %c0_i32_762] : memref<2x1024x8192xbf16, #tpu.memory_space<vmem>> -> memref<1x1024x8192xbf16, #tpu.memory_space<vmem>>
    %654 = tpu.memref_squeeze %653 : memref<1x1024x8192xbf16, #tpu.memory_space<vmem>> -> memref<1024x8192xbf16, #tpu.memory_space<vmem>>
    %655 = tpu.memref_slice %3[%c0_i32_758] : memref<2x!tpu.dma_semaphore, #tpu.memory_space<semaphore_mem>> -> memref<1x!tpu.dma_semaphore, #tpu.memory_space<semaphore_mem>>
    %656 = tpu.memref_squeeze %655 : memref<1x!tpu.dma_semaphore, #tpu.memory_space<semaphore_mem>> -> memref<!tpu.dma_semaphore, #tpu.memory_space<semaphore_mem>>
    tpu.wait_dma2 semaphore(%656 : memref<!tpu.dma_semaphore, #tpu.memory_space<semaphore_mem>>) src(%652 : memref<1024x8192xbf16, #tpu.memory_space<hbm>>) dst(%654 : memref<1024x8192xbf16, #tpu.memory_space<vmem>>)
    %c0_i32_763 = arith.constant 0 : i32
    %c0_i32_764 = arith.constant 0 : i32
    %c4096_i32_765 = arith.constant 4096 : i32
    %c0_i32_766 = arith.constant 0 : i32
    %657 = tpu.memref_slice %0[%c4096_i32_765, %c0_i32_766] : memref<8192x2048xbf16, #tpu.memory_space<hbm>> -> memref<1024x8192xbf16, #tpu.memory_space<hbm>>
    %c0_i32_767 = arith.constant 0 : i32
    %c0_i32_768 = arith.constant 0 : i32
    %658 = tpu.memref_slice %2[%c0_i32_763, %c0_i32_767, %c0_i32_768] : memref<2x1024x8192xbf16, #tpu.memory_space<vmem>> -> memref<1x1024x8192xbf16, #tpu.memory_space<vmem>>
    %659 = tpu.memref_squeeze %658 : memref<1x1024x8192xbf16, #tpu.memory_space<vmem>> -> memref<1024x8192xbf16, #tpu.memory_space<vmem>>
    %660 = tpu.memref_slice %3[%c0_i32_764] : memref<2x!tpu.dma_semaphore, #tpu.memory_space<semaphore_mem>> -> memref<1x!tpu.dma_semaphore, #tpu.memory_space<semaphore_mem>>
    %661 = tpu.memref_squeeze %660 : memref<1x!tpu.dma_semaphore, #tpu.memory_space<semaphore_mem>> -> memref<!tpu.dma_semaphore, #tpu.memory_space<semaphore_mem>>
    tpu.enqueue_dma source(%657 : memref<1024x8192xbf16, #tpu.memory_space<hbm>>) target(%659 : memref<1024x8192xbf16, #tpu.memory_space<vmem>>) target_semaphore(%661 : memref<!tpu.dma_semaphore, #tpu.memory_space<semaphore_mem>>)
    %cst_769 = arith.constant 1.000000e+00 : f32
    %662 = arith.addf %651, %cst_769 : f32
    %c1_i32_770 = arith.constant 1 : i32
    %c1_i32_771 = arith.constant 1 : i32
    %c3072_i32_772 = arith.constant 3072 : i32
    %c0_i32_773 = arith.constant 0 : i32
    %663 = tpu.memref_slice %0[%c3072_i32_772, %c0_i32_773] : memref<8192x2048xbf16, #tpu.memory_space<hbm>> -> memref<1024x8192xbf16, #tpu.memory_space<hbm>>
    %c0_i32_774 = arith.constant 0 : i32
    %c0_i32_775 = arith.constant 0 : i32
    %664 = tpu.memref_slice %2[%c1_i32_770, %c0_i32_774, %c0_i32_775] : memref<2x1024x8192xbf16, #tpu.memory_space<vmem>> -> memref<1x1024x8192xbf16, #tpu.memory_space<vmem>>
    %665 = tpu.memref_squeeze %664 : memref<1x1024x8192xbf16, #tpu.memory_space<vmem>> -> memref<1024x8192xbf16, #tpu.memory_space<vmem>>
    %666 = tpu.memref_slice %3[%c1_i32_771] : memref<2x!tpu.dma_semaphore, #tpu.memory_space<semaphore_mem>> -> memref<1x!tpu.dma_semaphore, #tpu.memory_space<semaphore_mem>>
    %667 = tpu.memref_squeeze %666 : memref<1x!tpu.dma_semaphore, #tpu.memory_space<semaphore_mem>> -> memref<!tpu.dma_semaphore, #tpu.memory_space<semaphore_mem>>
    tpu.wait_dma2 semaphore(%667 : memref<!tpu.dma_semaphore, #tpu.memory_space<semaphore_mem>>) src(%663 : memref<1024x8192xbf16, #tpu.memory_space<hbm>>) dst(%665 : memref<1024x8192xbf16, #tpu.memory_space<vmem>>)
    %c1_i32_776 = arith.constant 1 : i32
    %c1_i32_777 = arith.constant 1 : i32
    %c5120_i32_778 = arith.constant 5120 : i32
    %c0_i32_779 = arith.constant 0 : i32
    %668 = tpu.memref_slice %0[%c5120_i32_778, %c0_i32_779] : memref<8192x2048xbf16, #tpu.memory_space<hbm>> -> memref<1024x8192xbf16, #tpu.memory_space<hbm>>
    %c0_i32_780 = arith.constant 0 : i32
    %c0_i32_781 = arith.constant 0 : i32
    %669 = tpu.memref_slice %2[%c1_i32_776, %c0_i32_780, %c0_i32_781] : memref<2x1024x8192xbf16, #tpu.memory_space<vmem>> -> memref<1x1024x8192xbf16, #tpu.memory_space<vmem>>
    %670 = tpu.memref_squeeze %669 : memref<1x1024x8192xbf16, #tpu.memory_space<vmem>> -> memref<1024x8192xbf16, #tpu.memory_space<vmem>>
    %671 = tpu.memref_slice %3[%c1_i32_777] : memref<2x!tpu.dma_semaphore, #tpu.memory_space<semaphore_mem>> -> memref<1x!tpu.dma_semaphore, #tpu.memory_space<semaphore_mem>>
    %672 = tpu.memref_squeeze %671 : memref<1x!tpu.dma_semaphore, #tpu.memory_space<semaphore_mem>> -> memref<!tpu.dma_semaphore, #tpu.memory_space<semaphore_mem>>
    tpu.enqueue_dma source(%668 : memref<1024x8192xbf16, #tpu.memory_space<hbm>>) target(%670 : memref<1024x8192xbf16, #tpu.memory_space<vmem>>) target_semaphore(%672 : memref<!tpu.dma_semaphore, #tpu.memory_space<semaphore_mem>>)
    %cst_782 = arith.constant 1.000000e+00 : f32
    %673 = arith.addf %662, %cst_782 : f32
    %c0_i32_783 = arith.constant 0 : i32
    %c0_i32_784 = arith.constant 0 : i32
    %c4096_i32_785 = arith.constant 4096 : i32
    %c0_i32_786 = arith.constant 0 : i32
    %674 = tpu.memref_slice %0[%c4096_i32_785, %c0_i32_786] : memref<8192x2048xbf16, #tpu.memory_space<hbm>> -> memref<1024x8192xbf16, #tpu.memory_space<hbm>>
    %c0_i32_787 = arith.constant 0 : i32
    %c0_i32_788 = arith.constant 0 : i32
    %675 = tpu.memref_slice %2[%c0_i32_783, %c0_i32_787, %c0_i32_788] : memref<2x1024x8192xbf16, #tpu.memory_space<vmem>> -> memref<1x1024x8192xbf16, #tpu.memory_space<vmem>>
    %676 = tpu.memref_squeeze %675 : memref<1x1024x8192xbf16, #tpu.memory_space<vmem>> -> memref<1024x8192xbf16, #tpu.memory_space<vmem>>
    %677 = tpu.memref_slice %3[%c0_i32_784] : memref<2x!tpu.dma_semaphore, #tpu.memory_space<semaphore_mem>> -> memref<1x!tpu.dma_semaphore, #tpu.memory_space<semaphore_mem>>
    %678 = tpu.memref_squeeze %677 : memref<1x!tpu.dma_semaphore, #tpu.memory_space<semaphore_mem>> -> memref<!tpu.dma_semaphore, #tpu.memory_space<semaphore_mem>>
    tpu.wait_dma2 semaphore(%678 : memref<!tpu.dma_semaphore, #tpu.memory_space<semaphore_mem>>) src(%674 : memref<1024x8192xbf16, #tpu.memory_space<hbm>>) dst(%676 : memref<1024x8192xbf16, #tpu.memory_space<vmem>>)
    %c0_i32_789 = arith.constant 0 : i32
    %c0_i32_790 = arith.constant 0 : i32
    %c6144_i32_791 = arith.constant 6144 : i32
    %c0_i32_792 = arith.constant 0 : i32
    %679 = tpu.memref_slice %0[%c6144_i32_791, %c0_i32_792] : memref<8192x2048xbf16, #tpu.memory_space<hbm>> -> memref<1024x8192xbf16, #tpu.memory_space<hbm>>
    %c0_i32_793 = arith.constant 0 : i32
    %c0_i32_794 = arith.constant 0 : i32
    %680 = tpu.memref_slice %2[%c0_i32_789, %c0_i32_793, %c0_i32_794] : memref<2x1024x8192xbf16, #tpu.memory_space<vmem>> -> memref<1x1024x8192xbf16, #tpu.memory_space<vmem>>
    %681 = tpu.memref_squeeze %680 : memref<1x1024x8192xbf16, #tpu.memory_space<vmem>> -> memref<1024x8192xbf16, #tpu.memory_space<vmem>>
    %682 = tpu.memref_slice %3[%c0_i32_790] : memref<2x!tpu.dma_semaphore, #tpu.memory_space<semaphore_mem>> -> memref<1x!tpu.dma_semaphore, #tpu.memory_space<semaphore_mem>>
    %683 = tpu.memref_squeeze %682 : memref<1x!tpu.dma_semaphore, #tpu.memory_space<semaphore_mem>> -> memref<!tpu.dma_semaphore, #tpu.memory_space<semaphore_mem>>
    tpu.enqueue_dma source(%679 : memref<1024x8192xbf16, #tpu.memory_space<hbm>>) target(%681 : memref<1024x8192xbf16, #tpu.memory_space<vmem>>) target_semaphore(%683 : memref<!tpu.dma_semaphore, #tpu.memory_space<semaphore_mem>>)
    %cst_795 = arith.constant 1.000000e+00 : f32
    %684 = arith.addf %673, %cst_795 : f32
    %c1_i32_796 = arith.constant 1 : i32
    %c1_i32_797 = arith.constant 1 : i32
    %c5120_i32_798 = arith.constant 5120 : i32
    %c0_i32_799 = arith.constant 0 : i32
    %685 = tpu.memref_slice %0[%c5120_i32_798, %c0_i32_799] : memref<8192x2048xbf16, #tpu.memory_space<hbm>> -> memref<1024x8192xbf16, #tpu.memory_space<hbm>>
    %c0_i32_800 = arith.constant 0 : i32
    %c0_i32_801 = arith.constant 0 : i32
    %686 = tpu.memref_slice %2[%c1_i32_796, %c0_i32_800, %c0_i32_801] : memref<2x1024x8192xbf16, #tpu.memory_space<vmem>> -> memref<1x1024x8192xbf16, #tpu.memory_space<vmem>>
    %687 = tpu.memref_squeeze %686 : memref<1x1024x8192xbf16, #tpu.memory_space<vmem>> -> memref<1024x8192xbf16, #tpu.memory_space<vmem>>
    %688 = tpu.memref_slice %3[%c1_i32_797] : memref<2x!tpu.dma_semaphore, #tpu.memory_space<semaphore_mem>> -> memref<1x!tpu.dma_semaphore, #tpu.memory_space<semaphore_mem>>
    %689 = tpu.memref_squeeze %688 : memref<1x!tpu.dma_semaphore, #tpu.memory_space<semaphore_mem>> -> memref<!tpu.dma_semaphore, #tpu.memory_space<semaphore_mem>>
    tpu.wait_dma2 semaphore(%689 : memref<!tpu.dma_semaphore, #tpu.memory_space<semaphore_mem>>) src(%685 : memref<1024x8192xbf16, #tpu.memory_space<hbm>>) dst(%687 : memref<1024x8192xbf16, #tpu.memory_space<vmem>>)
    %c1_i32_802 = arith.constant 1 : i32
    %c1_i32_803 = arith.constant 1 : i32
    %c7168_i32_804 = arith.constant 7168 : i32
    %c0_i32_805 = arith.constant 0 : i32
    %690 = tpu.memref_slice %0[%c7168_i32_804, %c0_i32_805] : memref<8192x2048xbf16, #tpu.memory_space<hbm>> -> memref<1024x8192xbf16, #tpu.memory_space<hbm>>
    %c0_i32_806 = arith.constant 0 : i32
    %c0_i32_807 = arith.constant 0 : i32
    %691 = tpu.memref_slice %2[%c1_i32_802, %c0_i32_806, %c0_i32_807] : memref<2x1024x8192xbf16, #tpu.memory_space<vmem>> -> memref<1x1024x8192xbf16, #tpu.memory_space<vmem>>
    %692 = tpu.memref_squeeze %691 : memref<1x1024x8192xbf16, #tpu.memory_space<vmem>> -> memref<1024x8192xbf16, #tpu.memory_space<vmem>>
    %693 = tpu.memref_slice %3[%c1_i32_803] : memref<2x!tpu.dma_semaphore, #tpu.memory_space<semaphore_mem>> -> memref<1x!tpu.dma_semaphore, #tpu.memory_space<semaphore_mem>>
    %694 = tpu.memref_squeeze %693 : memref<1x!tpu.dma_semaphore, #tpu.memory_space<semaphore_mem>> -> memref<!tpu.dma_semaphore, #tpu.memory_space<semaphore_mem>>
    tpu.enqueue_dma source(%690 : memref<1024x8192xbf16, #tpu.memory_space<hbm>>) target(%692 : memref<1024x8192xbf16, #tpu.memory_space<vmem>>) target_semaphore(%694 : memref<!tpu.dma_semaphore, #tpu.memory_space<semaphore_mem>>)
    %cst_808 = arith.constant 1.000000e+00 : f32
    %695 = arith.addf %684, %cst_808 : f32
    %c0_i32_809 = arith.constant 0 : i32
    %c0_i32_810 = arith.constant 0 : i32
    %c6144_i32_811 = arith.constant 6144 : i32
    %c0_i32_812 = arith.constant 0 : i32
    %696 = tpu.memref_slice %0[%c6144_i32_811, %c0_i32_812] : memref<8192x2048xbf16, #tpu.memory_space<hbm>> -> memref<1024x8192xbf16, #tpu.memory_space<hbm>>
    %c0_i32_813 = arith.constant 0 : i32
    %c0_i32_814 = arith.constant 0 : i32
    %697 = tpu.memref_slice %2[%c0_i32_809, %c0_i32_813, %c0_i32_814] : memref<2x1024x8192xbf16, #tpu.memory_space<vmem>> -> memref<1x1024x8192xbf16, #tpu.memory_space<vmem>>
    %698 = tpu.memref_squeeze %697 : memref<1x1024x8192xbf16, #tpu.memory_space<vmem>> -> memref<1024x8192xbf16, #tpu.memory_space<vmem>>
    %699 = tpu.memref_slice %3[%c0_i32_810] : memref<2x!tpu.dma_semaphore, #tpu.memory_space<semaphore_mem>> -> memref<1x!tpu.dma_semaphore, #tpu.memory_space<semaphore_mem>>
    %700 = tpu.memref_squeeze %699 : memref<1x!tpu.dma_semaphore, #tpu.memory_space<semaphore_mem>> -> memref<!tpu.dma_semaphore, #tpu.memory_space<semaphore_mem>>
    tpu.wait_dma2 semaphore(%700 : memref<!tpu.dma_semaphore, #tpu.memory_space<semaphore_mem>>) src(%696 : memref<1024x8192xbf16, #tpu.memory_space<hbm>>) dst(%698 : memref<1024x8192xbf16, #tpu.memory_space<vmem>>)
    %cst_815 = arith.constant 1.000000e+00 : f32
    %701 = arith.addf %695, %cst_815 : f32
    %c1_i32_816 = arith.constant 1 : i32
    %c1_i32_817 = arith.constant 1 : i32
    %c7168_i32_818 = arith.constant 7168 : i32
    %c0_i32_819 = arith.constant 0 : i32
    %702 = tpu.memref_slice %0[%c7168_i32_818, %c0_i32_819] : memref<8192x2048xbf16, #tpu.memory_space<hbm>> -> memref<1024x8192xbf16, #tpu.memory_space<hbm>>
    %c0_i32_820 = arith.constant 0 : i32
    %c0_i32_821 = arith.constant 0 : i32
    %703 = tpu.memref_slice %2[%c1_i32_816, %c0_i32_820, %c0_i32_821] : memref<2x1024x8192xbf16, #tpu.memory_space<vmem>> -> memref<1x1024x8192xbf16, #tpu.memory_space<vmem>>
    %704 = tpu.memref_squeeze %703 : memref<1x1024x8192xbf16, #tpu.memory_space<vmem>> -> memref<1024x8192xbf16, #tpu.memory_space<vmem>>
    %705 = tpu.memref_slice %3[%c1_i32_817] : memref<2x!tpu.dma_semaphore, #tpu.memory_space<semaphore_mem>> -> memref<1x!tpu.dma_semaphore, #tpu.memory_space<semaphore_mem>>
    %706 = tpu.memref_squeeze %705 : memref<1x!tpu.dma_semaphore, #tpu.memory_space<semaphore_mem>> -> memref<!tpu.dma_semaphore, #tpu.memory_space<semaphore_mem>>
    tpu.wait_dma2 semaphore(%706 : memref<!tpu.dma_semaphore, #tpu.memory_space<semaphore_mem>>) src(%702 : memref<1024x8192xbf16, #tpu.memory_space<hbm>>) dst(%704 : memref<1024x8192xbf16, #tpu.memory_space<vmem>>)
    %cst_822 = arith.constant 1.000000e+00 : f32
    %707 = arith.addf %701, %cst_822 : f32
    %708 = vector.broadcast %707 : f32 to vector<1xf32>
    %c0 = arith.constant 0 : index
    %709 = vector.load %1[%c0] : memref<1xf32, #tpu.memory_space<vmem>>, vector<1xf32>
    tpu.vector_store %1[%c0], %708 {strides = array<i32>} : memref<1xf32, #tpu.memory_space<vmem>>, vector<1xf32>, 
    return
  }
  func.func @transform_1(%arg0: i32) -> i32 {
    %c0_i32 = arith.constant 0 : i32
    %c0_i32_0 = arith.constant 0 : i32
    return %c0_i32 : i32
  }
}
