module attributes {stable_mosaic.version = 11 : i64} {
  func.func @_dma_double_buffer_load_kernel(%arg0: i32, %arg1: memref<8192x2048xbf16, #tpu.memory_space<hbm>>, %arg2: memref<1xf32, #tpu.memory_space<vmem>>, %arg3: memref<2x1024x8192xbf16, #tpu.memory_space<vmem>>, %arg4: memref<2x!tpu.dma_semaphore, #tpu.memory_space<semaphore_mem>>) attributes {dimension_semantics = [#tpu.dimension_semantics<arbitrary>], iteration_bounds = array<i64: 1>, scalar_prefetch = 0 : i64, scratch_operands = 2 : i64, tpu.core_type = #tpu.core_type<tc>, window_params = [{}, {pipeline_mode = #tpu.pipeline_mode<synchronous>, transform_indices = @transform_1, window_bounds = array<i64: 1>}]} {
    %c0_i32 = arith.constant 0 : i32
    %c0_i32_0 = arith.constant 0 : i32
    %c0_i32_1 = arith.constant 0 : i32
    %c0_i32_2 = arith.constant 0 : i32
    %0 = tpu.memref_slice %arg1[%c0_i32_1, %c0_i32_2] : memref<8192x2048xbf16, #tpu.memory_space<hbm>> -> memref<1024x8192xbf16, #tpu.memory_space<hbm>>
    %c0_i32_3 = arith.constant 0 : i32
    %c0_i32_4 = arith.constant 0 : i32
    %1 = tpu.memref_slice %arg3[%c0_i32, %c0_i32_3, %c0_i32_4] : memref<2x1024x8192xbf16, #tpu.memory_space<vmem>> -> memref<1x1024x8192xbf16, #tpu.memory_space<vmem>>
    %2 = tpu.memref_squeeze %1 : memref<1x1024x8192xbf16, #tpu.memory_space<vmem>> -> memref<1024x8192xbf16, #tpu.memory_space<vmem>>
    %3 = tpu.memref_slice %arg4[%c0_i32_0] : memref<2x!tpu.dma_semaphore, #tpu.memory_space<semaphore_mem>> -> memref<1x!tpu.dma_semaphore, #tpu.memory_space<semaphore_mem>>
    %4 = tpu.memref_squeeze %3 : memref<1x!tpu.dma_semaphore, #tpu.memory_space<semaphore_mem>> -> memref<!tpu.dma_semaphore, #tpu.memory_space<semaphore_mem>>
    tpu.enqueue_dma source(%0 : memref<1024x8192xbf16, #tpu.memory_space<hbm>>) target(%2 : memref<1024x8192xbf16, #tpu.memory_space<vmem>>) target_semaphore(%4 : memref<!tpu.dma_semaphore, #tpu.memory_space<semaphore_mem>>)
    %c1_i32 = arith.constant 1 : i32
    %c1_i32_5 = arith.constant 1 : i32
    %c1024_i32 = arith.constant 1024 : i32
    %c0_i32_6 = arith.constant 0 : i32
    %5 = tpu.memref_slice %arg1[%c1024_i32, %c0_i32_6] : memref<8192x2048xbf16, #tpu.memory_space<hbm>> -> memref<1024x8192xbf16, #tpu.memory_space<hbm>>
    %c0_i32_7 = arith.constant 0 : i32
    %c0_i32_8 = arith.constant 0 : i32
    %6 = tpu.memref_slice %arg3[%c1_i32, %c0_i32_7, %c0_i32_8] : memref<2x1024x8192xbf16, #tpu.memory_space<vmem>> -> memref<1x1024x8192xbf16, #tpu.memory_space<vmem>>
    %7 = tpu.memref_squeeze %6 : memref<1x1024x8192xbf16, #tpu.memory_space<vmem>> -> memref<1024x8192xbf16, #tpu.memory_space<vmem>>
    %8 = tpu.memref_slice %arg4[%c1_i32_5] : memref<2x!tpu.dma_semaphore, #tpu.memory_space<semaphore_mem>> -> memref<1x!tpu.dma_semaphore, #tpu.memory_space<semaphore_mem>>
    %9 = tpu.memref_squeeze %8 : memref<1x!tpu.dma_semaphore, #tpu.memory_space<semaphore_mem>> -> memref<!tpu.dma_semaphore, #tpu.memory_space<semaphore_mem>>
    tpu.enqueue_dma source(%5 : memref<1024x8192xbf16, #tpu.memory_space<hbm>>) target(%7 : memref<1024x8192xbf16, #tpu.memory_space<vmem>>) target_semaphore(%9 : memref<!tpu.dma_semaphore, #tpu.memory_space<semaphore_mem>>)
    %c0_i32_9 = arith.constant 0 : i32
    %c0_i32_10 = arith.constant 0 : i32
    %c0_i32_11 = arith.constant 0 : i32
    %c0_i32_12 = arith.constant 0 : i32
    %10 = tpu.memref_slice %arg1[%c0_i32_11, %c0_i32_12] : memref<8192x2048xbf16, #tpu.memory_space<hbm>> -> memref<1024x8192xbf16, #tpu.memory_space<hbm>>
    %c0_i32_13 = arith.constant 0 : i32
    %c0_i32_14 = arith.constant 0 : i32
    %11 = tpu.memref_slice %arg3[%c0_i32_9, %c0_i32_13, %c0_i32_14] : memref<2x1024x8192xbf16, #tpu.memory_space<vmem>> -> memref<1x1024x8192xbf16, #tpu.memory_space<vmem>>
    %12 = tpu.memref_squeeze %11 : memref<1x1024x8192xbf16, #tpu.memory_space<vmem>> -> memref<1024x8192xbf16, #tpu.memory_space<vmem>>
    %13 = tpu.memref_slice %arg4[%c0_i32_10] : memref<2x!tpu.dma_semaphore, #tpu.memory_space<semaphore_mem>> -> memref<1x!tpu.dma_semaphore, #tpu.memory_space<semaphore_mem>>
    %14 = tpu.memref_squeeze %13 : memref<1x!tpu.dma_semaphore, #tpu.memory_space<semaphore_mem>> -> memref<!tpu.dma_semaphore, #tpu.memory_space<semaphore_mem>>
    tpu.wait_dma2 semaphore(%14 : memref<!tpu.dma_semaphore, #tpu.memory_space<semaphore_mem>>) src(%10 : memref<1024x8192xbf16, #tpu.memory_space<hbm>>) dst(%12 : memref<1024x8192xbf16, #tpu.memory_space<vmem>>)
    %c0_i32_15 = arith.constant 0 : i32
    %c0_i32_16 = arith.constant 0 : i32
    %c2048_i32 = arith.constant 2048 : i32
    %c0_i32_17 = arith.constant 0 : i32
    %15 = tpu.memref_slice %arg1[%c2048_i32, %c0_i32_17] : memref<8192x2048xbf16, #tpu.memory_space<hbm>> -> memref<1024x8192xbf16, #tpu.memory_space<hbm>>
    %c0_i32_18 = arith.constant 0 : i32
    %c0_i32_19 = arith.constant 0 : i32
    %16 = tpu.memref_slice %arg3[%c0_i32_15, %c0_i32_18, %c0_i32_19] : memref<2x1024x8192xbf16, #tpu.memory_space<vmem>> -> memref<1x1024x8192xbf16, #tpu.memory_space<vmem>>
    %17 = tpu.memref_squeeze %16 : memref<1x1024x8192xbf16, #tpu.memory_space<vmem>> -> memref<1024x8192xbf16, #tpu.memory_space<vmem>>
    %18 = tpu.memref_slice %arg4[%c0_i32_16] : memref<2x!tpu.dma_semaphore, #tpu.memory_space<semaphore_mem>> -> memref<1x!tpu.dma_semaphore, #tpu.memory_space<semaphore_mem>>
    %19 = tpu.memref_squeeze %18 : memref<1x!tpu.dma_semaphore, #tpu.memory_space<semaphore_mem>> -> memref<!tpu.dma_semaphore, #tpu.memory_space<semaphore_mem>>
    tpu.enqueue_dma source(%15 : memref<1024x8192xbf16, #tpu.memory_space<hbm>>) target(%17 : memref<1024x8192xbf16, #tpu.memory_space<vmem>>) target_semaphore(%19 : memref<!tpu.dma_semaphore, #tpu.memory_space<semaphore_mem>>)
    %cst = arith.constant 0.000000e+00 : f32
    %cst_20 = arith.constant 1.000000e+00 : f32
    %20 = arith.addf %cst, %cst_20 : f32
    %c1_i32_21 = arith.constant 1 : i32
    %c1_i32_22 = arith.constant 1 : i32
    %c1024_i32_23 = arith.constant 1024 : i32
    %c0_i32_24 = arith.constant 0 : i32
    %21 = tpu.memref_slice %arg1[%c1024_i32_23, %c0_i32_24] : memref<8192x2048xbf16, #tpu.memory_space<hbm>> -> memref<1024x8192xbf16, #tpu.memory_space<hbm>>
    %c0_i32_25 = arith.constant 0 : i32
    %c0_i32_26 = arith.constant 0 : i32
    %22 = tpu.memref_slice %arg3[%c1_i32_21, %c0_i32_25, %c0_i32_26] : memref<2x1024x8192xbf16, #tpu.memory_space<vmem>> -> memref<1x1024x8192xbf16, #tpu.memory_space<vmem>>
    %23 = tpu.memref_squeeze %22 : memref<1x1024x8192xbf16, #tpu.memory_space<vmem>> -> memref<1024x8192xbf16, #tpu.memory_space<vmem>>
    %24 = tpu.memref_slice %arg4[%c1_i32_22] : memref<2x!tpu.dma_semaphore, #tpu.memory_space<semaphore_mem>> -> memref<1x!tpu.dma_semaphore, #tpu.memory_space<semaphore_mem>>
    %25 = tpu.memref_squeeze %24 : memref<1x!tpu.dma_semaphore, #tpu.memory_space<semaphore_mem>> -> memref<!tpu.dma_semaphore, #tpu.memory_space<semaphore_mem>>
    tpu.wait_dma2 semaphore(%25 : memref<!tpu.dma_semaphore, #tpu.memory_space<semaphore_mem>>) src(%21 : memref<1024x8192xbf16, #tpu.memory_space<hbm>>) dst(%23 : memref<1024x8192xbf16, #tpu.memory_space<vmem>>)
    %c1_i32_27 = arith.constant 1 : i32
    %c1_i32_28 = arith.constant 1 : i32
    %c3072_i32 = arith.constant 3072 : i32
    %c0_i32_29 = arith.constant 0 : i32
    %26 = tpu.memref_slice %arg1[%c3072_i32, %c0_i32_29] : memref<8192x2048xbf16, #tpu.memory_space<hbm>> -> memref<1024x8192xbf16, #tpu.memory_space<hbm>>
    %c0_i32_30 = arith.constant 0 : i32
    %c0_i32_31 = arith.constant 0 : i32
    %27 = tpu.memref_slice %arg3[%c1_i32_27, %c0_i32_30, %c0_i32_31] : memref<2x1024x8192xbf16, #tpu.memory_space<vmem>> -> memref<1x1024x8192xbf16, #tpu.memory_space<vmem>>
    %28 = tpu.memref_squeeze %27 : memref<1x1024x8192xbf16, #tpu.memory_space<vmem>> -> memref<1024x8192xbf16, #tpu.memory_space<vmem>>
    %29 = tpu.memref_slice %arg4[%c1_i32_28] : memref<2x!tpu.dma_semaphore, #tpu.memory_space<semaphore_mem>> -> memref<1x!tpu.dma_semaphore, #tpu.memory_space<semaphore_mem>>
    %30 = tpu.memref_squeeze %29 : memref<1x!tpu.dma_semaphore, #tpu.memory_space<semaphore_mem>> -> memref<!tpu.dma_semaphore, #tpu.memory_space<semaphore_mem>>
    tpu.enqueue_dma source(%26 : memref<1024x8192xbf16, #tpu.memory_space<hbm>>) target(%28 : memref<1024x8192xbf16, #tpu.memory_space<vmem>>) target_semaphore(%30 : memref<!tpu.dma_semaphore, #tpu.memory_space<semaphore_mem>>)
    %cst_32 = arith.constant 1.000000e+00 : f32
    %31 = arith.addf %20, %cst_32 : f32
    %c0_i32_33 = arith.constant 0 : i32
    %c0_i32_34 = arith.constant 0 : i32
    %c2048_i32_35 = arith.constant 2048 : i32
    %c0_i32_36 = arith.constant 0 : i32
    %32 = tpu.memref_slice %arg1[%c2048_i32_35, %c0_i32_36] : memref<8192x2048xbf16, #tpu.memory_space<hbm>> -> memref<1024x8192xbf16, #tpu.memory_space<hbm>>
    %c0_i32_37 = arith.constant 0 : i32
    %c0_i32_38 = arith.constant 0 : i32
    %33 = tpu.memref_slice %arg3[%c0_i32_33, %c0_i32_37, %c0_i32_38] : memref<2x1024x8192xbf16, #tpu.memory_space<vmem>> -> memref<1x1024x8192xbf16, #tpu.memory_space<vmem>>
    %34 = tpu.memref_squeeze %33 : memref<1x1024x8192xbf16, #tpu.memory_space<vmem>> -> memref<1024x8192xbf16, #tpu.memory_space<vmem>>
    %35 = tpu.memref_slice %arg4[%c0_i32_34] : memref<2x!tpu.dma_semaphore, #tpu.memory_space<semaphore_mem>> -> memref<1x!tpu.dma_semaphore, #tpu.memory_space<semaphore_mem>>
    %36 = tpu.memref_squeeze %35 : memref<1x!tpu.dma_semaphore, #tpu.memory_space<semaphore_mem>> -> memref<!tpu.dma_semaphore, #tpu.memory_space<semaphore_mem>>
    tpu.wait_dma2 semaphore(%36 : memref<!tpu.dma_semaphore, #tpu.memory_space<semaphore_mem>>) src(%32 : memref<1024x8192xbf16, #tpu.memory_space<hbm>>) dst(%34 : memref<1024x8192xbf16, #tpu.memory_space<vmem>>)
    %c0_i32_39 = arith.constant 0 : i32
    %c0_i32_40 = arith.constant 0 : i32
    %c4096_i32 = arith.constant 4096 : i32
    %c0_i32_41 = arith.constant 0 : i32
    %37 = tpu.memref_slice %arg1[%c4096_i32, %c0_i32_41] : memref<8192x2048xbf16, #tpu.memory_space<hbm>> -> memref<1024x8192xbf16, #tpu.memory_space<hbm>>
    %c0_i32_42 = arith.constant 0 : i32
    %c0_i32_43 = arith.constant 0 : i32
    %38 = tpu.memref_slice %arg3[%c0_i32_39, %c0_i32_42, %c0_i32_43] : memref<2x1024x8192xbf16, #tpu.memory_space<vmem>> -> memref<1x1024x8192xbf16, #tpu.memory_space<vmem>>
    %39 = tpu.memref_squeeze %38 : memref<1x1024x8192xbf16, #tpu.memory_space<vmem>> -> memref<1024x8192xbf16, #tpu.memory_space<vmem>>
    %40 = tpu.memref_slice %arg4[%c0_i32_40] : memref<2x!tpu.dma_semaphore, #tpu.memory_space<semaphore_mem>> -> memref<1x!tpu.dma_semaphore, #tpu.memory_space<semaphore_mem>>
    %41 = tpu.memref_squeeze %40 : memref<1x!tpu.dma_semaphore, #tpu.memory_space<semaphore_mem>> -> memref<!tpu.dma_semaphore, #tpu.memory_space<semaphore_mem>>
    tpu.enqueue_dma source(%37 : memref<1024x8192xbf16, #tpu.memory_space<hbm>>) target(%39 : memref<1024x8192xbf16, #tpu.memory_space<vmem>>) target_semaphore(%41 : memref<!tpu.dma_semaphore, #tpu.memory_space<semaphore_mem>>)
    %cst_44 = arith.constant 1.000000e+00 : f32
    %42 = arith.addf %31, %cst_44 : f32
    %c1_i32_45 = arith.constant 1 : i32
    %c1_i32_46 = arith.constant 1 : i32
    %c3072_i32_47 = arith.constant 3072 : i32
    %c0_i32_48 = arith.constant 0 : i32
    %43 = tpu.memref_slice %arg1[%c3072_i32_47, %c0_i32_48] : memref<8192x2048xbf16, #tpu.memory_space<hbm>> -> memref<1024x8192xbf16, #tpu.memory_space<hbm>>
    %c0_i32_49 = arith.constant 0 : i32
    %c0_i32_50 = arith.constant 0 : i32
    %44 = tpu.memref_slice %arg3[%c1_i32_45, %c0_i32_49, %c0_i32_50] : memref<2x1024x8192xbf16, #tpu.memory_space<vmem>> -> memref<1x1024x8192xbf16, #tpu.memory_space<vmem>>
    %45 = tpu.memref_squeeze %44 : memref<1x1024x8192xbf16, #tpu.memory_space<vmem>> -> memref<1024x8192xbf16, #tpu.memory_space<vmem>>
    %46 = tpu.memref_slice %arg4[%c1_i32_46] : memref<2x!tpu.dma_semaphore, #tpu.memory_space<semaphore_mem>> -> memref<1x!tpu.dma_semaphore, #tpu.memory_space<semaphore_mem>>
    %47 = tpu.memref_squeeze %46 : memref<1x!tpu.dma_semaphore, #tpu.memory_space<semaphore_mem>> -> memref<!tpu.dma_semaphore, #tpu.memory_space<semaphore_mem>>
    tpu.wait_dma2 semaphore(%47 : memref<!tpu.dma_semaphore, #tpu.memory_space<semaphore_mem>>) src(%43 : memref<1024x8192xbf16, #tpu.memory_space<hbm>>) dst(%45 : memref<1024x8192xbf16, #tpu.memory_space<vmem>>)
    %c1_i32_51 = arith.constant 1 : i32
    %c1_i32_52 = arith.constant 1 : i32
    %c5120_i32 = arith.constant 5120 : i32
    %c0_i32_53 = arith.constant 0 : i32
    %48 = tpu.memref_slice %arg1[%c5120_i32, %c0_i32_53] : memref<8192x2048xbf16, #tpu.memory_space<hbm>> -> memref<1024x8192xbf16, #tpu.memory_space<hbm>>
    %c0_i32_54 = arith.constant 0 : i32
    %c0_i32_55 = arith.constant 0 : i32
    %49 = tpu.memref_slice %arg3[%c1_i32_51, %c0_i32_54, %c0_i32_55] : memref<2x1024x8192xbf16, #tpu.memory_space<vmem>> -> memref<1x1024x8192xbf16, #tpu.memory_space<vmem>>
    %50 = tpu.memref_squeeze %49 : memref<1x1024x8192xbf16, #tpu.memory_space<vmem>> -> memref<1024x8192xbf16, #tpu.memory_space<vmem>>
    %51 = tpu.memref_slice %arg4[%c1_i32_52] : memref<2x!tpu.dma_semaphore, #tpu.memory_space<semaphore_mem>> -> memref<1x!tpu.dma_semaphore, #tpu.memory_space<semaphore_mem>>
    %52 = tpu.memref_squeeze %51 : memref<1x!tpu.dma_semaphore, #tpu.memory_space<semaphore_mem>> -> memref<!tpu.dma_semaphore, #tpu.memory_space<semaphore_mem>>
    tpu.enqueue_dma source(%48 : memref<1024x8192xbf16, #tpu.memory_space<hbm>>) target(%50 : memref<1024x8192xbf16, #tpu.memory_space<vmem>>) target_semaphore(%52 : memref<!tpu.dma_semaphore, #tpu.memory_space<semaphore_mem>>)
    %cst_56 = arith.constant 1.000000e+00 : f32
    %53 = arith.addf %42, %cst_56 : f32
    %c0_i32_57 = arith.constant 0 : i32
    %c0_i32_58 = arith.constant 0 : i32
    %c4096_i32_59 = arith.constant 4096 : i32
    %c0_i32_60 = arith.constant 0 : i32
    %54 = tpu.memref_slice %arg1[%c4096_i32_59, %c0_i32_60] : memref<8192x2048xbf16, #tpu.memory_space<hbm>> -> memref<1024x8192xbf16, #tpu.memory_space<hbm>>
    %c0_i32_61 = arith.constant 0 : i32
    %c0_i32_62 = arith.constant 0 : i32
    %55 = tpu.memref_slice %arg3[%c0_i32_57, %c0_i32_61, %c0_i32_62] : memref<2x1024x8192xbf16, #tpu.memory_space<vmem>> -> memref<1x1024x8192xbf16, #tpu.memory_space<vmem>>
    %56 = tpu.memref_squeeze %55 : memref<1x1024x8192xbf16, #tpu.memory_space<vmem>> -> memref<1024x8192xbf16, #tpu.memory_space<vmem>>
    %57 = tpu.memref_slice %arg4[%c0_i32_58] : memref<2x!tpu.dma_semaphore, #tpu.memory_space<semaphore_mem>> -> memref<1x!tpu.dma_semaphore, #tpu.memory_space<semaphore_mem>>
    %58 = tpu.memref_squeeze %57 : memref<1x!tpu.dma_semaphore, #tpu.memory_space<semaphore_mem>> -> memref<!tpu.dma_semaphore, #tpu.memory_space<semaphore_mem>>
    tpu.wait_dma2 semaphore(%58 : memref<!tpu.dma_semaphore, #tpu.memory_space<semaphore_mem>>) src(%54 : memref<1024x8192xbf16, #tpu.memory_space<hbm>>) dst(%56 : memref<1024x8192xbf16, #tpu.memory_space<vmem>>)
    %c0_i32_63 = arith.constant 0 : i32
    %c0_i32_64 = arith.constant 0 : i32
    %c6144_i32 = arith.constant 6144 : i32
    %c0_i32_65 = arith.constant 0 : i32
    %59 = tpu.memref_slice %arg1[%c6144_i32, %c0_i32_65] : memref<8192x2048xbf16, #tpu.memory_space<hbm>> -> memref<1024x8192xbf16, #tpu.memory_space<hbm>>
    %c0_i32_66 = arith.constant 0 : i32
    %c0_i32_67 = arith.constant 0 : i32
    %60 = tpu.memref_slice %arg3[%c0_i32_63, %c0_i32_66, %c0_i32_67] : memref<2x1024x8192xbf16, #tpu.memory_space<vmem>> -> memref<1x1024x8192xbf16, #tpu.memory_space<vmem>>
    %61 = tpu.memref_squeeze %60 : memref<1x1024x8192xbf16, #tpu.memory_space<vmem>> -> memref<1024x8192xbf16, #tpu.memory_space<vmem>>
    %62 = tpu.memref_slice %arg4[%c0_i32_64] : memref<2x!tpu.dma_semaphore, #tpu.memory_space<semaphore_mem>> -> memref<1x!tpu.dma_semaphore, #tpu.memory_space<semaphore_mem>>
    %63 = tpu.memref_squeeze %62 : memref<1x!tpu.dma_semaphore, #tpu.memory_space<semaphore_mem>> -> memref<!tpu.dma_semaphore, #tpu.memory_space<semaphore_mem>>
    tpu.enqueue_dma source(%59 : memref<1024x8192xbf16, #tpu.memory_space<hbm>>) target(%61 : memref<1024x8192xbf16, #tpu.memory_space<vmem>>) target_semaphore(%63 : memref<!tpu.dma_semaphore, #tpu.memory_space<semaphore_mem>>)
    %cst_68 = arith.constant 1.000000e+00 : f32
    %64 = arith.addf %53, %cst_68 : f32
    %c1_i32_69 = arith.constant 1 : i32
    %c1_i32_70 = arith.constant 1 : i32
    %c5120_i32_71 = arith.constant 5120 : i32
    %c0_i32_72 = arith.constant 0 : i32
    %65 = tpu.memref_slice %arg1[%c5120_i32_71, %c0_i32_72] : memref<8192x2048xbf16, #tpu.memory_space<hbm>> -> memref<1024x8192xbf16, #tpu.memory_space<hbm>>
    %c0_i32_73 = arith.constant 0 : i32
    %c0_i32_74 = arith.constant 0 : i32
    %66 = tpu.memref_slice %arg3[%c1_i32_69, %c0_i32_73, %c0_i32_74] : memref<2x1024x8192xbf16, #tpu.memory_space<vmem>> -> memref<1x1024x8192xbf16, #tpu.memory_space<vmem>>
    %67 = tpu.memref_squeeze %66 : memref<1x1024x8192xbf16, #tpu.memory_space<vmem>> -> memref<1024x8192xbf16, #tpu.memory_space<vmem>>
    %68 = tpu.memref_slice %arg4[%c1_i32_70] : memref<2x!tpu.dma_semaphore, #tpu.memory_space<semaphore_mem>> -> memref<1x!tpu.dma_semaphore, #tpu.memory_space<semaphore_mem>>
    %69 = tpu.memref_squeeze %68 : memref<1x!tpu.dma_semaphore, #tpu.memory_space<semaphore_mem>> -> memref<!tpu.dma_semaphore, #tpu.memory_space<semaphore_mem>>
    tpu.wait_dma2 semaphore(%69 : memref<!tpu.dma_semaphore, #tpu.memory_space<semaphore_mem>>) src(%65 : memref<1024x8192xbf16, #tpu.memory_space<hbm>>) dst(%67 : memref<1024x8192xbf16, #tpu.memory_space<vmem>>)
    %c1_i32_75 = arith.constant 1 : i32
    %c1_i32_76 = arith.constant 1 : i32
    %c7168_i32 = arith.constant 7168 : i32
    %c0_i32_77 = arith.constant 0 : i32
    %70 = tpu.memref_slice %arg1[%c7168_i32, %c0_i32_77] : memref<8192x2048xbf16, #tpu.memory_space<hbm>> -> memref<1024x8192xbf16, #tpu.memory_space<hbm>>
    %c0_i32_78 = arith.constant 0 : i32
    %c0_i32_79 = arith.constant 0 : i32
    %71 = tpu.memref_slice %arg3[%c1_i32_75, %c0_i32_78, %c0_i32_79] : memref<2x1024x8192xbf16, #tpu.memory_space<vmem>> -> memref<1x1024x8192xbf16, #tpu.memory_space<vmem>>
    %72 = tpu.memref_squeeze %71 : memref<1x1024x8192xbf16, #tpu.memory_space<vmem>> -> memref<1024x8192xbf16, #tpu.memory_space<vmem>>
    %73 = tpu.memref_slice %arg4[%c1_i32_76] : memref<2x!tpu.dma_semaphore, #tpu.memory_space<semaphore_mem>> -> memref<1x!tpu.dma_semaphore, #tpu.memory_space<semaphore_mem>>
    %74 = tpu.memref_squeeze %73 : memref<1x!tpu.dma_semaphore, #tpu.memory_space<semaphore_mem>> -> memref<!tpu.dma_semaphore, #tpu.memory_space<semaphore_mem>>
    tpu.enqueue_dma source(%70 : memref<1024x8192xbf16, #tpu.memory_space<hbm>>) target(%72 : memref<1024x8192xbf16, #tpu.memory_space<vmem>>) target_semaphore(%74 : memref<!tpu.dma_semaphore, #tpu.memory_space<semaphore_mem>>)
    %cst_80 = arith.constant 1.000000e+00 : f32
    %75 = arith.addf %64, %cst_80 : f32
    %c0_i32_81 = arith.constant 0 : i32
    %c0_i32_82 = arith.constant 0 : i32
    %c6144_i32_83 = arith.constant 6144 : i32
    %c0_i32_84 = arith.constant 0 : i32
    %76 = tpu.memref_slice %arg1[%c6144_i32_83, %c0_i32_84] : memref<8192x2048xbf16, #tpu.memory_space<hbm>> -> memref<1024x8192xbf16, #tpu.memory_space<hbm>>
    %c0_i32_85 = arith.constant 0 : i32
    %c0_i32_86 = arith.constant 0 : i32
    %77 = tpu.memref_slice %arg3[%c0_i32_81, %c0_i32_85, %c0_i32_86] : memref<2x1024x8192xbf16, #tpu.memory_space<vmem>> -> memref<1x1024x8192xbf16, #tpu.memory_space<vmem>>
    %78 = tpu.memref_squeeze %77 : memref<1x1024x8192xbf16, #tpu.memory_space<vmem>> -> memref<1024x8192xbf16, #tpu.memory_space<vmem>>
    %79 = tpu.memref_slice %arg4[%c0_i32_82] : memref<2x!tpu.dma_semaphore, #tpu.memory_space<semaphore_mem>> -> memref<1x!tpu.dma_semaphore, #tpu.memory_space<semaphore_mem>>
    %80 = tpu.memref_squeeze %79 : memref<1x!tpu.dma_semaphore, #tpu.memory_space<semaphore_mem>> -> memref<!tpu.dma_semaphore, #tpu.memory_space<semaphore_mem>>
    tpu.wait_dma2 semaphore(%80 : memref<!tpu.dma_semaphore, #tpu.memory_space<semaphore_mem>>) src(%76 : memref<1024x8192xbf16, #tpu.memory_space<hbm>>) dst(%78 : memref<1024x8192xbf16, #tpu.memory_space<vmem>>)
    %c0_i32_87 = arith.constant 0 : i32
    %c0_i32_88 = arith.constant 0 : i32
    %c0_i32_89 = arith.constant 0 : i32
    %c0_i32_90 = arith.constant 0 : i32
    %81 = tpu.memref_slice %arg1[%c0_i32_89, %c0_i32_90] : memref<8192x2048xbf16, #tpu.memory_space<hbm>> -> memref<1024x8192xbf16, #tpu.memory_space<hbm>>
    %c0_i32_91 = arith.constant 0 : i32
    %c0_i32_92 = arith.constant 0 : i32
    %82 = tpu.memref_slice %arg3[%c0_i32_87, %c0_i32_91, %c0_i32_92] : memref<2x1024x8192xbf16, #tpu.memory_space<vmem>> -> memref<1x1024x8192xbf16, #tpu.memory_space<vmem>>
    %83 = tpu.memref_squeeze %82 : memref<1x1024x8192xbf16, #tpu.memory_space<vmem>> -> memref<1024x8192xbf16, #tpu.memory_space<vmem>>
    %84 = tpu.memref_slice %arg4[%c0_i32_88] : memref<2x!tpu.dma_semaphore, #tpu.memory_space<semaphore_mem>> -> memref<1x!tpu.dma_semaphore, #tpu.memory_space<semaphore_mem>>
    %85 = tpu.memref_squeeze %84 : memref<1x!tpu.dma_semaphore, #tpu.memory_space<semaphore_mem>> -> memref<!tpu.dma_semaphore, #tpu.memory_space<semaphore_mem>>
    tpu.enqueue_dma source(%81 : memref<1024x8192xbf16, #tpu.memory_space<hbm>>) target(%83 : memref<1024x8192xbf16, #tpu.memory_space<vmem>>) target_semaphore(%85 : memref<!tpu.dma_semaphore, #tpu.memory_space<semaphore_mem>>)
    %cst_93 = arith.constant 1.000000e+00 : f32
    %86 = arith.addf %75, %cst_93 : f32
    %c1_i32_94 = arith.constant 1 : i32
    %c1_i32_95 = arith.constant 1 : i32
    %c7168_i32_96 = arith.constant 7168 : i32
    %c0_i32_97 = arith.constant 0 : i32
    %87 = tpu.memref_slice %arg1[%c7168_i32_96, %c0_i32_97] : memref<8192x2048xbf16, #tpu.memory_space<hbm>> -> memref<1024x8192xbf16, #tpu.memory_space<hbm>>
    %c0_i32_98 = arith.constant 0 : i32
    %c0_i32_99 = arith.constant 0 : i32
    %88 = tpu.memref_slice %arg3[%c1_i32_94, %c0_i32_98, %c0_i32_99] : memref<2x1024x8192xbf16, #tpu.memory_space<vmem>> -> memref<1x1024x8192xbf16, #tpu.memory_space<vmem>>
    %89 = tpu.memref_squeeze %88 : memref<1x1024x8192xbf16, #tpu.memory_space<vmem>> -> memref<1024x8192xbf16, #tpu.memory_space<vmem>>
    %90 = tpu.memref_slice %arg4[%c1_i32_95] : memref<2x!tpu.dma_semaphore, #tpu.memory_space<semaphore_mem>> -> memref<1x!tpu.dma_semaphore, #tpu.memory_space<semaphore_mem>>
    %91 = tpu.memref_squeeze %90 : memref<1x!tpu.dma_semaphore, #tpu.memory_space<semaphore_mem>> -> memref<!tpu.dma_semaphore, #tpu.memory_space<semaphore_mem>>
    tpu.wait_dma2 semaphore(%91 : memref<!tpu.dma_semaphore, #tpu.memory_space<semaphore_mem>>) src(%87 : memref<1024x8192xbf16, #tpu.memory_space<hbm>>) dst(%89 : memref<1024x8192xbf16, #tpu.memory_space<vmem>>)
    %c1_i32_100 = arith.constant 1 : i32
    %c1_i32_101 = arith.constant 1 : i32
    %c1024_i32_102 = arith.constant 1024 : i32
    %c0_i32_103 = arith.constant 0 : i32
    %92 = tpu.memref_slice %arg1[%c1024_i32_102, %c0_i32_103] : memref<8192x2048xbf16, #tpu.memory_space<hbm>> -> memref<1024x8192xbf16, #tpu.memory_space<hbm>>
    %c0_i32_104 = arith.constant 0 : i32
    %c0_i32_105 = arith.constant 0 : i32
    %93 = tpu.memref_slice %arg3[%c1_i32_100, %c0_i32_104, %c0_i32_105] : memref<2x1024x8192xbf16, #tpu.memory_space<vmem>> -> memref<1x1024x8192xbf16, #tpu.memory_space<vmem>>
    %94 = tpu.memref_squeeze %93 : memref<1x1024x8192xbf16, #tpu.memory_space<vmem>> -> memref<1024x8192xbf16, #tpu.memory_space<vmem>>
    %95 = tpu.memref_slice %arg4[%c1_i32_101] : memref<2x!tpu.dma_semaphore, #tpu.memory_space<semaphore_mem>> -> memref<1x!tpu.dma_semaphore, #tpu.memory_space<semaphore_mem>>
    %96 = tpu.memref_squeeze %95 : memref<1x!tpu.dma_semaphore, #tpu.memory_space<semaphore_mem>> -> memref<!tpu.dma_semaphore, #tpu.memory_space<semaphore_mem>>
    tpu.enqueue_dma source(%92 : memref<1024x8192xbf16, #tpu.memory_space<hbm>>) target(%94 : memref<1024x8192xbf16, #tpu.memory_space<vmem>>) target_semaphore(%96 : memref<!tpu.dma_semaphore, #tpu.memory_space<semaphore_mem>>)
    %cst_106 = arith.constant 1.000000e+00 : f32
    %97 = arith.addf %86, %cst_106 : f32
    %c0_i32_107 = arith.constant 0 : i32
    %c0_i32_108 = arith.constant 0 : i32
    %c0_i32_109 = arith.constant 0 : i32
    %c0_i32_110 = arith.constant 0 : i32
    %98 = tpu.memref_slice %arg1[%c0_i32_109, %c0_i32_110] : memref<8192x2048xbf16, #tpu.memory_space<hbm>> -> memref<1024x8192xbf16, #tpu.memory_space<hbm>>
    %c0_i32_111 = arith.constant 0 : i32
    %c0_i32_112 = arith.constant 0 : i32
    %99 = tpu.memref_slice %arg3[%c0_i32_107, %c0_i32_111, %c0_i32_112] : memref<2x1024x8192xbf16, #tpu.memory_space<vmem>> -> memref<1x1024x8192xbf16, #tpu.memory_space<vmem>>
    %100 = tpu.memref_squeeze %99 : memref<1x1024x8192xbf16, #tpu.memory_space<vmem>> -> memref<1024x8192xbf16, #tpu.memory_space<vmem>>
    %101 = tpu.memref_slice %arg4[%c0_i32_108] : memref<2x!tpu.dma_semaphore, #tpu.memory_space<semaphore_mem>> -> memref<1x!tpu.dma_semaphore, #tpu.memory_space<semaphore_mem>>
    %102 = tpu.memref_squeeze %101 : memref<1x!tpu.dma_semaphore, #tpu.memory_space<semaphore_mem>> -> memref<!tpu.dma_semaphore, #tpu.memory_space<semaphore_mem>>
    tpu.wait_dma2 semaphore(%102 : memref<!tpu.dma_semaphore, #tpu.memory_space<semaphore_mem>>) src(%98 : memref<1024x8192xbf16, #tpu.memory_space<hbm>>) dst(%100 : memref<1024x8192xbf16, #tpu.memory_space<vmem>>)
    %c0_i32_113 = arith.constant 0 : i32
    %c0_i32_114 = arith.constant 0 : i32
    %c2048_i32_115 = arith.constant 2048 : i32
    %c0_i32_116 = arith.constant 0 : i32
    %103 = tpu.memref_slice %arg1[%c2048_i32_115, %c0_i32_116] : memref<8192x2048xbf16, #tpu.memory_space<hbm>> -> memref<1024x8192xbf16, #tpu.memory_space<hbm>>
    %c0_i32_117 = arith.constant 0 : i32
    %c0_i32_118 = arith.constant 0 : i32
    %104 = tpu.memref_slice %arg3[%c0_i32_113, %c0_i32_117, %c0_i32_118] : memref<2x1024x8192xbf16, #tpu.memory_space<vmem>> -> memref<1x1024x8192xbf16, #tpu.memory_space<vmem>>
    %105 = tpu.memref_squeeze %104 : memref<1x1024x8192xbf16, #tpu.memory_space<vmem>> -> memref<1024x8192xbf16, #tpu.memory_space<vmem>>
    %106 = tpu.memref_slice %arg4[%c0_i32_114] : memref<2x!tpu.dma_semaphore, #tpu.memory_space<semaphore_mem>> -> memref<1x!tpu.dma_semaphore, #tpu.memory_space<semaphore_mem>>
    %107 = tpu.memref_squeeze %106 : memref<1x!tpu.dma_semaphore, #tpu.memory_space<semaphore_mem>> -> memref<!tpu.dma_semaphore, #tpu.memory_space<semaphore_mem>>
    tpu.enqueue_dma source(%103 : memref<1024x8192xbf16, #tpu.memory_space<hbm>>) target(%105 : memref<1024x8192xbf16, #tpu.memory_space<vmem>>) target_semaphore(%107 : memref<!tpu.dma_semaphore, #tpu.memory_space<semaphore_mem>>)
    %cst_119 = arith.constant 1.000000e+00 : f32
    %108 = arith.addf %97, %cst_119 : f32
    %c1_i32_120 = arith.constant 1 : i32
    %c1_i32_121 = arith.constant 1 : i32
    %c1024_i32_122 = arith.constant 1024 : i32
    %c0_i32_123 = arith.constant 0 : i32
    %109 = tpu.memref_slice %arg1[%c1024_i32_122, %c0_i32_123] : memref<8192x2048xbf16, #tpu.memory_space<hbm>> -> memref<1024x8192xbf16, #tpu.memory_space<hbm>>
    %c0_i32_124 = arith.constant 0 : i32
    %c0_i32_125 = arith.constant 0 : i32
    %110 = tpu.memref_slice %arg3[%c1_i32_120, %c0_i32_124, %c0_i32_125] : memref<2x1024x8192xbf16, #tpu.memory_space<vmem>> -> memref<1x1024x8192xbf16, #tpu.memory_space<vmem>>
    %111 = tpu.memref_squeeze %110 : memref<1x1024x8192xbf16, #tpu.memory_space<vmem>> -> memref<1024x8192xbf16, #tpu.memory_space<vmem>>
    %112 = tpu.memref_slice %arg4[%c1_i32_121] : memref<2x!tpu.dma_semaphore, #tpu.memory_space<semaphore_mem>> -> memref<1x!tpu.dma_semaphore, #tpu.memory_space<semaphore_mem>>
    %113 = tpu.memref_squeeze %112 : memref<1x!tpu.dma_semaphore, #tpu.memory_space<semaphore_mem>> -> memref<!tpu.dma_semaphore, #tpu.memory_space<semaphore_mem>>
    tpu.wait_dma2 semaphore(%113 : memref<!tpu.dma_semaphore, #tpu.memory_space<semaphore_mem>>) src(%109 : memref<1024x8192xbf16, #tpu.memory_space<hbm>>) dst(%111 : memref<1024x8192xbf16, #tpu.memory_space<vmem>>)
    %c1_i32_126 = arith.constant 1 : i32
    %c1_i32_127 = arith.constant 1 : i32
    %c3072_i32_128 = arith.constant 3072 : i32
    %c0_i32_129 = arith.constant 0 : i32
    %114 = tpu.memref_slice %arg1[%c3072_i32_128, %c0_i32_129] : memref<8192x2048xbf16, #tpu.memory_space<hbm>> -> memref<1024x8192xbf16, #tpu.memory_space<hbm>>
    %c0_i32_130 = arith.constant 0 : i32
    %c0_i32_131 = arith.constant 0 : i32
    %115 = tpu.memref_slice %arg3[%c1_i32_126, %c0_i32_130, %c0_i32_131] : memref<2x1024x8192xbf16, #tpu.memory_space<vmem>> -> memref<1x1024x8192xbf16, #tpu.memory_space<vmem>>
    %116 = tpu.memref_squeeze %115 : memref<1x1024x8192xbf16, #tpu.memory_space<vmem>> -> memref<1024x8192xbf16, #tpu.memory_space<vmem>>
    %117 = tpu.memref_slice %arg4[%c1_i32_127] : memref<2x!tpu.dma_semaphore, #tpu.memory_space<semaphore_mem>> -> memref<1x!tpu.dma_semaphore, #tpu.memory_space<semaphore_mem>>
    %118 = tpu.memref_squeeze %117 : memref<1x!tpu.dma_semaphore, #tpu.memory_space<semaphore_mem>> -> memref<!tpu.dma_semaphore, #tpu.memory_space<semaphore_mem>>
    tpu.enqueue_dma source(%114 : memref<1024x8192xbf16, #tpu.memory_space<hbm>>) target(%116 : memref<1024x8192xbf16, #tpu.memory_space<vmem>>) target_semaphore(%118 : memref<!tpu.dma_semaphore, #tpu.memory_space<semaphore_mem>>)
    %cst_132 = arith.constant 1.000000e+00 : f32
    %119 = arith.addf %108, %cst_132 : f32
    %c0_i32_133 = arith.constant 0 : i32
    %c0_i32_134 = arith.constant 0 : i32
    %c2048_i32_135 = arith.constant 2048 : i32
    %c0_i32_136 = arith.constant 0 : i32
    %120 = tpu.memref_slice %arg1[%c2048_i32_135, %c0_i32_136] : memref<8192x2048xbf16, #tpu.memory_space<hbm>> -> memref<1024x8192xbf16, #tpu.memory_space<hbm>>
    %c0_i32_137 = arith.constant 0 : i32
    %c0_i32_138 = arith.constant 0 : i32
    %121 = tpu.memref_slice %arg3[%c0_i32_133, %c0_i32_137, %c0_i32_138] : memref<2x1024x8192xbf16, #tpu.memory_space<vmem>> -> memref<1x1024x8192xbf16, #tpu.memory_space<vmem>>
    %122 = tpu.memref_squeeze %121 : memref<1x1024x8192xbf16, #tpu.memory_space<vmem>> -> memref<1024x8192xbf16, #tpu.memory_space<vmem>>
    %123 = tpu.memref_slice %arg4[%c0_i32_134] : memref<2x!tpu.dma_semaphore, #tpu.memory_space<semaphore_mem>> -> memref<1x!tpu.dma_semaphore, #tpu.memory_space<semaphore_mem>>
    %124 = tpu.memref_squeeze %123 : memref<1x!tpu.dma_semaphore, #tpu.memory_space<semaphore_mem>> -> memref<!tpu.dma_semaphore, #tpu.memory_space<semaphore_mem>>
    tpu.wait_dma2 semaphore(%124 : memref<!tpu.dma_semaphore, #tpu.memory_space<semaphore_mem>>) src(%120 : memref<1024x8192xbf16, #tpu.memory_space<hbm>>) dst(%122 : memref<1024x8192xbf16, #tpu.memory_space<vmem>>)
    %c0_i32_139 = arith.constant 0 : i32
    %c0_i32_140 = arith.constant 0 : i32
    %c4096_i32_141 = arith.constant 4096 : i32
    %c0_i32_142 = arith.constant 0 : i32
    %125 = tpu.memref_slice %arg1[%c4096_i32_141, %c0_i32_142] : memref<8192x2048xbf16, #tpu.memory_space<hbm>> -> memref<1024x8192xbf16, #tpu.memory_space<hbm>>
    %c0_i32_143 = arith.constant 0 : i32
    %c0_i32_144 = arith.constant 0 : i32
    %126 = tpu.memref_slice %arg3[%c0_i32_139, %c0_i32_143, %c0_i32_144] : memref<2x1024x8192xbf16, #tpu.memory_space<vmem>> -> memref<1x1024x8192xbf16, #tpu.memory_space<vmem>>
    %127 = tpu.memref_squeeze %126 : memref<1x1024x8192xbf16, #tpu.memory_space<vmem>> -> memref<1024x8192xbf16, #tpu.memory_space<vmem>>
    %128 = tpu.memref_slice %arg4[%c0_i32_140] : memref<2x!tpu.dma_semaphore, #tpu.memory_space<semaphore_mem>> -> memref<1x!tpu.dma_semaphore, #tpu.memory_space<semaphore_mem>>
    %129 = tpu.memref_squeeze %128 : memref<1x!tpu.dma_semaphore, #tpu.memory_space<semaphore_mem>> -> memref<!tpu.dma_semaphore, #tpu.memory_space<semaphore_mem>>
    tpu.enqueue_dma source(%125 : memref<1024x8192xbf16, #tpu.memory_space<hbm>>) target(%127 : memref<1024x8192xbf16, #tpu.memory_space<vmem>>) target_semaphore(%129 : memref<!tpu.dma_semaphore, #tpu.memory_space<semaphore_mem>>)
    %cst_145 = arith.constant 1.000000e+00 : f32
    %130 = arith.addf %119, %cst_145 : f32
    %c1_i32_146 = arith.constant 1 : i32
    %c1_i32_147 = arith.constant 1 : i32
    %c3072_i32_148 = arith.constant 3072 : i32
    %c0_i32_149 = arith.constant 0 : i32
    %131 = tpu.memref_slice %arg1[%c3072_i32_148, %c0_i32_149] : memref<8192x2048xbf16, #tpu.memory_space<hbm>> -> memref<1024x8192xbf16, #tpu.memory_space<hbm>>
    %c0_i32_150 = arith.constant 0 : i32
    %c0_i32_151 = arith.constant 0 : i32
    %132 = tpu.memref_slice %arg3[%c1_i32_146, %c0_i32_150, %c0_i32_151] : memref<2x1024x8192xbf16, #tpu.memory_space<vmem>> -> memref<1x1024x8192xbf16, #tpu.memory_space<vmem>>
    %133 = tpu.memref_squeeze %132 : memref<1x1024x8192xbf16, #tpu.memory_space<vmem>> -> memref<1024x8192xbf16, #tpu.memory_space<vmem>>
    %134 = tpu.memref_slice %arg4[%c1_i32_147] : memref<2x!tpu.dma_semaphore, #tpu.memory_space<semaphore_mem>> -> memref<1x!tpu.dma_semaphore, #tpu.memory_space<semaphore_mem>>
    %135 = tpu.memref_squeeze %134 : memref<1x!tpu.dma_semaphore, #tpu.memory_space<semaphore_mem>> -> memref<!tpu.dma_semaphore, #tpu.memory_space<semaphore_mem>>
    tpu.wait_dma2 semaphore(%135 : memref<!tpu.dma_semaphore, #tpu.memory_space<semaphore_mem>>) src(%131 : memref<1024x8192xbf16, #tpu.memory_space<hbm>>) dst(%133 : memref<1024x8192xbf16, #tpu.memory_space<vmem>>)
    %c1_i32_152 = arith.constant 1 : i32
    %c1_i32_153 = arith.constant 1 : i32
    %c5120_i32_154 = arith.constant 5120 : i32
    %c0_i32_155 = arith.constant 0 : i32
    %136 = tpu.memref_slice %arg1[%c5120_i32_154, %c0_i32_155] : memref<8192x2048xbf16, #tpu.memory_space<hbm>> -> memref<1024x8192xbf16, #tpu.memory_space<hbm>>
    %c0_i32_156 = arith.constant 0 : i32
    %c0_i32_157 = arith.constant 0 : i32
    %137 = tpu.memref_slice %arg3[%c1_i32_152, %c0_i32_156, %c0_i32_157] : memref<2x1024x8192xbf16, #tpu.memory_space<vmem>> -> memref<1x1024x8192xbf16, #tpu.memory_space<vmem>>
    %138 = tpu.memref_squeeze %137 : memref<1x1024x8192xbf16, #tpu.memory_space<vmem>> -> memref<1024x8192xbf16, #tpu.memory_space<vmem>>
    %139 = tpu.memref_slice %arg4[%c1_i32_153] : memref<2x!tpu.dma_semaphore, #tpu.memory_space<semaphore_mem>> -> memref<1x!tpu.dma_semaphore, #tpu.memory_space<semaphore_mem>>
    %140 = tpu.memref_squeeze %139 : memref<1x!tpu.dma_semaphore, #tpu.memory_space<semaphore_mem>> -> memref<!tpu.dma_semaphore, #tpu.memory_space<semaphore_mem>>
    tpu.enqueue_dma source(%136 : memref<1024x8192xbf16, #tpu.memory_space<hbm>>) target(%138 : memref<1024x8192xbf16, #tpu.memory_space<vmem>>) target_semaphore(%140 : memref<!tpu.dma_semaphore, #tpu.memory_space<semaphore_mem>>)
    %cst_158 = arith.constant 1.000000e+00 : f32
    %141 = arith.addf %130, %cst_158 : f32
    %c0_i32_159 = arith.constant 0 : i32
    %c0_i32_160 = arith.constant 0 : i32
    %c4096_i32_161 = arith.constant 4096 : i32
    %c0_i32_162 = arith.constant 0 : i32
    %142 = tpu.memref_slice %arg1[%c4096_i32_161, %c0_i32_162] : memref<8192x2048xbf16, #tpu.memory_space<hbm>> -> memref<1024x8192xbf16, #tpu.memory_space<hbm>>
    %c0_i32_163 = arith.constant 0 : i32
    %c0_i32_164 = arith.constant 0 : i32
    %143 = tpu.memref_slice %arg3[%c0_i32_159, %c0_i32_163, %c0_i32_164] : memref<2x1024x8192xbf16, #tpu.memory_space<vmem>> -> memref<1x1024x8192xbf16, #tpu.memory_space<vmem>>
    %144 = tpu.memref_squeeze %143 : memref<1x1024x8192xbf16, #tpu.memory_space<vmem>> -> memref<1024x8192xbf16, #tpu.memory_space<vmem>>
    %145 = tpu.memref_slice %arg4[%c0_i32_160] : memref<2x!tpu.dma_semaphore, #tpu.memory_space<semaphore_mem>> -> memref<1x!tpu.dma_semaphore, #tpu.memory_space<semaphore_mem>>
    %146 = tpu.memref_squeeze %145 : memref<1x!tpu.dma_semaphore, #tpu.memory_space<semaphore_mem>> -> memref<!tpu.dma_semaphore, #tpu.memory_space<semaphore_mem>>
    tpu.wait_dma2 semaphore(%146 : memref<!tpu.dma_semaphore, #tpu.memory_space<semaphore_mem>>) src(%142 : memref<1024x8192xbf16, #tpu.memory_space<hbm>>) dst(%144 : memref<1024x8192xbf16, #tpu.memory_space<vmem>>)
    %c0_i32_165 = arith.constant 0 : i32
    %c0_i32_166 = arith.constant 0 : i32
    %c6144_i32_167 = arith.constant 6144 : i32
    %c0_i32_168 = arith.constant 0 : i32
    %147 = tpu.memref_slice %arg1[%c6144_i32_167, %c0_i32_168] : memref<8192x2048xbf16, #tpu.memory_space<hbm>> -> memref<1024x8192xbf16, #tpu.memory_space<hbm>>
    %c0_i32_169 = arith.constant 0 : i32
    %c0_i32_170 = arith.constant 0 : i32
    %148 = tpu.memref_slice %arg3[%c0_i32_165, %c0_i32_169, %c0_i32_170] : memref<2x1024x8192xbf16, #tpu.memory_space<vmem>> -> memref<1x1024x8192xbf16, #tpu.memory_space<vmem>>
    %149 = tpu.memref_squeeze %148 : memref<1x1024x8192xbf16, #tpu.memory_space<vmem>> -> memref<1024x8192xbf16, #tpu.memory_space<vmem>>
    %150 = tpu.memref_slice %arg4[%c0_i32_166] : memref<2x!tpu.dma_semaphore, #tpu.memory_space<semaphore_mem>> -> memref<1x!tpu.dma_semaphore, #tpu.memory_space<semaphore_mem>>
    %151 = tpu.memref_squeeze %150 : memref<1x!tpu.dma_semaphore, #tpu.memory_space<semaphore_mem>> -> memref<!tpu.dma_semaphore, #tpu.memory_space<semaphore_mem>>
    tpu.enqueue_dma source(%147 : memref<1024x8192xbf16, #tpu.memory_space<hbm>>) target(%149 : memref<1024x8192xbf16, #tpu.memory_space<vmem>>) target_semaphore(%151 : memref<!tpu.dma_semaphore, #tpu.memory_space<semaphore_mem>>)
    %cst_171 = arith.constant 1.000000e+00 : f32
    %152 = arith.addf %141, %cst_171 : f32
    %c1_i32_172 = arith.constant 1 : i32
    %c1_i32_173 = arith.constant 1 : i32
    %c5120_i32_174 = arith.constant 5120 : i32
    %c0_i32_175 = arith.constant 0 : i32
    %153 = tpu.memref_slice %arg1[%c5120_i32_174, %c0_i32_175] : memref<8192x2048xbf16, #tpu.memory_space<hbm>> -> memref<1024x8192xbf16, #tpu.memory_space<hbm>>
    %c0_i32_176 = arith.constant 0 : i32
    %c0_i32_177 = arith.constant 0 : i32
    %154 = tpu.memref_slice %arg3[%c1_i32_172, %c0_i32_176, %c0_i32_177] : memref<2x1024x8192xbf16, #tpu.memory_space<vmem>> -> memref<1x1024x8192xbf16, #tpu.memory_space<vmem>>
    %155 = tpu.memref_squeeze %154 : memref<1x1024x8192xbf16, #tpu.memory_space<vmem>> -> memref<1024x8192xbf16, #tpu.memory_space<vmem>>
    %156 = tpu.memref_slice %arg4[%c1_i32_173] : memref<2x!tpu.dma_semaphore, #tpu.memory_space<semaphore_mem>> -> memref<1x!tpu.dma_semaphore, #tpu.memory_space<semaphore_mem>>
    %157 = tpu.memref_squeeze %156 : memref<1x!tpu.dma_semaphore, #tpu.memory_space<semaphore_mem>> -> memref<!tpu.dma_semaphore, #tpu.memory_space<semaphore_mem>>
    tpu.wait_dma2 semaphore(%157 : memref<!tpu.dma_semaphore, #tpu.memory_space<semaphore_mem>>) src(%153 : memref<1024x8192xbf16, #tpu.memory_space<hbm>>) dst(%155 : memref<1024x8192xbf16, #tpu.memory_space<vmem>>)
    %c1_i32_178 = arith.constant 1 : i32
    %c1_i32_179 = arith.constant 1 : i32
    %c7168_i32_180 = arith.constant 7168 : i32
    %c0_i32_181 = arith.constant 0 : i32
    %158 = tpu.memref_slice %arg1[%c7168_i32_180, %c0_i32_181] : memref<8192x2048xbf16, #tpu.memory_space<hbm>> -> memref<1024x8192xbf16, #tpu.memory_space<hbm>>
    %c0_i32_182 = arith.constant 0 : i32
    %c0_i32_183 = arith.constant 0 : i32
    %159 = tpu.memref_slice %arg3[%c1_i32_178, %c0_i32_182, %c0_i32_183] : memref<2x1024x8192xbf16, #tpu.memory_space<vmem>> -> memref<1x1024x8192xbf16, #tpu.memory_space<vmem>>
    %160 = tpu.memref_squeeze %159 : memref<1x1024x8192xbf16, #tpu.memory_space<vmem>> -> memref<1024x8192xbf16, #tpu.memory_space<vmem>>
    %161 = tpu.memref_slice %arg4[%c1_i32_179] : memref<2x!tpu.dma_semaphore, #tpu.memory_space<semaphore_mem>> -> memref<1x!tpu.dma_semaphore, #tpu.memory_space<semaphore_mem>>
    %162 = tpu.memref_squeeze %161 : memref<1x!tpu.dma_semaphore, #tpu.memory_space<semaphore_mem>> -> memref<!tpu.dma_semaphore, #tpu.memory_space<semaphore_mem>>
    tpu.enqueue_dma source(%158 : memref<1024x8192xbf16, #tpu.memory_space<hbm>>) target(%160 : memref<1024x8192xbf16, #tpu.memory_space<vmem>>) target_semaphore(%162 : memref<!tpu.dma_semaphore, #tpu.memory_space<semaphore_mem>>)
    %cst_184 = arith.constant 1.000000e+00 : f32
    %163 = arith.addf %152, %cst_184 : f32
    %c0_i32_185 = arith.constant 0 : i32
    %c0_i32_186 = arith.constant 0 : i32
    %c6144_i32_187 = arith.constant 6144 : i32
    %c0_i32_188 = arith.constant 0 : i32
    %164 = tpu.memref_slice %arg1[%c6144_i32_187, %c0_i32_188] : memref<8192x2048xbf16, #tpu.memory_space<hbm>> -> memref<1024x8192xbf16, #tpu.memory_space<hbm>>
    %c0_i32_189 = arith.constant 0 : i32
    %c0_i32_190 = arith.constant 0 : i32
    %165 = tpu.memref_slice %arg3[%c0_i32_185, %c0_i32_189, %c0_i32_190] : memref<2x1024x8192xbf16, #tpu.memory_space<vmem>> -> memref<1x1024x8192xbf16, #tpu.memory_space<vmem>>
    %166 = tpu.memref_squeeze %165 : memref<1x1024x8192xbf16, #tpu.memory_space<vmem>> -> memref<1024x8192xbf16, #tpu.memory_space<vmem>>
    %167 = tpu.memref_slice %arg4[%c0_i32_186] : memref<2x!tpu.dma_semaphore, #tpu.memory_space<semaphore_mem>> -> memref<1x!tpu.dma_semaphore, #tpu.memory_space<semaphore_mem>>
    %168 = tpu.memref_squeeze %167 : memref<1x!tpu.dma_semaphore, #tpu.memory_space<semaphore_mem>> -> memref<!tpu.dma_semaphore, #tpu.memory_space<semaphore_mem>>
    tpu.wait_dma2 semaphore(%168 : memref<!tpu.dma_semaphore, #tpu.memory_space<semaphore_mem>>) src(%164 : memref<1024x8192xbf16, #tpu.memory_space<hbm>>) dst(%166 : memref<1024x8192xbf16, #tpu.memory_space<vmem>>)
    %c0_i32_191 = arith.constant 0 : i32
    %c0_i32_192 = arith.constant 0 : i32
    %c0_i32_193 = arith.constant 0 : i32
    %c0_i32_194 = arith.constant 0 : i32
    %169 = tpu.memref_slice %arg1[%c0_i32_193, %c0_i32_194] : memref<8192x2048xbf16, #tpu.memory_space<hbm>> -> memref<1024x8192xbf16, #tpu.memory_space<hbm>>
    %c0_i32_195 = arith.constant 0 : i32
    %c0_i32_196 = arith.constant 0 : i32
    %170 = tpu.memref_slice %arg3[%c0_i32_191, %c0_i32_195, %c0_i32_196] : memref<2x1024x8192xbf16, #tpu.memory_space<vmem>> -> memref<1x1024x8192xbf16, #tpu.memory_space<vmem>>
    %171 = tpu.memref_squeeze %170 : memref<1x1024x8192xbf16, #tpu.memory_space<vmem>> -> memref<1024x8192xbf16, #tpu.memory_space<vmem>>
    %172 = tpu.memref_slice %arg4[%c0_i32_192] : memref<2x!tpu.dma_semaphore, #tpu.memory_space<semaphore_mem>> -> memref<1x!tpu.dma_semaphore, #tpu.memory_space<semaphore_mem>>
    %173 = tpu.memref_squeeze %172 : memref<1x!tpu.dma_semaphore, #tpu.memory_space<semaphore_mem>> -> memref<!tpu.dma_semaphore, #tpu.memory_space<semaphore_mem>>
    tpu.enqueue_dma source(%169 : memref<1024x8192xbf16, #tpu.memory_space<hbm>>) target(%171 : memref<1024x8192xbf16, #tpu.memory_space<vmem>>) target_semaphore(%173 : memref<!tpu.dma_semaphore, #tpu.memory_space<semaphore_mem>>)
    %cst_197 = arith.constant 1.000000e+00 : f32
    %174 = arith.addf %163, %cst_197 : f32
    %c1_i32_198 = arith.constant 1 : i32
    %c1_i32_199 = arith.constant 1 : i32
    %c7168_i32_200 = arith.constant 7168 : i32
    %c0_i32_201 = arith.constant 0 : i32
    %175 = tpu.memref_slice %arg1[%c7168_i32_200, %c0_i32_201] : memref<8192x2048xbf16, #tpu.memory_space<hbm>> -> memref<1024x8192xbf16, #tpu.memory_space<hbm>>
    %c0_i32_202 = arith.constant 0 : i32
    %c0_i32_203 = arith.constant 0 : i32
    %176 = tpu.memref_slice %arg3[%c1_i32_198, %c0_i32_202, %c0_i32_203] : memref<2x1024x8192xbf16, #tpu.memory_space<vmem>> -> memref<1x1024x8192xbf16, #tpu.memory_space<vmem>>
    %177 = tpu.memref_squeeze %176 : memref<1x1024x8192xbf16, #tpu.memory_space<vmem>> -> memref<1024x8192xbf16, #tpu.memory_space<vmem>>
    %178 = tpu.memref_slice %arg4[%c1_i32_199] : memref<2x!tpu.dma_semaphore, #tpu.memory_space<semaphore_mem>> -> memref<1x!tpu.dma_semaphore, #tpu.memory_space<semaphore_mem>>
    %179 = tpu.memref_squeeze %178 : memref<1x!tpu.dma_semaphore, #tpu.memory_space<semaphore_mem>> -> memref<!tpu.dma_semaphore, #tpu.memory_space<semaphore_mem>>
    tpu.wait_dma2 semaphore(%179 : memref<!tpu.dma_semaphore, #tpu.memory_space<semaphore_mem>>) src(%175 : memref<1024x8192xbf16, #tpu.memory_space<hbm>>) dst(%177 : memref<1024x8192xbf16, #tpu.memory_space<vmem>>)
    %c1_i32_204 = arith.constant 1 : i32
    %c1_i32_205 = arith.constant 1 : i32
    %c1024_i32_206 = arith.constant 1024 : i32
    %c0_i32_207 = arith.constant 0 : i32
    %180 = tpu.memref_slice %arg1[%c1024_i32_206, %c0_i32_207] : memref<8192x2048xbf16, #tpu.memory_space<hbm>> -> memref<1024x8192xbf16, #tpu.memory_space<hbm>>
    %c0_i32_208 = arith.constant 0 : i32
    %c0_i32_209 = arith.constant 0 : i32
    %181 = tpu.memref_slice %arg3[%c1_i32_204, %c0_i32_208, %c0_i32_209] : memref<2x1024x8192xbf16, #tpu.memory_space<vmem>> -> memref<1x1024x8192xbf16, #tpu.memory_space<vmem>>
    %182 = tpu.memref_squeeze %181 : memref<1x1024x8192xbf16, #tpu.memory_space<vmem>> -> memref<1024x8192xbf16, #tpu.memory_space<vmem>>
    %183 = tpu.memref_slice %arg4[%c1_i32_205] : memref<2x!tpu.dma_semaphore, #tpu.memory_space<semaphore_mem>> -> memref<1x!tpu.dma_semaphore, #tpu.memory_space<semaphore_mem>>
    %184 = tpu.memref_squeeze %183 : memref<1x!tpu.dma_semaphore, #tpu.memory_space<semaphore_mem>> -> memref<!tpu.dma_semaphore, #tpu.memory_space<semaphore_mem>>
    tpu.enqueue_dma source(%180 : memref<1024x8192xbf16, #tpu.memory_space<hbm>>) target(%182 : memref<1024x8192xbf16, #tpu.memory_space<vmem>>) target_semaphore(%184 : memref<!tpu.dma_semaphore, #tpu.memory_space<semaphore_mem>>)
    %cst_210 = arith.constant 1.000000e+00 : f32
    %185 = arith.addf %174, %cst_210 : f32
    %c0_i32_211 = arith.constant 0 : i32
    %c0_i32_212 = arith.constant 0 : i32
    %c0_i32_213 = arith.constant 0 : i32
    %c0_i32_214 = arith.constant 0 : i32
    %186 = tpu.memref_slice %arg1[%c0_i32_213, %c0_i32_214] : memref<8192x2048xbf16, #tpu.memory_space<hbm>> -> memref<1024x8192xbf16, #tpu.memory_space<hbm>>
    %c0_i32_215 = arith.constant 0 : i32
    %c0_i32_216 = arith.constant 0 : i32
    %187 = tpu.memref_slice %arg3[%c0_i32_211, %c0_i32_215, %c0_i32_216] : memref<2x1024x8192xbf16, #tpu.memory_space<vmem>> -> memref<1x1024x8192xbf16, #tpu.memory_space<vmem>>
    %188 = tpu.memref_squeeze %187 : memref<1x1024x8192xbf16, #tpu.memory_space<vmem>> -> memref<1024x8192xbf16, #tpu.memory_space<vmem>>
    %189 = tpu.memref_slice %arg4[%c0_i32_212] : memref<2x!tpu.dma_semaphore, #tpu.memory_space<semaphore_mem>> -> memref<1x!tpu.dma_semaphore, #tpu.memory_space<semaphore_mem>>
    %190 = tpu.memref_squeeze %189 : memref<1x!tpu.dma_semaphore, #tpu.memory_space<semaphore_mem>> -> memref<!tpu.dma_semaphore, #tpu.memory_space<semaphore_mem>>
    tpu.wait_dma2 semaphore(%190 : memref<!tpu.dma_semaphore, #tpu.memory_space<semaphore_mem>>) src(%186 : memref<1024x8192xbf16, #tpu.memory_space<hbm>>) dst(%188 : memref<1024x8192xbf16, #tpu.memory_space<vmem>>)
    %c0_i32_217 = arith.constant 0 : i32
    %c0_i32_218 = arith.constant 0 : i32
    %c2048_i32_219 = arith.constant 2048 : i32
    %c0_i32_220 = arith.constant 0 : i32
    %191 = tpu.memref_slice %arg1[%c2048_i32_219, %c0_i32_220] : memref<8192x2048xbf16, #tpu.memory_space<hbm>> -> memref<1024x8192xbf16, #tpu.memory_space<hbm>>
    %c0_i32_221 = arith.constant 0 : i32
    %c0_i32_222 = arith.constant 0 : i32
    %192 = tpu.memref_slice %arg3[%c0_i32_217, %c0_i32_221, %c0_i32_222] : memref<2x1024x8192xbf16, #tpu.memory_space<vmem>> -> memref<1x1024x8192xbf16, #tpu.memory_space<vmem>>
    %193 = tpu.memref_squeeze %192 : memref<1x1024x8192xbf16, #tpu.memory_space<vmem>> -> memref<1024x8192xbf16, #tpu.memory_space<vmem>>
    %194 = tpu.memref_slice %arg4[%c0_i32_218] : memref<2x!tpu.dma_semaphore, #tpu.memory_space<semaphore_mem>> -> memref<1x!tpu.dma_semaphore, #tpu.memory_space<semaphore_mem>>
    %195 = tpu.memref_squeeze %194 : memref<1x!tpu.dma_semaphore, #tpu.memory_space<semaphore_mem>> -> memref<!tpu.dma_semaphore, #tpu.memory_space<semaphore_mem>>
    tpu.enqueue_dma source(%191 : memref<1024x8192xbf16, #tpu.memory_space<hbm>>) target(%193 : memref<1024x8192xbf16, #tpu.memory_space<vmem>>) target_semaphore(%195 : memref<!tpu.dma_semaphore, #tpu.memory_space<semaphore_mem>>)
    %cst_223 = arith.constant 1.000000e+00 : f32
    %196 = arith.addf %185, %cst_223 : f32
    %c1_i32_224 = arith.constant 1 : i32
    %c1_i32_225 = arith.constant 1 : i32
    %c1024_i32_226 = arith.constant 1024 : i32
    %c0_i32_227 = arith.constant 0 : i32
    %197 = tpu.memref_slice %arg1[%c1024_i32_226, %c0_i32_227] : memref<8192x2048xbf16, #tpu.memory_space<hbm>> -> memref<1024x8192xbf16, #tpu.memory_space<hbm>>
    %c0_i32_228 = arith.constant 0 : i32
    %c0_i32_229 = arith.constant 0 : i32
    %198 = tpu.memref_slice %arg3[%c1_i32_224, %c0_i32_228, %c0_i32_229] : memref<2x1024x8192xbf16, #tpu.memory_space<vmem>> -> memref<1x1024x8192xbf16, #tpu.memory_space<vmem>>
    %199 = tpu.memref_squeeze %198 : memref<1x1024x8192xbf16, #tpu.memory_space<vmem>> -> memref<1024x8192xbf16, #tpu.memory_space<vmem>>
    %200 = tpu.memref_slice %arg4[%c1_i32_225] : memref<2x!tpu.dma_semaphore, #tpu.memory_space<semaphore_mem>> -> memref<1x!tpu.dma_semaphore, #tpu.memory_space<semaphore_mem>>
    %201 = tpu.memref_squeeze %200 : memref<1x!tpu.dma_semaphore, #tpu.memory_space<semaphore_mem>> -> memref<!tpu.dma_semaphore, #tpu.memory_space<semaphore_mem>>
    tpu.wait_dma2 semaphore(%201 : memref<!tpu.dma_semaphore, #tpu.memory_space<semaphore_mem>>) src(%197 : memref<1024x8192xbf16, #tpu.memory_space<hbm>>) dst(%199 : memref<1024x8192xbf16, #tpu.memory_space<vmem>>)
    %c1_i32_230 = arith.constant 1 : i32
    %c1_i32_231 = arith.constant 1 : i32
    %c3072_i32_232 = arith.constant 3072 : i32
    %c0_i32_233 = arith.constant 0 : i32
    %202 = tpu.memref_slice %arg1[%c3072_i32_232, %c0_i32_233] : memref<8192x2048xbf16, #tpu.memory_space<hbm>> -> memref<1024x8192xbf16, #tpu.memory_space<hbm>>
    %c0_i32_234 = arith.constant 0 : i32
    %c0_i32_235 = arith.constant 0 : i32
    %203 = tpu.memref_slice %arg3[%c1_i32_230, %c0_i32_234, %c0_i32_235] : memref<2x1024x8192xbf16, #tpu.memory_space<vmem>> -> memref<1x1024x8192xbf16, #tpu.memory_space<vmem>>
    %204 = tpu.memref_squeeze %203 : memref<1x1024x8192xbf16, #tpu.memory_space<vmem>> -> memref<1024x8192xbf16, #tpu.memory_space<vmem>>
    %205 = tpu.memref_slice %arg4[%c1_i32_231] : memref<2x!tpu.dma_semaphore, #tpu.memory_space<semaphore_mem>> -> memref<1x!tpu.dma_semaphore, #tpu.memory_space<semaphore_mem>>
    %206 = tpu.memref_squeeze %205 : memref<1x!tpu.dma_semaphore, #tpu.memory_space<semaphore_mem>> -> memref<!tpu.dma_semaphore, #tpu.memory_space<semaphore_mem>>
    tpu.enqueue_dma source(%202 : memref<1024x8192xbf16, #tpu.memory_space<hbm>>) target(%204 : memref<1024x8192xbf16, #tpu.memory_space<vmem>>) target_semaphore(%206 : memref<!tpu.dma_semaphore, #tpu.memory_space<semaphore_mem>>)
    %cst_236 = arith.constant 1.000000e+00 : f32
    %207 = arith.addf %196, %cst_236 : f32
    %c0_i32_237 = arith.constant 0 : i32
    %c0_i32_238 = arith.constant 0 : i32
    %c2048_i32_239 = arith.constant 2048 : i32
    %c0_i32_240 = arith.constant 0 : i32
    %208 = tpu.memref_slice %arg1[%c2048_i32_239, %c0_i32_240] : memref<8192x2048xbf16, #tpu.memory_space<hbm>> -> memref<1024x8192xbf16, #tpu.memory_space<hbm>>
    %c0_i32_241 = arith.constant 0 : i32
    %c0_i32_242 = arith.constant 0 : i32
    %209 = tpu.memref_slice %arg3[%c0_i32_237, %c0_i32_241, %c0_i32_242] : memref<2x1024x8192xbf16, #tpu.memory_space<vmem>> -> memref<1x1024x8192xbf16, #tpu.memory_space<vmem>>
    %210 = tpu.memref_squeeze %209 : memref<1x1024x8192xbf16, #tpu.memory_space<vmem>> -> memref<1024x8192xbf16, #tpu.memory_space<vmem>>
    %211 = tpu.memref_slice %arg4[%c0_i32_238] : memref<2x!tpu.dma_semaphore, #tpu.memory_space<semaphore_mem>> -> memref<1x!tpu.dma_semaphore, #tpu.memory_space<semaphore_mem>>
    %212 = tpu.memref_squeeze %211 : memref<1x!tpu.dma_semaphore, #tpu.memory_space<semaphore_mem>> -> memref<!tpu.dma_semaphore, #tpu.memory_space<semaphore_mem>>
    tpu.wait_dma2 semaphore(%212 : memref<!tpu.dma_semaphore, #tpu.memory_space<semaphore_mem>>) src(%208 : memref<1024x8192xbf16, #tpu.memory_space<hbm>>) dst(%210 : memref<1024x8192xbf16, #tpu.memory_space<vmem>>)
    %c0_i32_243 = arith.constant 0 : i32
    %c0_i32_244 = arith.constant 0 : i32
    %c4096_i32_245 = arith.constant 4096 : i32
    %c0_i32_246 = arith.constant 0 : i32
    %213 = tpu.memref_slice %arg1[%c4096_i32_245, %c0_i32_246] : memref<8192x2048xbf16, #tpu.memory_space<hbm>> -> memref<1024x8192xbf16, #tpu.memory_space<hbm>>
    %c0_i32_247 = arith.constant 0 : i32
    %c0_i32_248 = arith.constant 0 : i32
    %214 = tpu.memref_slice %arg3[%c0_i32_243, %c0_i32_247, %c0_i32_248] : memref<2x1024x8192xbf16, #tpu.memory_space<vmem>> -> memref<1x1024x8192xbf16, #tpu.memory_space<vmem>>
    %215 = tpu.memref_squeeze %214 : memref<1x1024x8192xbf16, #tpu.memory_space<vmem>> -> memref<1024x8192xbf16, #tpu.memory_space<vmem>>
    %216 = tpu.memref_slice %arg4[%c0_i32_244] : memref<2x!tpu.dma_semaphore, #tpu.memory_space<semaphore_mem>> -> memref<1x!tpu.dma_semaphore, #tpu.memory_space<semaphore_mem>>
    %217 = tpu.memref_squeeze %216 : memref<1x!tpu.dma_semaphore, #tpu.memory_space<semaphore_mem>> -> memref<!tpu.dma_semaphore, #tpu.memory_space<semaphore_mem>>
    tpu.enqueue_dma source(%213 : memref<1024x8192xbf16, #tpu.memory_space<hbm>>) target(%215 : memref<1024x8192xbf16, #tpu.memory_space<vmem>>) target_semaphore(%217 : memref<!tpu.dma_semaphore, #tpu.memory_space<semaphore_mem>>)
    %cst_249 = arith.constant 1.000000e+00 : f32
    %218 = arith.addf %207, %cst_249 : f32
    %c1_i32_250 = arith.constant 1 : i32
    %c1_i32_251 = arith.constant 1 : i32
    %c3072_i32_252 = arith.constant 3072 : i32
    %c0_i32_253 = arith.constant 0 : i32
    %219 = tpu.memref_slice %arg1[%c3072_i32_252, %c0_i32_253] : memref<8192x2048xbf16, #tpu.memory_space<hbm>> -> memref<1024x8192xbf16, #tpu.memory_space<hbm>>
    %c0_i32_254 = arith.constant 0 : i32
    %c0_i32_255 = arith.constant 0 : i32
    %220 = tpu.memref_slice %arg3[%c1_i32_250, %c0_i32_254, %c0_i32_255] : memref<2x1024x8192xbf16, #tpu.memory_space<vmem>> -> memref<1x1024x8192xbf16, #tpu.memory_space<vmem>>
    %221 = tpu.memref_squeeze %220 : memref<1x1024x8192xbf16, #tpu.memory_space<vmem>> -> memref<1024x8192xbf16, #tpu.memory_space<vmem>>
    %222 = tpu.memref_slice %arg4[%c1_i32_251] : memref<2x!tpu.dma_semaphore, #tpu.memory_space<semaphore_mem>> -> memref<1x!tpu.dma_semaphore, #tpu.memory_space<semaphore_mem>>
    %223 = tpu.memref_squeeze %222 : memref<1x!tpu.dma_semaphore, #tpu.memory_space<semaphore_mem>> -> memref<!tpu.dma_semaphore, #tpu.memory_space<semaphore_mem>>
    tpu.wait_dma2 semaphore(%223 : memref<!tpu.dma_semaphore, #tpu.memory_space<semaphore_mem>>) src(%219 : memref<1024x8192xbf16, #tpu.memory_space<hbm>>) dst(%221 : memref<1024x8192xbf16, #tpu.memory_space<vmem>>)
    %c1_i32_256 = arith.constant 1 : i32
    %c1_i32_257 = arith.constant 1 : i32
    %c5120_i32_258 = arith.constant 5120 : i32
    %c0_i32_259 = arith.constant 0 : i32
    %224 = tpu.memref_slice %arg1[%c5120_i32_258, %c0_i32_259] : memref<8192x2048xbf16, #tpu.memory_space<hbm>> -> memref<1024x8192xbf16, #tpu.memory_space<hbm>>
    %c0_i32_260 = arith.constant 0 : i32
    %c0_i32_261 = arith.constant 0 : i32
    %225 = tpu.memref_slice %arg3[%c1_i32_256, %c0_i32_260, %c0_i32_261] : memref<2x1024x8192xbf16, #tpu.memory_space<vmem>> -> memref<1x1024x8192xbf16, #tpu.memory_space<vmem>>
    %226 = tpu.memref_squeeze %225 : memref<1x1024x8192xbf16, #tpu.memory_space<vmem>> -> memref<1024x8192xbf16, #tpu.memory_space<vmem>>
    %227 = tpu.memref_slice %arg4[%c1_i32_257] : memref<2x!tpu.dma_semaphore, #tpu.memory_space<semaphore_mem>> -> memref<1x!tpu.dma_semaphore, #tpu.memory_space<semaphore_mem>>
    %228 = tpu.memref_squeeze %227 : memref<1x!tpu.dma_semaphore, #tpu.memory_space<semaphore_mem>> -> memref<!tpu.dma_semaphore, #tpu.memory_space<semaphore_mem>>
    tpu.enqueue_dma source(%224 : memref<1024x8192xbf16, #tpu.memory_space<hbm>>) target(%226 : memref<1024x8192xbf16, #tpu.memory_space<vmem>>) target_semaphore(%228 : memref<!tpu.dma_semaphore, #tpu.memory_space<semaphore_mem>>)
    %cst_262 = arith.constant 1.000000e+00 : f32
    %229 = arith.addf %218, %cst_262 : f32
    %c0_i32_263 = arith.constant 0 : i32
    %c0_i32_264 = arith.constant 0 : i32
    %c4096_i32_265 = arith.constant 4096 : i32
    %c0_i32_266 = arith.constant 0 : i32
    %230 = tpu.memref_slice %arg1[%c4096_i32_265, %c0_i32_266] : memref<8192x2048xbf16, #tpu.memory_space<hbm>> -> memref<1024x8192xbf16, #tpu.memory_space<hbm>>
    %c0_i32_267 = arith.constant 0 : i32
    %c0_i32_268 = arith.constant 0 : i32
    %231 = tpu.memref_slice %arg3[%c0_i32_263, %c0_i32_267, %c0_i32_268] : memref<2x1024x8192xbf16, #tpu.memory_space<vmem>> -> memref<1x1024x8192xbf16, #tpu.memory_space<vmem>>
    %232 = tpu.memref_squeeze %231 : memref<1x1024x8192xbf16, #tpu.memory_space<vmem>> -> memref<1024x8192xbf16, #tpu.memory_space<vmem>>
    %233 = tpu.memref_slice %arg4[%c0_i32_264] : memref<2x!tpu.dma_semaphore, #tpu.memory_space<semaphore_mem>> -> memref<1x!tpu.dma_semaphore, #tpu.memory_space<semaphore_mem>>
    %234 = tpu.memref_squeeze %233 : memref<1x!tpu.dma_semaphore, #tpu.memory_space<semaphore_mem>> -> memref<!tpu.dma_semaphore, #tpu.memory_space<semaphore_mem>>
    tpu.wait_dma2 semaphore(%234 : memref<!tpu.dma_semaphore, #tpu.memory_space<semaphore_mem>>) src(%230 : memref<1024x8192xbf16, #tpu.memory_space<hbm>>) dst(%232 : memref<1024x8192xbf16, #tpu.memory_space<vmem>>)
    %c0_i32_269 = arith.constant 0 : i32
    %c0_i32_270 = arith.constant 0 : i32
    %c6144_i32_271 = arith.constant 6144 : i32
    %c0_i32_272 = arith.constant 0 : i32
    %235 = tpu.memref_slice %arg1[%c6144_i32_271, %c0_i32_272] : memref<8192x2048xbf16, #tpu.memory_space<hbm>> -> memref<1024x8192xbf16, #tpu.memory_space<hbm>>
    %c0_i32_273 = arith.constant 0 : i32
    %c0_i32_274 = arith.constant 0 : i32
    %236 = tpu.memref_slice %arg3[%c0_i32_269, %c0_i32_273, %c0_i32_274] : memref<2x1024x8192xbf16, #tpu.memory_space<vmem>> -> memref<1x1024x8192xbf16, #tpu.memory_space<vmem>>
    %237 = tpu.memref_squeeze %236 : memref<1x1024x8192xbf16, #tpu.memory_space<vmem>> -> memref<1024x8192xbf16, #tpu.memory_space<vmem>>
    %238 = tpu.memref_slice %arg4[%c0_i32_270] : memref<2x!tpu.dma_semaphore, #tpu.memory_space<semaphore_mem>> -> memref<1x!tpu.dma_semaphore, #tpu.memory_space<semaphore_mem>>
    %239 = tpu.memref_squeeze %238 : memref<1x!tpu.dma_semaphore, #tpu.memory_space<semaphore_mem>> -> memref<!tpu.dma_semaphore, #tpu.memory_space<semaphore_mem>>
    tpu.enqueue_dma source(%235 : memref<1024x8192xbf16, #tpu.memory_space<hbm>>) target(%237 : memref<1024x8192xbf16, #tpu.memory_space<vmem>>) target_semaphore(%239 : memref<!tpu.dma_semaphore, #tpu.memory_space<semaphore_mem>>)
    %cst_275 = arith.constant 1.000000e+00 : f32
    %240 = arith.addf %229, %cst_275 : f32
    %c1_i32_276 = arith.constant 1 : i32
    %c1_i32_277 = arith.constant 1 : i32
    %c5120_i32_278 = arith.constant 5120 : i32
    %c0_i32_279 = arith.constant 0 : i32
    %241 = tpu.memref_slice %arg1[%c5120_i32_278, %c0_i32_279] : memref<8192x2048xbf16, #tpu.memory_space<hbm>> -> memref<1024x8192xbf16, #tpu.memory_space<hbm>>
    %c0_i32_280 = arith.constant 0 : i32
    %c0_i32_281 = arith.constant 0 : i32
    %242 = tpu.memref_slice %arg3[%c1_i32_276, %c0_i32_280, %c0_i32_281] : memref<2x1024x8192xbf16, #tpu.memory_space<vmem>> -> memref<1x1024x8192xbf16, #tpu.memory_space<vmem>>
    %243 = tpu.memref_squeeze %242 : memref<1x1024x8192xbf16, #tpu.memory_space<vmem>> -> memref<1024x8192xbf16, #tpu.memory_space<vmem>>
    %244 = tpu.memref_slice %arg4[%c1_i32_277] : memref<2x!tpu.dma_semaphore, #tpu.memory_space<semaphore_mem>> -> memref<1x!tpu.dma_semaphore, #tpu.memory_space<semaphore_mem>>
    %245 = tpu.memref_squeeze %244 : memref<1x!tpu.dma_semaphore, #tpu.memory_space<semaphore_mem>> -> memref<!tpu.dma_semaphore, #tpu.memory_space<semaphore_mem>>
    tpu.wait_dma2 semaphore(%245 : memref<!tpu.dma_semaphore, #tpu.memory_space<semaphore_mem>>) src(%241 : memref<1024x8192xbf16, #tpu.memory_space<hbm>>) dst(%243 : memref<1024x8192xbf16, #tpu.memory_space<vmem>>)
    %c1_i32_282 = arith.constant 1 : i32
    %c1_i32_283 = arith.constant 1 : i32
    %c7168_i32_284 = arith.constant 7168 : i32
    %c0_i32_285 = arith.constant 0 : i32
    %246 = tpu.memref_slice %arg1[%c7168_i32_284, %c0_i32_285] : memref<8192x2048xbf16, #tpu.memory_space<hbm>> -> memref<1024x8192xbf16, #tpu.memory_space<hbm>>
    %c0_i32_286 = arith.constant 0 : i32
    %c0_i32_287 = arith.constant 0 : i32
    %247 = tpu.memref_slice %arg3[%c1_i32_282, %c0_i32_286, %c0_i32_287] : memref<2x1024x8192xbf16, #tpu.memory_space<vmem>> -> memref<1x1024x8192xbf16, #tpu.memory_space<vmem>>
    %248 = tpu.memref_squeeze %247 : memref<1x1024x8192xbf16, #tpu.memory_space<vmem>> -> memref<1024x8192xbf16, #tpu.memory_space<vmem>>
    %249 = tpu.memref_slice %arg4[%c1_i32_283] : memref<2x!tpu.dma_semaphore, #tpu.memory_space<semaphore_mem>> -> memref<1x!tpu.dma_semaphore, #tpu.memory_space<semaphore_mem>>
    %250 = tpu.memref_squeeze %249 : memref<1x!tpu.dma_semaphore, #tpu.memory_space<semaphore_mem>> -> memref<!tpu.dma_semaphore, #tpu.memory_space<semaphore_mem>>
    tpu.enqueue_dma source(%246 : memref<1024x8192xbf16, #tpu.memory_space<hbm>>) target(%248 : memref<1024x8192xbf16, #tpu.memory_space<vmem>>) target_semaphore(%250 : memref<!tpu.dma_semaphore, #tpu.memory_space<semaphore_mem>>)
    %cst_288 = arith.constant 1.000000e+00 : f32
    %251 = arith.addf %240, %cst_288 : f32
    %c0_i32_289 = arith.constant 0 : i32
    %c0_i32_290 = arith.constant 0 : i32
    %c6144_i32_291 = arith.constant 6144 : i32
    %c0_i32_292 = arith.constant 0 : i32
    %252 = tpu.memref_slice %arg1[%c6144_i32_291, %c0_i32_292] : memref<8192x2048xbf16, #tpu.memory_space<hbm>> -> memref<1024x8192xbf16, #tpu.memory_space<hbm>>
    %c0_i32_293 = arith.constant 0 : i32
    %c0_i32_294 = arith.constant 0 : i32
    %253 = tpu.memref_slice %arg3[%c0_i32_289, %c0_i32_293, %c0_i32_294] : memref<2x1024x8192xbf16, #tpu.memory_space<vmem>> -> memref<1x1024x8192xbf16, #tpu.memory_space<vmem>>
    %254 = tpu.memref_squeeze %253 : memref<1x1024x8192xbf16, #tpu.memory_space<vmem>> -> memref<1024x8192xbf16, #tpu.memory_space<vmem>>
    %255 = tpu.memref_slice %arg4[%c0_i32_290] : memref<2x!tpu.dma_semaphore, #tpu.memory_space<semaphore_mem>> -> memref<1x!tpu.dma_semaphore, #tpu.memory_space<semaphore_mem>>
    %256 = tpu.memref_squeeze %255 : memref<1x!tpu.dma_semaphore, #tpu.memory_space<semaphore_mem>> -> memref<!tpu.dma_semaphore, #tpu.memory_space<semaphore_mem>>
    tpu.wait_dma2 semaphore(%256 : memref<!tpu.dma_semaphore, #tpu.memory_space<semaphore_mem>>) src(%252 : memref<1024x8192xbf16, #tpu.memory_space<hbm>>) dst(%254 : memref<1024x8192xbf16, #tpu.memory_space<vmem>>)
    %c0_i32_295 = arith.constant 0 : i32
    %c0_i32_296 = arith.constant 0 : i32
    %c0_i32_297 = arith.constant 0 : i32
    %c0_i32_298 = arith.constant 0 : i32
    %257 = tpu.memref_slice %arg1[%c0_i32_297, %c0_i32_298] : memref<8192x2048xbf16, #tpu.memory_space<hbm>> -> memref<1024x8192xbf16, #tpu.memory_space<hbm>>
    %c0_i32_299 = arith.constant 0 : i32
    %c0_i32_300 = arith.constant 0 : i32
    %258 = tpu.memref_slice %arg3[%c0_i32_295, %c0_i32_299, %c0_i32_300] : memref<2x1024x8192xbf16, #tpu.memory_space<vmem>> -> memref<1x1024x8192xbf16, #tpu.memory_space<vmem>>
    %259 = tpu.memref_squeeze %258 : memref<1x1024x8192xbf16, #tpu.memory_space<vmem>> -> memref<1024x8192xbf16, #tpu.memory_space<vmem>>
    %260 = tpu.memref_slice %arg4[%c0_i32_296] : memref<2x!tpu.dma_semaphore, #tpu.memory_space<semaphore_mem>> -> memref<1x!tpu.dma_semaphore, #tpu.memory_space<semaphore_mem>>
    %261 = tpu.memref_squeeze %260 : memref<1x!tpu.dma_semaphore, #tpu.memory_space<semaphore_mem>> -> memref<!tpu.dma_semaphore, #tpu.memory_space<semaphore_mem>>
    tpu.enqueue_dma source(%257 : memref<1024x8192xbf16, #tpu.memory_space<hbm>>) target(%259 : memref<1024x8192xbf16, #tpu.memory_space<vmem>>) target_semaphore(%261 : memref<!tpu.dma_semaphore, #tpu.memory_space<semaphore_mem>>)
    %cst_301 = arith.constant 1.000000e+00 : f32
    %262 = arith.addf %251, %cst_301 : f32
    %c1_i32_302 = arith.constant 1 : i32
    %c1_i32_303 = arith.constant 1 : i32
    %c7168_i32_304 = arith.constant 7168 : i32
    %c0_i32_305 = arith.constant 0 : i32
    %263 = tpu.memref_slice %arg1[%c7168_i32_304, %c0_i32_305] : memref<8192x2048xbf16, #tpu.memory_space<hbm>> -> memref<1024x8192xbf16, #tpu.memory_space<hbm>>
    %c0_i32_306 = arith.constant 0 : i32
    %c0_i32_307 = arith.constant 0 : i32
    %264 = tpu.memref_slice %arg3[%c1_i32_302, %c0_i32_306, %c0_i32_307] : memref<2x1024x8192xbf16, #tpu.memory_space<vmem>> -> memref<1x1024x8192xbf16, #tpu.memory_space<vmem>>
    %265 = tpu.memref_squeeze %264 : memref<1x1024x8192xbf16, #tpu.memory_space<vmem>> -> memref<1024x8192xbf16, #tpu.memory_space<vmem>>
    %266 = tpu.memref_slice %arg4[%c1_i32_303] : memref<2x!tpu.dma_semaphore, #tpu.memory_space<semaphore_mem>> -> memref<1x!tpu.dma_semaphore, #tpu.memory_space<semaphore_mem>>
    %267 = tpu.memref_squeeze %266 : memref<1x!tpu.dma_semaphore, #tpu.memory_space<semaphore_mem>> -> memref<!tpu.dma_semaphore, #tpu.memory_space<semaphore_mem>>
    tpu.wait_dma2 semaphore(%267 : memref<!tpu.dma_semaphore, #tpu.memory_space<semaphore_mem>>) src(%263 : memref<1024x8192xbf16, #tpu.memory_space<hbm>>) dst(%265 : memref<1024x8192xbf16, #tpu.memory_space<vmem>>)
    %c1_i32_308 = arith.constant 1 : i32
    %c1_i32_309 = arith.constant 1 : i32
    %c1024_i32_310 = arith.constant 1024 : i32
    %c0_i32_311 = arith.constant 0 : i32
    %268 = tpu.memref_slice %arg1[%c1024_i32_310, %c0_i32_311] : memref<8192x2048xbf16, #tpu.memory_space<hbm>> -> memref<1024x8192xbf16, #tpu.memory_space<hbm>>
    %c0_i32_312 = arith.constant 0 : i32
    %c0_i32_313 = arith.constant 0 : i32
    %269 = tpu.memref_slice %arg3[%c1_i32_308, %c0_i32_312, %c0_i32_313] : memref<2x1024x8192xbf16, #tpu.memory_space<vmem>> -> memref<1x1024x8192xbf16, #tpu.memory_space<vmem>>
    %270 = tpu.memref_squeeze %269 : memref<1x1024x8192xbf16, #tpu.memory_space<vmem>> -> memref<1024x8192xbf16, #tpu.memory_space<vmem>>
    %271 = tpu.memref_slice %arg4[%c1_i32_309] : memref<2x!tpu.dma_semaphore, #tpu.memory_space<semaphore_mem>> -> memref<1x!tpu.dma_semaphore, #tpu.memory_space<semaphore_mem>>
    %272 = tpu.memref_squeeze %271 : memref<1x!tpu.dma_semaphore, #tpu.memory_space<semaphore_mem>> -> memref<!tpu.dma_semaphore, #tpu.memory_space<semaphore_mem>>
    tpu.enqueue_dma source(%268 : memref<1024x8192xbf16, #tpu.memory_space<hbm>>) target(%270 : memref<1024x8192xbf16, #tpu.memory_space<vmem>>) target_semaphore(%272 : memref<!tpu.dma_semaphore, #tpu.memory_space<semaphore_mem>>)
    %cst_314 = arith.constant 1.000000e+00 : f32
    %273 = arith.addf %262, %cst_314 : f32
    %c0_i32_315 = arith.constant 0 : i32
    %c0_i32_316 = arith.constant 0 : i32
    %c0_i32_317 = arith.constant 0 : i32
    %c0_i32_318 = arith.constant 0 : i32
    %274 = tpu.memref_slice %arg1[%c0_i32_317, %c0_i32_318] : memref<8192x2048xbf16, #tpu.memory_space<hbm>> -> memref<1024x8192xbf16, #tpu.memory_space<hbm>>
    %c0_i32_319 = arith.constant 0 : i32
    %c0_i32_320 = arith.constant 0 : i32
    %275 = tpu.memref_slice %arg3[%c0_i32_315, %c0_i32_319, %c0_i32_320] : memref<2x1024x8192xbf16, #tpu.memory_space<vmem>> -> memref<1x1024x8192xbf16, #tpu.memory_space<vmem>>
    %276 = tpu.memref_squeeze %275 : memref<1x1024x8192xbf16, #tpu.memory_space<vmem>> -> memref<1024x8192xbf16, #tpu.memory_space<vmem>>
    %277 = tpu.memref_slice %arg4[%c0_i32_316] : memref<2x!tpu.dma_semaphore, #tpu.memory_space<semaphore_mem>> -> memref<1x!tpu.dma_semaphore, #tpu.memory_space<semaphore_mem>>
    %278 = tpu.memref_squeeze %277 : memref<1x!tpu.dma_semaphore, #tpu.memory_space<semaphore_mem>> -> memref<!tpu.dma_semaphore, #tpu.memory_space<semaphore_mem>>
    tpu.wait_dma2 semaphore(%278 : memref<!tpu.dma_semaphore, #tpu.memory_space<semaphore_mem>>) src(%274 : memref<1024x8192xbf16, #tpu.memory_space<hbm>>) dst(%276 : memref<1024x8192xbf16, #tpu.memory_space<vmem>>)
    %c0_i32_321 = arith.constant 0 : i32
    %c0_i32_322 = arith.constant 0 : i32
    %c2048_i32_323 = arith.constant 2048 : i32
    %c0_i32_324 = arith.constant 0 : i32
    %279 = tpu.memref_slice %arg1[%c2048_i32_323, %c0_i32_324] : memref<8192x2048xbf16, #tpu.memory_space<hbm>> -> memref<1024x8192xbf16, #tpu.memory_space<hbm>>
    %c0_i32_325 = arith.constant 0 : i32
    %c0_i32_326 = arith.constant 0 : i32
    %280 = tpu.memref_slice %arg3[%c0_i32_321, %c0_i32_325, %c0_i32_326] : memref<2x1024x8192xbf16, #tpu.memory_space<vmem>> -> memref<1x1024x8192xbf16, #tpu.memory_space<vmem>>
    %281 = tpu.memref_squeeze %280 : memref<1x1024x8192xbf16, #tpu.memory_space<vmem>> -> memref<1024x8192xbf16, #tpu.memory_space<vmem>>
    %282 = tpu.memref_slice %arg4[%c0_i32_322] : memref<2x!tpu.dma_semaphore, #tpu.memory_space<semaphore_mem>> -> memref<1x!tpu.dma_semaphore, #tpu.memory_space<semaphore_mem>>
    %283 = tpu.memref_squeeze %282 : memref<1x!tpu.dma_semaphore, #tpu.memory_space<semaphore_mem>> -> memref<!tpu.dma_semaphore, #tpu.memory_space<semaphore_mem>>
    tpu.enqueue_dma source(%279 : memref<1024x8192xbf16, #tpu.memory_space<hbm>>) target(%281 : memref<1024x8192xbf16, #tpu.memory_space<vmem>>) target_semaphore(%283 : memref<!tpu.dma_semaphore, #tpu.memory_space<semaphore_mem>>)
    %cst_327 = arith.constant 1.000000e+00 : f32
    %284 = arith.addf %273, %cst_327 : f32
    %c1_i32_328 = arith.constant 1 : i32
    %c1_i32_329 = arith.constant 1 : i32
    %c1024_i32_330 = arith.constant 1024 : i32
    %c0_i32_331 = arith.constant 0 : i32
    %285 = tpu.memref_slice %arg1[%c1024_i32_330, %c0_i32_331] : memref<8192x2048xbf16, #tpu.memory_space<hbm>> -> memref<1024x8192xbf16, #tpu.memory_space<hbm>>
    %c0_i32_332 = arith.constant 0 : i32
    %c0_i32_333 = arith.constant 0 : i32
    %286 = tpu.memref_slice %arg3[%c1_i32_328, %c0_i32_332, %c0_i32_333] : memref<2x1024x8192xbf16, #tpu.memory_space<vmem>> -> memref<1x1024x8192xbf16, #tpu.memory_space<vmem>>
    %287 = tpu.memref_squeeze %286 : memref<1x1024x8192xbf16, #tpu.memory_space<vmem>> -> memref<1024x8192xbf16, #tpu.memory_space<vmem>>
    %288 = tpu.memref_slice %arg4[%c1_i32_329] : memref<2x!tpu.dma_semaphore, #tpu.memory_space<semaphore_mem>> -> memref<1x!tpu.dma_semaphore, #tpu.memory_space<semaphore_mem>>
    %289 = tpu.memref_squeeze %288 : memref<1x!tpu.dma_semaphore, #tpu.memory_space<semaphore_mem>> -> memref<!tpu.dma_semaphore, #tpu.memory_space<semaphore_mem>>
    tpu.wait_dma2 semaphore(%289 : memref<!tpu.dma_semaphore, #tpu.memory_space<semaphore_mem>>) src(%285 : memref<1024x8192xbf16, #tpu.memory_space<hbm>>) dst(%287 : memref<1024x8192xbf16, #tpu.memory_space<vmem>>)
    %c1_i32_334 = arith.constant 1 : i32
    %c1_i32_335 = arith.constant 1 : i32
    %c3072_i32_336 = arith.constant 3072 : i32
    %c0_i32_337 = arith.constant 0 : i32
    %290 = tpu.memref_slice %arg1[%c3072_i32_336, %c0_i32_337] : memref<8192x2048xbf16, #tpu.memory_space<hbm>> -> memref<1024x8192xbf16, #tpu.memory_space<hbm>>
    %c0_i32_338 = arith.constant 0 : i32
    %c0_i32_339 = arith.constant 0 : i32
    %291 = tpu.memref_slice %arg3[%c1_i32_334, %c0_i32_338, %c0_i32_339] : memref<2x1024x8192xbf16, #tpu.memory_space<vmem>> -> memref<1x1024x8192xbf16, #tpu.memory_space<vmem>>
    %292 = tpu.memref_squeeze %291 : memref<1x1024x8192xbf16, #tpu.memory_space<vmem>> -> memref<1024x8192xbf16, #tpu.memory_space<vmem>>
    %293 = tpu.memref_slice %arg4[%c1_i32_335] : memref<2x!tpu.dma_semaphore, #tpu.memory_space<semaphore_mem>> -> memref<1x!tpu.dma_semaphore, #tpu.memory_space<semaphore_mem>>
    %294 = tpu.memref_squeeze %293 : memref<1x!tpu.dma_semaphore, #tpu.memory_space<semaphore_mem>> -> memref<!tpu.dma_semaphore, #tpu.memory_space<semaphore_mem>>
    tpu.enqueue_dma source(%290 : memref<1024x8192xbf16, #tpu.memory_space<hbm>>) target(%292 : memref<1024x8192xbf16, #tpu.memory_space<vmem>>) target_semaphore(%294 : memref<!tpu.dma_semaphore, #tpu.memory_space<semaphore_mem>>)
    %cst_340 = arith.constant 1.000000e+00 : f32
    %295 = arith.addf %284, %cst_340 : f32
    %c0_i32_341 = arith.constant 0 : i32
    %c0_i32_342 = arith.constant 0 : i32
    %c2048_i32_343 = arith.constant 2048 : i32
    %c0_i32_344 = arith.constant 0 : i32
    %296 = tpu.memref_slice %arg1[%c2048_i32_343, %c0_i32_344] : memref<8192x2048xbf16, #tpu.memory_space<hbm>> -> memref<1024x8192xbf16, #tpu.memory_space<hbm>>
    %c0_i32_345 = arith.constant 0 : i32
    %c0_i32_346 = arith.constant 0 : i32
    %297 = tpu.memref_slice %arg3[%c0_i32_341, %c0_i32_345, %c0_i32_346] : memref<2x1024x8192xbf16, #tpu.memory_space<vmem>> -> memref<1x1024x8192xbf16, #tpu.memory_space<vmem>>
    %298 = tpu.memref_squeeze %297 : memref<1x1024x8192xbf16, #tpu.memory_space<vmem>> -> memref<1024x8192xbf16, #tpu.memory_space<vmem>>
    %299 = tpu.memref_slice %arg4[%c0_i32_342] : memref<2x!tpu.dma_semaphore, #tpu.memory_space<semaphore_mem>> -> memref<1x!tpu.dma_semaphore, #tpu.memory_space<semaphore_mem>>
    %300 = tpu.memref_squeeze %299 : memref<1x!tpu.dma_semaphore, #tpu.memory_space<semaphore_mem>> -> memref<!tpu.dma_semaphore, #tpu.memory_space<semaphore_mem>>
    tpu.wait_dma2 semaphore(%300 : memref<!tpu.dma_semaphore, #tpu.memory_space<semaphore_mem>>) src(%296 : memref<1024x8192xbf16, #tpu.memory_space<hbm>>) dst(%298 : memref<1024x8192xbf16, #tpu.memory_space<vmem>>)
    %c0_i32_347 = arith.constant 0 : i32
    %c0_i32_348 = arith.constant 0 : i32
    %c4096_i32_349 = arith.constant 4096 : i32
    %c0_i32_350 = arith.constant 0 : i32
    %301 = tpu.memref_slice %arg1[%c4096_i32_349, %c0_i32_350] : memref<8192x2048xbf16, #tpu.memory_space<hbm>> -> memref<1024x8192xbf16, #tpu.memory_space<hbm>>
    %c0_i32_351 = arith.constant 0 : i32
    %c0_i32_352 = arith.constant 0 : i32
    %302 = tpu.memref_slice %arg3[%c0_i32_347, %c0_i32_351, %c0_i32_352] : memref<2x1024x8192xbf16, #tpu.memory_space<vmem>> -> memref<1x1024x8192xbf16, #tpu.memory_space<vmem>>
    %303 = tpu.memref_squeeze %302 : memref<1x1024x8192xbf16, #tpu.memory_space<vmem>> -> memref<1024x8192xbf16, #tpu.memory_space<vmem>>
    %304 = tpu.memref_slice %arg4[%c0_i32_348] : memref<2x!tpu.dma_semaphore, #tpu.memory_space<semaphore_mem>> -> memref<1x!tpu.dma_semaphore, #tpu.memory_space<semaphore_mem>>
    %305 = tpu.memref_squeeze %304 : memref<1x!tpu.dma_semaphore, #tpu.memory_space<semaphore_mem>> -> memref<!tpu.dma_semaphore, #tpu.memory_space<semaphore_mem>>
    tpu.enqueue_dma source(%301 : memref<1024x8192xbf16, #tpu.memory_space<hbm>>) target(%303 : memref<1024x8192xbf16, #tpu.memory_space<vmem>>) target_semaphore(%305 : memref<!tpu.dma_semaphore, #tpu.memory_space<semaphore_mem>>)
    %cst_353 = arith.constant 1.000000e+00 : f32
    %306 = arith.addf %295, %cst_353 : f32
    %c1_i32_354 = arith.constant 1 : i32
    %c1_i32_355 = arith.constant 1 : i32
    %c3072_i32_356 = arith.constant 3072 : i32
    %c0_i32_357 = arith.constant 0 : i32
    %307 = tpu.memref_slice %arg1[%c3072_i32_356, %c0_i32_357] : memref<8192x2048xbf16, #tpu.memory_space<hbm>> -> memref<1024x8192xbf16, #tpu.memory_space<hbm>>
    %c0_i32_358 = arith.constant 0 : i32
    %c0_i32_359 = arith.constant 0 : i32
    %308 = tpu.memref_slice %arg3[%c1_i32_354, %c0_i32_358, %c0_i32_359] : memref<2x1024x8192xbf16, #tpu.memory_space<vmem>> -> memref<1x1024x8192xbf16, #tpu.memory_space<vmem>>
    %309 = tpu.memref_squeeze %308 : memref<1x1024x8192xbf16, #tpu.memory_space<vmem>> -> memref<1024x8192xbf16, #tpu.memory_space<vmem>>
    %310 = tpu.memref_slice %arg4[%c1_i32_355] : memref<2x!tpu.dma_semaphore, #tpu.memory_space<semaphore_mem>> -> memref<1x!tpu.dma_semaphore, #tpu.memory_space<semaphore_mem>>
    %311 = tpu.memref_squeeze %310 : memref<1x!tpu.dma_semaphore, #tpu.memory_space<semaphore_mem>> -> memref<!tpu.dma_semaphore, #tpu.memory_space<semaphore_mem>>
    tpu.wait_dma2 semaphore(%311 : memref<!tpu.dma_semaphore, #tpu.memory_space<semaphore_mem>>) src(%307 : memref<1024x8192xbf16, #tpu.memory_space<hbm>>) dst(%309 : memref<1024x8192xbf16, #tpu.memory_space<vmem>>)
    %c1_i32_360 = arith.constant 1 : i32
    %c1_i32_361 = arith.constant 1 : i32
    %c5120_i32_362 = arith.constant 5120 : i32
    %c0_i32_363 = arith.constant 0 : i32
    %312 = tpu.memref_slice %arg1[%c5120_i32_362, %c0_i32_363] : memref<8192x2048xbf16, #tpu.memory_space<hbm>> -> memref<1024x8192xbf16, #tpu.memory_space<hbm>>
    %c0_i32_364 = arith.constant 0 : i32
    %c0_i32_365 = arith.constant 0 : i32
    %313 = tpu.memref_slice %arg3[%c1_i32_360, %c0_i32_364, %c0_i32_365] : memref<2x1024x8192xbf16, #tpu.memory_space<vmem>> -> memref<1x1024x8192xbf16, #tpu.memory_space<vmem>>
    %314 = tpu.memref_squeeze %313 : memref<1x1024x8192xbf16, #tpu.memory_space<vmem>> -> memref<1024x8192xbf16, #tpu.memory_space<vmem>>
    %315 = tpu.memref_slice %arg4[%c1_i32_361] : memref<2x!tpu.dma_semaphore, #tpu.memory_space<semaphore_mem>> -> memref<1x!tpu.dma_semaphore, #tpu.memory_space<semaphore_mem>>
    %316 = tpu.memref_squeeze %315 : memref<1x!tpu.dma_semaphore, #tpu.memory_space<semaphore_mem>> -> memref<!tpu.dma_semaphore, #tpu.memory_space<semaphore_mem>>
    tpu.enqueue_dma source(%312 : memref<1024x8192xbf16, #tpu.memory_space<hbm>>) target(%314 : memref<1024x8192xbf16, #tpu.memory_space<vmem>>) target_semaphore(%316 : memref<!tpu.dma_semaphore, #tpu.memory_space<semaphore_mem>>)
    %cst_366 = arith.constant 1.000000e+00 : f32
    %317 = arith.addf %306, %cst_366 : f32
    %c0_i32_367 = arith.constant 0 : i32
    %c0_i32_368 = arith.constant 0 : i32
    %c4096_i32_369 = arith.constant 4096 : i32
    %c0_i32_370 = arith.constant 0 : i32
    %318 = tpu.memref_slice %arg1[%c4096_i32_369, %c0_i32_370] : memref<8192x2048xbf16, #tpu.memory_space<hbm>> -> memref<1024x8192xbf16, #tpu.memory_space<hbm>>
    %c0_i32_371 = arith.constant 0 : i32
    %c0_i32_372 = arith.constant 0 : i32
    %319 = tpu.memref_slice %arg3[%c0_i32_367, %c0_i32_371, %c0_i32_372] : memref<2x1024x8192xbf16, #tpu.memory_space<vmem>> -> memref<1x1024x8192xbf16, #tpu.memory_space<vmem>>
    %320 = tpu.memref_squeeze %319 : memref<1x1024x8192xbf16, #tpu.memory_space<vmem>> -> memref<1024x8192xbf16, #tpu.memory_space<vmem>>
    %321 = tpu.memref_slice %arg4[%c0_i32_368] : memref<2x!tpu.dma_semaphore, #tpu.memory_space<semaphore_mem>> -> memref<1x!tpu.dma_semaphore, #tpu.memory_space<semaphore_mem>>
    %322 = tpu.memref_squeeze %321 : memref<1x!tpu.dma_semaphore, #tpu.memory_space<semaphore_mem>> -> memref<!tpu.dma_semaphore, #tpu.memory_space<semaphore_mem>>
    tpu.wait_dma2 semaphore(%322 : memref<!tpu.dma_semaphore, #tpu.memory_space<semaphore_mem>>) src(%318 : memref<1024x8192xbf16, #tpu.memory_space<hbm>>) dst(%320 : memref<1024x8192xbf16, #tpu.memory_space<vmem>>)
    %c0_i32_373 = arith.constant 0 : i32
    %c0_i32_374 = arith.constant 0 : i32
    %c6144_i32_375 = arith.constant 6144 : i32
    %c0_i32_376 = arith.constant 0 : i32
    %323 = tpu.memref_slice %arg1[%c6144_i32_375, %c0_i32_376] : memref<8192x2048xbf16, #tpu.memory_space<hbm>> -> memref<1024x8192xbf16, #tpu.memory_space<hbm>>
    %c0_i32_377 = arith.constant 0 : i32
    %c0_i32_378 = arith.constant 0 : i32
    %324 = tpu.memref_slice %arg3[%c0_i32_373, %c0_i32_377, %c0_i32_378] : memref<2x1024x8192xbf16, #tpu.memory_space<vmem>> -> memref<1x1024x8192xbf16, #tpu.memory_space<vmem>>
    %325 = tpu.memref_squeeze %324 : memref<1x1024x8192xbf16, #tpu.memory_space<vmem>> -> memref<1024x8192xbf16, #tpu.memory_space<vmem>>
    %326 = tpu.memref_slice %arg4[%c0_i32_374] : memref<2x!tpu.dma_semaphore, #tpu.memory_space<semaphore_mem>> -> memref<1x!tpu.dma_semaphore, #tpu.memory_space<semaphore_mem>>
    %327 = tpu.memref_squeeze %326 : memref<1x!tpu.dma_semaphore, #tpu.memory_space<semaphore_mem>> -> memref<!tpu.dma_semaphore, #tpu.memory_space<semaphore_mem>>
    tpu.enqueue_dma source(%323 : memref<1024x8192xbf16, #tpu.memory_space<hbm>>) target(%325 : memref<1024x8192xbf16, #tpu.memory_space<vmem>>) target_semaphore(%327 : memref<!tpu.dma_semaphore, #tpu.memory_space<semaphore_mem>>)
    %cst_379 = arith.constant 1.000000e+00 : f32
    %328 = arith.addf %317, %cst_379 : f32
    %c1_i32_380 = arith.constant 1 : i32
    %c1_i32_381 = arith.constant 1 : i32
    %c5120_i32_382 = arith.constant 5120 : i32
    %c0_i32_383 = arith.constant 0 : i32
    %329 = tpu.memref_slice %arg1[%c5120_i32_382, %c0_i32_383] : memref<8192x2048xbf16, #tpu.memory_space<hbm>> -> memref<1024x8192xbf16, #tpu.memory_space<hbm>>
    %c0_i32_384 = arith.constant 0 : i32
    %c0_i32_385 = arith.constant 0 : i32
    %330 = tpu.memref_slice %arg3[%c1_i32_380, %c0_i32_384, %c0_i32_385] : memref<2x1024x8192xbf16, #tpu.memory_space<vmem>> -> memref<1x1024x8192xbf16, #tpu.memory_space<vmem>>
    %331 = tpu.memref_squeeze %330 : memref<1x1024x8192xbf16, #tpu.memory_space<vmem>> -> memref<1024x8192xbf16, #tpu.memory_space<vmem>>
    %332 = tpu.memref_slice %arg4[%c1_i32_381] : memref<2x!tpu.dma_semaphore, #tpu.memory_space<semaphore_mem>> -> memref<1x!tpu.dma_semaphore, #tpu.memory_space<semaphore_mem>>
    %333 = tpu.memref_squeeze %332 : memref<1x!tpu.dma_semaphore, #tpu.memory_space<semaphore_mem>> -> memref<!tpu.dma_semaphore, #tpu.memory_space<semaphore_mem>>
    tpu.wait_dma2 semaphore(%333 : memref<!tpu.dma_semaphore, #tpu.memory_space<semaphore_mem>>) src(%329 : memref<1024x8192xbf16, #tpu.memory_space<hbm>>) dst(%331 : memref<1024x8192xbf16, #tpu.memory_space<vmem>>)
    %c1_i32_386 = arith.constant 1 : i32
    %c1_i32_387 = arith.constant 1 : i32
    %c7168_i32_388 = arith.constant 7168 : i32
    %c0_i32_389 = arith.constant 0 : i32
    %334 = tpu.memref_slice %arg1[%c7168_i32_388, %c0_i32_389] : memref<8192x2048xbf16, #tpu.memory_space<hbm>> -> memref<1024x8192xbf16, #tpu.memory_space<hbm>>
    %c0_i32_390 = arith.constant 0 : i32
    %c0_i32_391 = arith.constant 0 : i32
    %335 = tpu.memref_slice %arg3[%c1_i32_386, %c0_i32_390, %c0_i32_391] : memref<2x1024x8192xbf16, #tpu.memory_space<vmem>> -> memref<1x1024x8192xbf16, #tpu.memory_space<vmem>>
    %336 = tpu.memref_squeeze %335 : memref<1x1024x8192xbf16, #tpu.memory_space<vmem>> -> memref<1024x8192xbf16, #tpu.memory_space<vmem>>
    %337 = tpu.memref_slice %arg4[%c1_i32_387] : memref<2x!tpu.dma_semaphore, #tpu.memory_space<semaphore_mem>> -> memref<1x!tpu.dma_semaphore, #tpu.memory_space<semaphore_mem>>
    %338 = tpu.memref_squeeze %337 : memref<1x!tpu.dma_semaphore, #tpu.memory_space<semaphore_mem>> -> memref<!tpu.dma_semaphore, #tpu.memory_space<semaphore_mem>>
    tpu.enqueue_dma source(%334 : memref<1024x8192xbf16, #tpu.memory_space<hbm>>) target(%336 : memref<1024x8192xbf16, #tpu.memory_space<vmem>>) target_semaphore(%338 : memref<!tpu.dma_semaphore, #tpu.memory_space<semaphore_mem>>)
    %cst_392 = arith.constant 1.000000e+00 : f32
    %339 = arith.addf %328, %cst_392 : f32
    %c0_i32_393 = arith.constant 0 : i32
    %c0_i32_394 = arith.constant 0 : i32
    %c6144_i32_395 = arith.constant 6144 : i32
    %c0_i32_396 = arith.constant 0 : i32
    %340 = tpu.memref_slice %arg1[%c6144_i32_395, %c0_i32_396] : memref<8192x2048xbf16, #tpu.memory_space<hbm>> -> memref<1024x8192xbf16, #tpu.memory_space<hbm>>
    %c0_i32_397 = arith.constant 0 : i32
    %c0_i32_398 = arith.constant 0 : i32
    %341 = tpu.memref_slice %arg3[%c0_i32_393, %c0_i32_397, %c0_i32_398] : memref<2x1024x8192xbf16, #tpu.memory_space<vmem>> -> memref<1x1024x8192xbf16, #tpu.memory_space<vmem>>
    %342 = tpu.memref_squeeze %341 : memref<1x1024x8192xbf16, #tpu.memory_space<vmem>> -> memref<1024x8192xbf16, #tpu.memory_space<vmem>>
    %343 = tpu.memref_slice %arg4[%c0_i32_394] : memref<2x!tpu.dma_semaphore, #tpu.memory_space<semaphore_mem>> -> memref<1x!tpu.dma_semaphore, #tpu.memory_space<semaphore_mem>>
    %344 = tpu.memref_squeeze %343 : memref<1x!tpu.dma_semaphore, #tpu.memory_space<semaphore_mem>> -> memref<!tpu.dma_semaphore, #tpu.memory_space<semaphore_mem>>
    tpu.wait_dma2 semaphore(%344 : memref<!tpu.dma_semaphore, #tpu.memory_space<semaphore_mem>>) src(%340 : memref<1024x8192xbf16, #tpu.memory_space<hbm>>) dst(%342 : memref<1024x8192xbf16, #tpu.memory_space<vmem>>)
    %c0_i32_399 = arith.constant 0 : i32
    %c0_i32_400 = arith.constant 0 : i32
    %c0_i32_401 = arith.constant 0 : i32
    %c0_i32_402 = arith.constant 0 : i32
    %345 = tpu.memref_slice %arg1[%c0_i32_401, %c0_i32_402] : memref<8192x2048xbf16, #tpu.memory_space<hbm>> -> memref<1024x8192xbf16, #tpu.memory_space<hbm>>
    %c0_i32_403 = arith.constant 0 : i32
    %c0_i32_404 = arith.constant 0 : i32
    %346 = tpu.memref_slice %arg3[%c0_i32_399, %c0_i32_403, %c0_i32_404] : memref<2x1024x8192xbf16, #tpu.memory_space<vmem>> -> memref<1x1024x8192xbf16, #tpu.memory_space<vmem>>
    %347 = tpu.memref_squeeze %346 : memref<1x1024x8192xbf16, #tpu.memory_space<vmem>> -> memref<1024x8192xbf16, #tpu.memory_space<vmem>>
    %348 = tpu.memref_slice %arg4[%c0_i32_400] : memref<2x!tpu.dma_semaphore, #tpu.memory_space<semaphore_mem>> -> memref<1x!tpu.dma_semaphore, #tpu.memory_space<semaphore_mem>>
    %349 = tpu.memref_squeeze %348 : memref<1x!tpu.dma_semaphore, #tpu.memory_space<semaphore_mem>> -> memref<!tpu.dma_semaphore, #tpu.memory_space<semaphore_mem>>
    tpu.enqueue_dma source(%345 : memref<1024x8192xbf16, #tpu.memory_space<hbm>>) target(%347 : memref<1024x8192xbf16, #tpu.memory_space<vmem>>) target_semaphore(%349 : memref<!tpu.dma_semaphore, #tpu.memory_space<semaphore_mem>>)
    %cst_405 = arith.constant 1.000000e+00 : f32
    %350 = arith.addf %339, %cst_405 : f32
    %c1_i32_406 = arith.constant 1 : i32
    %c1_i32_407 = arith.constant 1 : i32
    %c7168_i32_408 = arith.constant 7168 : i32
    %c0_i32_409 = arith.constant 0 : i32
    %351 = tpu.memref_slice %arg1[%c7168_i32_408, %c0_i32_409] : memref<8192x2048xbf16, #tpu.memory_space<hbm>> -> memref<1024x8192xbf16, #tpu.memory_space<hbm>>
    %c0_i32_410 = arith.constant 0 : i32
    %c0_i32_411 = arith.constant 0 : i32
    %352 = tpu.memref_slice %arg3[%c1_i32_406, %c0_i32_410, %c0_i32_411] : memref<2x1024x8192xbf16, #tpu.memory_space<vmem>> -> memref<1x1024x8192xbf16, #tpu.memory_space<vmem>>
    %353 = tpu.memref_squeeze %352 : memref<1x1024x8192xbf16, #tpu.memory_space<vmem>> -> memref<1024x8192xbf16, #tpu.memory_space<vmem>>
    %354 = tpu.memref_slice %arg4[%c1_i32_407] : memref<2x!tpu.dma_semaphore, #tpu.memory_space<semaphore_mem>> -> memref<1x!tpu.dma_semaphore, #tpu.memory_space<semaphore_mem>>
    %355 = tpu.memref_squeeze %354 : memref<1x!tpu.dma_semaphore, #tpu.memory_space<semaphore_mem>> -> memref<!tpu.dma_semaphore, #tpu.memory_space<semaphore_mem>>
    tpu.wait_dma2 semaphore(%355 : memref<!tpu.dma_semaphore, #tpu.memory_space<semaphore_mem>>) src(%351 : memref<1024x8192xbf16, #tpu.memory_space<hbm>>) dst(%353 : memref<1024x8192xbf16, #tpu.memory_space<vmem>>)
    %c1_i32_412 = arith.constant 1 : i32
    %c1_i32_413 = arith.constant 1 : i32
    %c1024_i32_414 = arith.constant 1024 : i32
    %c0_i32_415 = arith.constant 0 : i32
    %356 = tpu.memref_slice %arg1[%c1024_i32_414, %c0_i32_415] : memref<8192x2048xbf16, #tpu.memory_space<hbm>> -> memref<1024x8192xbf16, #tpu.memory_space<hbm>>
    %c0_i32_416 = arith.constant 0 : i32
    %c0_i32_417 = arith.constant 0 : i32
    %357 = tpu.memref_slice %arg3[%c1_i32_412, %c0_i32_416, %c0_i32_417] : memref<2x1024x8192xbf16, #tpu.memory_space<vmem>> -> memref<1x1024x8192xbf16, #tpu.memory_space<vmem>>
    %358 = tpu.memref_squeeze %357 : memref<1x1024x8192xbf16, #tpu.memory_space<vmem>> -> memref<1024x8192xbf16, #tpu.memory_space<vmem>>
    %359 = tpu.memref_slice %arg4[%c1_i32_413] : memref<2x!tpu.dma_semaphore, #tpu.memory_space<semaphore_mem>> -> memref<1x!tpu.dma_semaphore, #tpu.memory_space<semaphore_mem>>
    %360 = tpu.memref_squeeze %359 : memref<1x!tpu.dma_semaphore, #tpu.memory_space<semaphore_mem>> -> memref<!tpu.dma_semaphore, #tpu.memory_space<semaphore_mem>>
    tpu.enqueue_dma source(%356 : memref<1024x8192xbf16, #tpu.memory_space<hbm>>) target(%358 : memref<1024x8192xbf16, #tpu.memory_space<vmem>>) target_semaphore(%360 : memref<!tpu.dma_semaphore, #tpu.memory_space<semaphore_mem>>)
    %cst_418 = arith.constant 1.000000e+00 : f32
    %361 = arith.addf %350, %cst_418 : f32
    %c0_i32_419 = arith.constant 0 : i32
    %c0_i32_420 = arith.constant 0 : i32
    %c0_i32_421 = arith.constant 0 : i32
    %c0_i32_422 = arith.constant 0 : i32
    %362 = tpu.memref_slice %arg1[%c0_i32_421, %c0_i32_422] : memref<8192x2048xbf16, #tpu.memory_space<hbm>> -> memref<1024x8192xbf16, #tpu.memory_space<hbm>>
    %c0_i32_423 = arith.constant 0 : i32
    %c0_i32_424 = arith.constant 0 : i32
    %363 = tpu.memref_slice %arg3[%c0_i32_419, %c0_i32_423, %c0_i32_424] : memref<2x1024x8192xbf16, #tpu.memory_space<vmem>> -> memref<1x1024x8192xbf16, #tpu.memory_space<vmem>>
    %364 = tpu.memref_squeeze %363 : memref<1x1024x8192xbf16, #tpu.memory_space<vmem>> -> memref<1024x8192xbf16, #tpu.memory_space<vmem>>
    %365 = tpu.memref_slice %arg4[%c0_i32_420] : memref<2x!tpu.dma_semaphore, #tpu.memory_space<semaphore_mem>> -> memref<1x!tpu.dma_semaphore, #tpu.memory_space<semaphore_mem>>
    %366 = tpu.memref_squeeze %365 : memref<1x!tpu.dma_semaphore, #tpu.memory_space<semaphore_mem>> -> memref<!tpu.dma_semaphore, #tpu.memory_space<semaphore_mem>>
    tpu.wait_dma2 semaphore(%366 : memref<!tpu.dma_semaphore, #tpu.memory_space<semaphore_mem>>) src(%362 : memref<1024x8192xbf16, #tpu.memory_space<hbm>>) dst(%364 : memref<1024x8192xbf16, #tpu.memory_space<vmem>>)
    %c0_i32_425 = arith.constant 0 : i32
    %c0_i32_426 = arith.constant 0 : i32
    %c2048_i32_427 = arith.constant 2048 : i32
    %c0_i32_428 = arith.constant 0 : i32
    %367 = tpu.memref_slice %arg1[%c2048_i32_427, %c0_i32_428] : memref<8192x2048xbf16, #tpu.memory_space<hbm>> -> memref<1024x8192xbf16, #tpu.memory_space<hbm>>
    %c0_i32_429 = arith.constant 0 : i32
    %c0_i32_430 = arith.constant 0 : i32
    %368 = tpu.memref_slice %arg3[%c0_i32_425, %c0_i32_429, %c0_i32_430] : memref<2x1024x8192xbf16, #tpu.memory_space<vmem>> -> memref<1x1024x8192xbf16, #tpu.memory_space<vmem>>
    %369 = tpu.memref_squeeze %368 : memref<1x1024x8192xbf16, #tpu.memory_space<vmem>> -> memref<1024x8192xbf16, #tpu.memory_space<vmem>>
    %370 = tpu.memref_slice %arg4[%c0_i32_426] : memref<2x!tpu.dma_semaphore, #tpu.memory_space<semaphore_mem>> -> memref<1x!tpu.dma_semaphore, #tpu.memory_space<semaphore_mem>>
    %371 = tpu.memref_squeeze %370 : memref<1x!tpu.dma_semaphore, #tpu.memory_space<semaphore_mem>> -> memref<!tpu.dma_semaphore, #tpu.memory_space<semaphore_mem>>
    tpu.enqueue_dma source(%367 : memref<1024x8192xbf16, #tpu.memory_space<hbm>>) target(%369 : memref<1024x8192xbf16, #tpu.memory_space<vmem>>) target_semaphore(%371 : memref<!tpu.dma_semaphore, #tpu.memory_space<semaphore_mem>>)
    %cst_431 = arith.constant 1.000000e+00 : f32
    %372 = arith.addf %361, %cst_431 : f32
    %c1_i32_432 = arith.constant 1 : i32
    %c1_i32_433 = arith.constant 1 : i32
    %c1024_i32_434 = arith.constant 1024 : i32
    %c0_i32_435 = arith.constant 0 : i32
    %373 = tpu.memref_slice %arg1[%c1024_i32_434, %c0_i32_435] : memref<8192x2048xbf16, #tpu.memory_space<hbm>> -> memref<1024x8192xbf16, #tpu.memory_space<hbm>>
    %c0_i32_436 = arith.constant 0 : i32
    %c0_i32_437 = arith.constant 0 : i32
    %374 = tpu.memref_slice %arg3[%c1_i32_432, %c0_i32_436, %c0_i32_437] : memref<2x1024x8192xbf16, #tpu.memory_space<vmem>> -> memref<1x1024x8192xbf16, #tpu.memory_space<vmem>>
    %375 = tpu.memref_squeeze %374 : memref<1x1024x8192xbf16, #tpu.memory_space<vmem>> -> memref<1024x8192xbf16, #tpu.memory_space<vmem>>
    %376 = tpu.memref_slice %arg4[%c1_i32_433] : memref<2x!tpu.dma_semaphore, #tpu.memory_space<semaphore_mem>> -> memref<1x!tpu.dma_semaphore, #tpu.memory_space<semaphore_mem>>
    %377 = tpu.memref_squeeze %376 : memref<1x!tpu.dma_semaphore, #tpu.memory_space<semaphore_mem>> -> memref<!tpu.dma_semaphore, #tpu.memory_space<semaphore_mem>>
    tpu.wait_dma2 semaphore(%377 : memref<!tpu.dma_semaphore, #tpu.memory_space<semaphore_mem>>) src(%373 : memref<1024x8192xbf16, #tpu.memory_space<hbm>>) dst(%375 : memref<1024x8192xbf16, #tpu.memory_space<vmem>>)
    %c1_i32_438 = arith.constant 1 : i32
    %c1_i32_439 = arith.constant 1 : i32
    %c3072_i32_440 = arith.constant 3072 : i32
    %c0_i32_441 = arith.constant 0 : i32
    %378 = tpu.memref_slice %arg1[%c3072_i32_440, %c0_i32_441] : memref<8192x2048xbf16, #tpu.memory_space<hbm>> -> memref<1024x8192xbf16, #tpu.memory_space<hbm>>
    %c0_i32_442 = arith.constant 0 : i32
    %c0_i32_443 = arith.constant 0 : i32
    %379 = tpu.memref_slice %arg3[%c1_i32_438, %c0_i32_442, %c0_i32_443] : memref<2x1024x8192xbf16, #tpu.memory_space<vmem>> -> memref<1x1024x8192xbf16, #tpu.memory_space<vmem>>
    %380 = tpu.memref_squeeze %379 : memref<1x1024x8192xbf16, #tpu.memory_space<vmem>> -> memref<1024x8192xbf16, #tpu.memory_space<vmem>>
    %381 = tpu.memref_slice %arg4[%c1_i32_439] : memref<2x!tpu.dma_semaphore, #tpu.memory_space<semaphore_mem>> -> memref<1x!tpu.dma_semaphore, #tpu.memory_space<semaphore_mem>>
    %382 = tpu.memref_squeeze %381 : memref<1x!tpu.dma_semaphore, #tpu.memory_space<semaphore_mem>> -> memref<!tpu.dma_semaphore, #tpu.memory_space<semaphore_mem>>
    tpu.enqueue_dma source(%378 : memref<1024x8192xbf16, #tpu.memory_space<hbm>>) target(%380 : memref<1024x8192xbf16, #tpu.memory_space<vmem>>) target_semaphore(%382 : memref<!tpu.dma_semaphore, #tpu.memory_space<semaphore_mem>>)
    %cst_444 = arith.constant 1.000000e+00 : f32
    %383 = arith.addf %372, %cst_444 : f32
    %c0_i32_445 = arith.constant 0 : i32
    %c0_i32_446 = arith.constant 0 : i32
    %c2048_i32_447 = arith.constant 2048 : i32
    %c0_i32_448 = arith.constant 0 : i32
    %384 = tpu.memref_slice %arg1[%c2048_i32_447, %c0_i32_448] : memref<8192x2048xbf16, #tpu.memory_space<hbm>> -> memref<1024x8192xbf16, #tpu.memory_space<hbm>>
    %c0_i32_449 = arith.constant 0 : i32
    %c0_i32_450 = arith.constant 0 : i32
    %385 = tpu.memref_slice %arg3[%c0_i32_445, %c0_i32_449, %c0_i32_450] : memref<2x1024x8192xbf16, #tpu.memory_space<vmem>> -> memref<1x1024x8192xbf16, #tpu.memory_space<vmem>>
    %386 = tpu.memref_squeeze %385 : memref<1x1024x8192xbf16, #tpu.memory_space<vmem>> -> memref<1024x8192xbf16, #tpu.memory_space<vmem>>
    %387 = tpu.memref_slice %arg4[%c0_i32_446] : memref<2x!tpu.dma_semaphore, #tpu.memory_space<semaphore_mem>> -> memref<1x!tpu.dma_semaphore, #tpu.memory_space<semaphore_mem>>
    %388 = tpu.memref_squeeze %387 : memref<1x!tpu.dma_semaphore, #tpu.memory_space<semaphore_mem>> -> memref<!tpu.dma_semaphore, #tpu.memory_space<semaphore_mem>>
    tpu.wait_dma2 semaphore(%388 : memref<!tpu.dma_semaphore, #tpu.memory_space<semaphore_mem>>) src(%384 : memref<1024x8192xbf16, #tpu.memory_space<hbm>>) dst(%386 : memref<1024x8192xbf16, #tpu.memory_space<vmem>>)
    %c0_i32_451 = arith.constant 0 : i32
    %c0_i32_452 = arith.constant 0 : i32
    %c4096_i32_453 = arith.constant 4096 : i32
    %c0_i32_454 = arith.constant 0 : i32
    %389 = tpu.memref_slice %arg1[%c4096_i32_453, %c0_i32_454] : memref<8192x2048xbf16, #tpu.memory_space<hbm>> -> memref<1024x8192xbf16, #tpu.memory_space<hbm>>
    %c0_i32_455 = arith.constant 0 : i32
    %c0_i32_456 = arith.constant 0 : i32
    %390 = tpu.memref_slice %arg3[%c0_i32_451, %c0_i32_455, %c0_i32_456] : memref<2x1024x8192xbf16, #tpu.memory_space<vmem>> -> memref<1x1024x8192xbf16, #tpu.memory_space<vmem>>
    %391 = tpu.memref_squeeze %390 : memref<1x1024x8192xbf16, #tpu.memory_space<vmem>> -> memref<1024x8192xbf16, #tpu.memory_space<vmem>>
    %392 = tpu.memref_slice %arg4[%c0_i32_452] : memref<2x!tpu.dma_semaphore, #tpu.memory_space<semaphore_mem>> -> memref<1x!tpu.dma_semaphore, #tpu.memory_space<semaphore_mem>>
    %393 = tpu.memref_squeeze %392 : memref<1x!tpu.dma_semaphore, #tpu.memory_space<semaphore_mem>> -> memref<!tpu.dma_semaphore, #tpu.memory_space<semaphore_mem>>
    tpu.enqueue_dma source(%389 : memref<1024x8192xbf16, #tpu.memory_space<hbm>>) target(%391 : memref<1024x8192xbf16, #tpu.memory_space<vmem>>) target_semaphore(%393 : memref<!tpu.dma_semaphore, #tpu.memory_space<semaphore_mem>>)
    %cst_457 = arith.constant 1.000000e+00 : f32
    %394 = arith.addf %383, %cst_457 : f32
    %c1_i32_458 = arith.constant 1 : i32
    %c1_i32_459 = arith.constant 1 : i32
    %c3072_i32_460 = arith.constant 3072 : i32
    %c0_i32_461 = arith.constant 0 : i32
    %395 = tpu.memref_slice %arg1[%c3072_i32_460, %c0_i32_461] : memref<8192x2048xbf16, #tpu.memory_space<hbm>> -> memref<1024x8192xbf16, #tpu.memory_space<hbm>>
    %c0_i32_462 = arith.constant 0 : i32
    %c0_i32_463 = arith.constant 0 : i32
    %396 = tpu.memref_slice %arg3[%c1_i32_458, %c0_i32_462, %c0_i32_463] : memref<2x1024x8192xbf16, #tpu.memory_space<vmem>> -> memref<1x1024x8192xbf16, #tpu.memory_space<vmem>>
    %397 = tpu.memref_squeeze %396 : memref<1x1024x8192xbf16, #tpu.memory_space<vmem>> -> memref<1024x8192xbf16, #tpu.memory_space<vmem>>
    %398 = tpu.memref_slice %arg4[%c1_i32_459] : memref<2x!tpu.dma_semaphore, #tpu.memory_space<semaphore_mem>> -> memref<1x!tpu.dma_semaphore, #tpu.memory_space<semaphore_mem>>
    %399 = tpu.memref_squeeze %398 : memref<1x!tpu.dma_semaphore, #tpu.memory_space<semaphore_mem>> -> memref<!tpu.dma_semaphore, #tpu.memory_space<semaphore_mem>>
    tpu.wait_dma2 semaphore(%399 : memref<!tpu.dma_semaphore, #tpu.memory_space<semaphore_mem>>) src(%395 : memref<1024x8192xbf16, #tpu.memory_space<hbm>>) dst(%397 : memref<1024x8192xbf16, #tpu.memory_space<vmem>>)
    %c1_i32_464 = arith.constant 1 : i32
    %c1_i32_465 = arith.constant 1 : i32
    %c5120_i32_466 = arith.constant 5120 : i32
    %c0_i32_467 = arith.constant 0 : i32
    %400 = tpu.memref_slice %arg1[%c5120_i32_466, %c0_i32_467] : memref<8192x2048xbf16, #tpu.memory_space<hbm>> -> memref<1024x8192xbf16, #tpu.memory_space<hbm>>
    %c0_i32_468 = arith.constant 0 : i32
    %c0_i32_469 = arith.constant 0 : i32
    %401 = tpu.memref_slice %arg3[%c1_i32_464, %c0_i32_468, %c0_i32_469] : memref<2x1024x8192xbf16, #tpu.memory_space<vmem>> -> memref<1x1024x8192xbf16, #tpu.memory_space<vmem>>
    %402 = tpu.memref_squeeze %401 : memref<1x1024x8192xbf16, #tpu.memory_space<vmem>> -> memref<1024x8192xbf16, #tpu.memory_space<vmem>>
    %403 = tpu.memref_slice %arg4[%c1_i32_465] : memref<2x!tpu.dma_semaphore, #tpu.memory_space<semaphore_mem>> -> memref<1x!tpu.dma_semaphore, #tpu.memory_space<semaphore_mem>>
    %404 = tpu.memref_squeeze %403 : memref<1x!tpu.dma_semaphore, #tpu.memory_space<semaphore_mem>> -> memref<!tpu.dma_semaphore, #tpu.memory_space<semaphore_mem>>
    tpu.enqueue_dma source(%400 : memref<1024x8192xbf16, #tpu.memory_space<hbm>>) target(%402 : memref<1024x8192xbf16, #tpu.memory_space<vmem>>) target_semaphore(%404 : memref<!tpu.dma_semaphore, #tpu.memory_space<semaphore_mem>>)
    %cst_470 = arith.constant 1.000000e+00 : f32
    %405 = arith.addf %394, %cst_470 : f32
    %c0_i32_471 = arith.constant 0 : i32
    %c0_i32_472 = arith.constant 0 : i32
    %c4096_i32_473 = arith.constant 4096 : i32
    %c0_i32_474 = arith.constant 0 : i32
    %406 = tpu.memref_slice %arg1[%c4096_i32_473, %c0_i32_474] : memref<8192x2048xbf16, #tpu.memory_space<hbm>> -> memref<1024x8192xbf16, #tpu.memory_space<hbm>>
    %c0_i32_475 = arith.constant 0 : i32
    %c0_i32_476 = arith.constant 0 : i32
    %407 = tpu.memref_slice %arg3[%c0_i32_471, %c0_i32_475, %c0_i32_476] : memref<2x1024x8192xbf16, #tpu.memory_space<vmem>> -> memref<1x1024x8192xbf16, #tpu.memory_space<vmem>>
    %408 = tpu.memref_squeeze %407 : memref<1x1024x8192xbf16, #tpu.memory_space<vmem>> -> memref<1024x8192xbf16, #tpu.memory_space<vmem>>
    %409 = tpu.memref_slice %arg4[%c0_i32_472] : memref<2x!tpu.dma_semaphore, #tpu.memory_space<semaphore_mem>> -> memref<1x!tpu.dma_semaphore, #tpu.memory_space<semaphore_mem>>
    %410 = tpu.memref_squeeze %409 : memref<1x!tpu.dma_semaphore, #tpu.memory_space<semaphore_mem>> -> memref<!tpu.dma_semaphore, #tpu.memory_space<semaphore_mem>>
    tpu.wait_dma2 semaphore(%410 : memref<!tpu.dma_semaphore, #tpu.memory_space<semaphore_mem>>) src(%406 : memref<1024x8192xbf16, #tpu.memory_space<hbm>>) dst(%408 : memref<1024x8192xbf16, #tpu.memory_space<vmem>>)
    %c0_i32_477 = arith.constant 0 : i32
    %c0_i32_478 = arith.constant 0 : i32
    %c6144_i32_479 = arith.constant 6144 : i32
    %c0_i32_480 = arith.constant 0 : i32
    %411 = tpu.memref_slice %arg1[%c6144_i32_479, %c0_i32_480] : memref<8192x2048xbf16, #tpu.memory_space<hbm>> -> memref<1024x8192xbf16, #tpu.memory_space<hbm>>
    %c0_i32_481 = arith.constant 0 : i32
    %c0_i32_482 = arith.constant 0 : i32
    %412 = tpu.memref_slice %arg3[%c0_i32_477, %c0_i32_481, %c0_i32_482] : memref<2x1024x8192xbf16, #tpu.memory_space<vmem>> -> memref<1x1024x8192xbf16, #tpu.memory_space<vmem>>
    %413 = tpu.memref_squeeze %412 : memref<1x1024x8192xbf16, #tpu.memory_space<vmem>> -> memref<1024x8192xbf16, #tpu.memory_space<vmem>>
    %414 = tpu.memref_slice %arg4[%c0_i32_478] : memref<2x!tpu.dma_semaphore, #tpu.memory_space<semaphore_mem>> -> memref<1x!tpu.dma_semaphore, #tpu.memory_space<semaphore_mem>>
    %415 = tpu.memref_squeeze %414 : memref<1x!tpu.dma_semaphore, #tpu.memory_space<semaphore_mem>> -> memref<!tpu.dma_semaphore, #tpu.memory_space<semaphore_mem>>
    tpu.enqueue_dma source(%411 : memref<1024x8192xbf16, #tpu.memory_space<hbm>>) target(%413 : memref<1024x8192xbf16, #tpu.memory_space<vmem>>) target_semaphore(%415 : memref<!tpu.dma_semaphore, #tpu.memory_space<semaphore_mem>>)
    %cst_483 = arith.constant 1.000000e+00 : f32
    %416 = arith.addf %405, %cst_483 : f32
    %c1_i32_484 = arith.constant 1 : i32
    %c1_i32_485 = arith.constant 1 : i32
    %c5120_i32_486 = arith.constant 5120 : i32
    %c0_i32_487 = arith.constant 0 : i32
    %417 = tpu.memref_slice %arg1[%c5120_i32_486, %c0_i32_487] : memref<8192x2048xbf16, #tpu.memory_space<hbm>> -> memref<1024x8192xbf16, #tpu.memory_space<hbm>>
    %c0_i32_488 = arith.constant 0 : i32
    %c0_i32_489 = arith.constant 0 : i32
    %418 = tpu.memref_slice %arg3[%c1_i32_484, %c0_i32_488, %c0_i32_489] : memref<2x1024x8192xbf16, #tpu.memory_space<vmem>> -> memref<1x1024x8192xbf16, #tpu.memory_space<vmem>>
    %419 = tpu.memref_squeeze %418 : memref<1x1024x8192xbf16, #tpu.memory_space<vmem>> -> memref<1024x8192xbf16, #tpu.memory_space<vmem>>
    %420 = tpu.memref_slice %arg4[%c1_i32_485] : memref<2x!tpu.dma_semaphore, #tpu.memory_space<semaphore_mem>> -> memref<1x!tpu.dma_semaphore, #tpu.memory_space<semaphore_mem>>
    %421 = tpu.memref_squeeze %420 : memref<1x!tpu.dma_semaphore, #tpu.memory_space<semaphore_mem>> -> memref<!tpu.dma_semaphore, #tpu.memory_space<semaphore_mem>>
    tpu.wait_dma2 semaphore(%421 : memref<!tpu.dma_semaphore, #tpu.memory_space<semaphore_mem>>) src(%417 : memref<1024x8192xbf16, #tpu.memory_space<hbm>>) dst(%419 : memref<1024x8192xbf16, #tpu.memory_space<vmem>>)
    %c1_i32_490 = arith.constant 1 : i32
    %c1_i32_491 = arith.constant 1 : i32
    %c7168_i32_492 = arith.constant 7168 : i32
    %c0_i32_493 = arith.constant 0 : i32
    %422 = tpu.memref_slice %arg1[%c7168_i32_492, %c0_i32_493] : memref<8192x2048xbf16, #tpu.memory_space<hbm>> -> memref<1024x8192xbf16, #tpu.memory_space<hbm>>
    %c0_i32_494 = arith.constant 0 : i32
    %c0_i32_495 = arith.constant 0 : i32
    %423 = tpu.memref_slice %arg3[%c1_i32_490, %c0_i32_494, %c0_i32_495] : memref<2x1024x8192xbf16, #tpu.memory_space<vmem>> -> memref<1x1024x8192xbf16, #tpu.memory_space<vmem>>
    %424 = tpu.memref_squeeze %423 : memref<1x1024x8192xbf16, #tpu.memory_space<vmem>> -> memref<1024x8192xbf16, #tpu.memory_space<vmem>>
    %425 = tpu.memref_slice %arg4[%c1_i32_491] : memref<2x!tpu.dma_semaphore, #tpu.memory_space<semaphore_mem>> -> memref<1x!tpu.dma_semaphore, #tpu.memory_space<semaphore_mem>>
    %426 = tpu.memref_squeeze %425 : memref<1x!tpu.dma_semaphore, #tpu.memory_space<semaphore_mem>> -> memref<!tpu.dma_semaphore, #tpu.memory_space<semaphore_mem>>
    tpu.enqueue_dma source(%422 : memref<1024x8192xbf16, #tpu.memory_space<hbm>>) target(%424 : memref<1024x8192xbf16, #tpu.memory_space<vmem>>) target_semaphore(%426 : memref<!tpu.dma_semaphore, #tpu.memory_space<semaphore_mem>>)
    %cst_496 = arith.constant 1.000000e+00 : f32
    %427 = arith.addf %416, %cst_496 : f32
    %c0_i32_497 = arith.constant 0 : i32
    %c0_i32_498 = arith.constant 0 : i32
    %c6144_i32_499 = arith.constant 6144 : i32
    %c0_i32_500 = arith.constant 0 : i32
    %428 = tpu.memref_slice %arg1[%c6144_i32_499, %c0_i32_500] : memref<8192x2048xbf16, #tpu.memory_space<hbm>> -> memref<1024x8192xbf16, #tpu.memory_space<hbm>>
    %c0_i32_501 = arith.constant 0 : i32
    %c0_i32_502 = arith.constant 0 : i32
    %429 = tpu.memref_slice %arg3[%c0_i32_497, %c0_i32_501, %c0_i32_502] : memref<2x1024x8192xbf16, #tpu.memory_space<vmem>> -> memref<1x1024x8192xbf16, #tpu.memory_space<vmem>>
    %430 = tpu.memref_squeeze %429 : memref<1x1024x8192xbf16, #tpu.memory_space<vmem>> -> memref<1024x8192xbf16, #tpu.memory_space<vmem>>
    %431 = tpu.memref_slice %arg4[%c0_i32_498] : memref<2x!tpu.dma_semaphore, #tpu.memory_space<semaphore_mem>> -> memref<1x!tpu.dma_semaphore, #tpu.memory_space<semaphore_mem>>
    %432 = tpu.memref_squeeze %431 : memref<1x!tpu.dma_semaphore, #tpu.memory_space<semaphore_mem>> -> memref<!tpu.dma_semaphore, #tpu.memory_space<semaphore_mem>>
    tpu.wait_dma2 semaphore(%432 : memref<!tpu.dma_semaphore, #tpu.memory_space<semaphore_mem>>) src(%428 : memref<1024x8192xbf16, #tpu.memory_space<hbm>>) dst(%430 : memref<1024x8192xbf16, #tpu.memory_space<vmem>>)
    %c0_i32_503 = arith.constant 0 : i32
    %c0_i32_504 = arith.constant 0 : i32
    %c0_i32_505 = arith.constant 0 : i32
    %c0_i32_506 = arith.constant 0 : i32
    %433 = tpu.memref_slice %arg1[%c0_i32_505, %c0_i32_506] : memref<8192x2048xbf16, #tpu.memory_space<hbm>> -> memref<1024x8192xbf16, #tpu.memory_space<hbm>>
    %c0_i32_507 = arith.constant 0 : i32
    %c0_i32_508 = arith.constant 0 : i32
    %434 = tpu.memref_slice %arg3[%c0_i32_503, %c0_i32_507, %c0_i32_508] : memref<2x1024x8192xbf16, #tpu.memory_space<vmem>> -> memref<1x1024x8192xbf16, #tpu.memory_space<vmem>>
    %435 = tpu.memref_squeeze %434 : memref<1x1024x8192xbf16, #tpu.memory_space<vmem>> -> memref<1024x8192xbf16, #tpu.memory_space<vmem>>
    %436 = tpu.memref_slice %arg4[%c0_i32_504] : memref<2x!tpu.dma_semaphore, #tpu.memory_space<semaphore_mem>> -> memref<1x!tpu.dma_semaphore, #tpu.memory_space<semaphore_mem>>
    %437 = tpu.memref_squeeze %436 : memref<1x!tpu.dma_semaphore, #tpu.memory_space<semaphore_mem>> -> memref<!tpu.dma_semaphore, #tpu.memory_space<semaphore_mem>>
    tpu.enqueue_dma source(%433 : memref<1024x8192xbf16, #tpu.memory_space<hbm>>) target(%435 : memref<1024x8192xbf16, #tpu.memory_space<vmem>>) target_semaphore(%437 : memref<!tpu.dma_semaphore, #tpu.memory_space<semaphore_mem>>)
    %cst_509 = arith.constant 1.000000e+00 : f32
    %438 = arith.addf %427, %cst_509 : f32
    %c1_i32_510 = arith.constant 1 : i32
    %c1_i32_511 = arith.constant 1 : i32
    %c7168_i32_512 = arith.constant 7168 : i32
    %c0_i32_513 = arith.constant 0 : i32
    %439 = tpu.memref_slice %arg1[%c7168_i32_512, %c0_i32_513] : memref<8192x2048xbf16, #tpu.memory_space<hbm>> -> memref<1024x8192xbf16, #tpu.memory_space<hbm>>
    %c0_i32_514 = arith.constant 0 : i32
    %c0_i32_515 = arith.constant 0 : i32
    %440 = tpu.memref_slice %arg3[%c1_i32_510, %c0_i32_514, %c0_i32_515] : memref<2x1024x8192xbf16, #tpu.memory_space<vmem>> -> memref<1x1024x8192xbf16, #tpu.memory_space<vmem>>
    %441 = tpu.memref_squeeze %440 : memref<1x1024x8192xbf16, #tpu.memory_space<vmem>> -> memref<1024x8192xbf16, #tpu.memory_space<vmem>>
    %442 = tpu.memref_slice %arg4[%c1_i32_511] : memref<2x!tpu.dma_semaphore, #tpu.memory_space<semaphore_mem>> -> memref<1x!tpu.dma_semaphore, #tpu.memory_space<semaphore_mem>>
    %443 = tpu.memref_squeeze %442 : memref<1x!tpu.dma_semaphore, #tpu.memory_space<semaphore_mem>> -> memref<!tpu.dma_semaphore, #tpu.memory_space<semaphore_mem>>
    tpu.wait_dma2 semaphore(%443 : memref<!tpu.dma_semaphore, #tpu.memory_space<semaphore_mem>>) src(%439 : memref<1024x8192xbf16, #tpu.memory_space<hbm>>) dst(%441 : memref<1024x8192xbf16, #tpu.memory_space<vmem>>)
    %c1_i32_516 = arith.constant 1 : i32
    %c1_i32_517 = arith.constant 1 : i32
    %c1024_i32_518 = arith.constant 1024 : i32
    %c0_i32_519 = arith.constant 0 : i32
    %444 = tpu.memref_slice %arg1[%c1024_i32_518, %c0_i32_519] : memref<8192x2048xbf16, #tpu.memory_space<hbm>> -> memref<1024x8192xbf16, #tpu.memory_space<hbm>>
    %c0_i32_520 = arith.constant 0 : i32
    %c0_i32_521 = arith.constant 0 : i32
    %445 = tpu.memref_slice %arg3[%c1_i32_516, %c0_i32_520, %c0_i32_521] : memref<2x1024x8192xbf16, #tpu.memory_space<vmem>> -> memref<1x1024x8192xbf16, #tpu.memory_space<vmem>>
    %446 = tpu.memref_squeeze %445 : memref<1x1024x8192xbf16, #tpu.memory_space<vmem>> -> memref<1024x8192xbf16, #tpu.memory_space<vmem>>
    %447 = tpu.memref_slice %arg4[%c1_i32_517] : memref<2x!tpu.dma_semaphore, #tpu.memory_space<semaphore_mem>> -> memref<1x!tpu.dma_semaphore, #tpu.memory_space<semaphore_mem>>
    %448 = tpu.memref_squeeze %447 : memref<1x!tpu.dma_semaphore, #tpu.memory_space<semaphore_mem>> -> memref<!tpu.dma_semaphore, #tpu.memory_space<semaphore_mem>>
    tpu.enqueue_dma source(%444 : memref<1024x8192xbf16, #tpu.memory_space<hbm>>) target(%446 : memref<1024x8192xbf16, #tpu.memory_space<vmem>>) target_semaphore(%448 : memref<!tpu.dma_semaphore, #tpu.memory_space<semaphore_mem>>)
    %cst_522 = arith.constant 1.000000e+00 : f32
    %449 = arith.addf %438, %cst_522 : f32
    %c0_i32_523 = arith.constant 0 : i32
    %c0_i32_524 = arith.constant 0 : i32
    %c0_i32_525 = arith.constant 0 : i32
    %c0_i32_526 = arith.constant 0 : i32
    %450 = tpu.memref_slice %arg1[%c0_i32_525, %c0_i32_526] : memref<8192x2048xbf16, #tpu.memory_space<hbm>> -> memref<1024x8192xbf16, #tpu.memory_space<hbm>>
    %c0_i32_527 = arith.constant 0 : i32
    %c0_i32_528 = arith.constant 0 : i32
    %451 = tpu.memref_slice %arg3[%c0_i32_523, %c0_i32_527, %c0_i32_528] : memref<2x1024x8192xbf16, #tpu.memory_space<vmem>> -> memref<1x1024x8192xbf16, #tpu.memory_space<vmem>>
    %452 = tpu.memref_squeeze %451 : memref<1x1024x8192xbf16, #tpu.memory_space<vmem>> -> memref<1024x8192xbf16, #tpu.memory_space<vmem>>
    %453 = tpu.memref_slice %arg4[%c0_i32_524] : memref<2x!tpu.dma_semaphore, #tpu.memory_space<semaphore_mem>> -> memref<1x!tpu.dma_semaphore, #tpu.memory_space<semaphore_mem>>
    %454 = tpu.memref_squeeze %453 : memref<1x!tpu.dma_semaphore, #tpu.memory_space<semaphore_mem>> -> memref<!tpu.dma_semaphore, #tpu.memory_space<semaphore_mem>>
    tpu.wait_dma2 semaphore(%454 : memref<!tpu.dma_semaphore, #tpu.memory_space<semaphore_mem>>) src(%450 : memref<1024x8192xbf16, #tpu.memory_space<hbm>>) dst(%452 : memref<1024x8192xbf16, #tpu.memory_space<vmem>>)
    %c0_i32_529 = arith.constant 0 : i32
    %c0_i32_530 = arith.constant 0 : i32
    %c2048_i32_531 = arith.constant 2048 : i32
    %c0_i32_532 = arith.constant 0 : i32
    %455 = tpu.memref_slice %arg1[%c2048_i32_531, %c0_i32_532] : memref<8192x2048xbf16, #tpu.memory_space<hbm>> -> memref<1024x8192xbf16, #tpu.memory_space<hbm>>
    %c0_i32_533 = arith.constant 0 : i32
    %c0_i32_534 = arith.constant 0 : i32
    %456 = tpu.memref_slice %arg3[%c0_i32_529, %c0_i32_533, %c0_i32_534] : memref<2x1024x8192xbf16, #tpu.memory_space<vmem>> -> memref<1x1024x8192xbf16, #tpu.memory_space<vmem>>
    %457 = tpu.memref_squeeze %456 : memref<1x1024x8192xbf16, #tpu.memory_space<vmem>> -> memref<1024x8192xbf16, #tpu.memory_space<vmem>>
    %458 = tpu.memref_slice %arg4[%c0_i32_530] : memref<2x!tpu.dma_semaphore, #tpu.memory_space<semaphore_mem>> -> memref<1x!tpu.dma_semaphore, #tpu.memory_space<semaphore_mem>>
    %459 = tpu.memref_squeeze %458 : memref<1x!tpu.dma_semaphore, #tpu.memory_space<semaphore_mem>> -> memref<!tpu.dma_semaphore, #tpu.memory_space<semaphore_mem>>
    tpu.enqueue_dma source(%455 : memref<1024x8192xbf16, #tpu.memory_space<hbm>>) target(%457 : memref<1024x8192xbf16, #tpu.memory_space<vmem>>) target_semaphore(%459 : memref<!tpu.dma_semaphore, #tpu.memory_space<semaphore_mem>>)
    %cst_535 = arith.constant 1.000000e+00 : f32
    %460 = arith.addf %449, %cst_535 : f32
    %c1_i32_536 = arith.constant 1 : i32
    %c1_i32_537 = arith.constant 1 : i32
    %c1024_i32_538 = arith.constant 1024 : i32
    %c0_i32_539 = arith.constant 0 : i32
    %461 = tpu.memref_slice %arg1[%c1024_i32_538, %c0_i32_539] : memref<8192x2048xbf16, #tpu.memory_space<hbm>> -> memref<1024x8192xbf16, #tpu.memory_space<hbm>>
    %c0_i32_540 = arith.constant 0 : i32
    %c0_i32_541 = arith.constant 0 : i32
    %462 = tpu.memref_slice %arg3[%c1_i32_536, %c0_i32_540, %c0_i32_541] : memref<2x1024x8192xbf16, #tpu.memory_space<vmem>> -> memref<1x1024x8192xbf16, #tpu.memory_space<vmem>>
    %463 = tpu.memref_squeeze %462 : memref<1x1024x8192xbf16, #tpu.memory_space<vmem>> -> memref<1024x8192xbf16, #tpu.memory_space<vmem>>
    %464 = tpu.memref_slice %arg4[%c1_i32_537] : memref<2x!tpu.dma_semaphore, #tpu.memory_space<semaphore_mem>> -> memref<1x!tpu.dma_semaphore, #tpu.memory_space<semaphore_mem>>
    %465 = tpu.memref_squeeze %464 : memref<1x!tpu.dma_semaphore, #tpu.memory_space<semaphore_mem>> -> memref<!tpu.dma_semaphore, #tpu.memory_space<semaphore_mem>>
    tpu.wait_dma2 semaphore(%465 : memref<!tpu.dma_semaphore, #tpu.memory_space<semaphore_mem>>) src(%461 : memref<1024x8192xbf16, #tpu.memory_space<hbm>>) dst(%463 : memref<1024x8192xbf16, #tpu.memory_space<vmem>>)
    %c1_i32_542 = arith.constant 1 : i32
    %c1_i32_543 = arith.constant 1 : i32
    %c3072_i32_544 = arith.constant 3072 : i32
    %c0_i32_545 = arith.constant 0 : i32
    %466 = tpu.memref_slice %arg1[%c3072_i32_544, %c0_i32_545] : memref<8192x2048xbf16, #tpu.memory_space<hbm>> -> memref<1024x8192xbf16, #tpu.memory_space<hbm>>
    %c0_i32_546 = arith.constant 0 : i32
    %c0_i32_547 = arith.constant 0 : i32
    %467 = tpu.memref_slice %arg3[%c1_i32_542, %c0_i32_546, %c0_i32_547] : memref<2x1024x8192xbf16, #tpu.memory_space<vmem>> -> memref<1x1024x8192xbf16, #tpu.memory_space<vmem>>
    %468 = tpu.memref_squeeze %467 : memref<1x1024x8192xbf16, #tpu.memory_space<vmem>> -> memref<1024x8192xbf16, #tpu.memory_space<vmem>>
    %469 = tpu.memref_slice %arg4[%c1_i32_543] : memref<2x!tpu.dma_semaphore, #tpu.memory_space<semaphore_mem>> -> memref<1x!tpu.dma_semaphore, #tpu.memory_space<semaphore_mem>>
    %470 = tpu.memref_squeeze %469 : memref<1x!tpu.dma_semaphore, #tpu.memory_space<semaphore_mem>> -> memref<!tpu.dma_semaphore, #tpu.memory_space<semaphore_mem>>
    tpu.enqueue_dma source(%466 : memref<1024x8192xbf16, #tpu.memory_space<hbm>>) target(%468 : memref<1024x8192xbf16, #tpu.memory_space<vmem>>) target_semaphore(%470 : memref<!tpu.dma_semaphore, #tpu.memory_space<semaphore_mem>>)
    %cst_548 = arith.constant 1.000000e+00 : f32
    %471 = arith.addf %460, %cst_548 : f32
    %c0_i32_549 = arith.constant 0 : i32
    %c0_i32_550 = arith.constant 0 : i32
    %c2048_i32_551 = arith.constant 2048 : i32
    %c0_i32_552 = arith.constant 0 : i32
    %472 = tpu.memref_slice %arg1[%c2048_i32_551, %c0_i32_552] : memref<8192x2048xbf16, #tpu.memory_space<hbm>> -> memref<1024x8192xbf16, #tpu.memory_space<hbm>>
    %c0_i32_553 = arith.constant 0 : i32
    %c0_i32_554 = arith.constant 0 : i32
    %473 = tpu.memref_slice %arg3[%c0_i32_549, %c0_i32_553, %c0_i32_554] : memref<2x1024x8192xbf16, #tpu.memory_space<vmem>> -> memref<1x1024x8192xbf16, #tpu.memory_space<vmem>>
    %474 = tpu.memref_squeeze %473 : memref<1x1024x8192xbf16, #tpu.memory_space<vmem>> -> memref<1024x8192xbf16, #tpu.memory_space<vmem>>
    %475 = tpu.memref_slice %arg4[%c0_i32_550] : memref<2x!tpu.dma_semaphore, #tpu.memory_space<semaphore_mem>> -> memref<1x!tpu.dma_semaphore, #tpu.memory_space<semaphore_mem>>
    %476 = tpu.memref_squeeze %475 : memref<1x!tpu.dma_semaphore, #tpu.memory_space<semaphore_mem>> -> memref<!tpu.dma_semaphore, #tpu.memory_space<semaphore_mem>>
    tpu.wait_dma2 semaphore(%476 : memref<!tpu.dma_semaphore, #tpu.memory_space<semaphore_mem>>) src(%472 : memref<1024x8192xbf16, #tpu.memory_space<hbm>>) dst(%474 : memref<1024x8192xbf16, #tpu.memory_space<vmem>>)
    %c0_i32_555 = arith.constant 0 : i32
    %c0_i32_556 = arith.constant 0 : i32
    %c4096_i32_557 = arith.constant 4096 : i32
    %c0_i32_558 = arith.constant 0 : i32
    %477 = tpu.memref_slice %arg1[%c4096_i32_557, %c0_i32_558] : memref<8192x2048xbf16, #tpu.memory_space<hbm>> -> memref<1024x8192xbf16, #tpu.memory_space<hbm>>
    %c0_i32_559 = arith.constant 0 : i32
    %c0_i32_560 = arith.constant 0 : i32
    %478 = tpu.memref_slice %arg3[%c0_i32_555, %c0_i32_559, %c0_i32_560] : memref<2x1024x8192xbf16, #tpu.memory_space<vmem>> -> memref<1x1024x8192xbf16, #tpu.memory_space<vmem>>
    %479 = tpu.memref_squeeze %478 : memref<1x1024x8192xbf16, #tpu.memory_space<vmem>> -> memref<1024x8192xbf16, #tpu.memory_space<vmem>>
    %480 = tpu.memref_slice %arg4[%c0_i32_556] : memref<2x!tpu.dma_semaphore, #tpu.memory_space<semaphore_mem>> -> memref<1x!tpu.dma_semaphore, #tpu.memory_space<semaphore_mem>>
    %481 = tpu.memref_squeeze %480 : memref<1x!tpu.dma_semaphore, #tpu.memory_space<semaphore_mem>> -> memref<!tpu.dma_semaphore, #tpu.memory_space<semaphore_mem>>
    tpu.enqueue_dma source(%477 : memref<1024x8192xbf16, #tpu.memory_space<hbm>>) target(%479 : memref<1024x8192xbf16, #tpu.memory_space<vmem>>) target_semaphore(%481 : memref<!tpu.dma_semaphore, #tpu.memory_space<semaphore_mem>>)
    %cst_561 = arith.constant 1.000000e+00 : f32
    %482 = arith.addf %471, %cst_561 : f32
    %c1_i32_562 = arith.constant 1 : i32
    %c1_i32_563 = arith.constant 1 : i32
    %c3072_i32_564 = arith.constant 3072 : i32
    %c0_i32_565 = arith.constant 0 : i32
    %483 = tpu.memref_slice %arg1[%c3072_i32_564, %c0_i32_565] : memref<8192x2048xbf16, #tpu.memory_space<hbm>> -> memref<1024x8192xbf16, #tpu.memory_space<hbm>>
    %c0_i32_566 = arith.constant 0 : i32
    %c0_i32_567 = arith.constant 0 : i32
    %484 = tpu.memref_slice %arg3[%c1_i32_562, %c0_i32_566, %c0_i32_567] : memref<2x1024x8192xbf16, #tpu.memory_space<vmem>> -> memref<1x1024x8192xbf16, #tpu.memory_space<vmem>>
    %485 = tpu.memref_squeeze %484 : memref<1x1024x8192xbf16, #tpu.memory_space<vmem>> -> memref<1024x8192xbf16, #tpu.memory_space<vmem>>
    %486 = tpu.memref_slice %arg4[%c1_i32_563] : memref<2x!tpu.dma_semaphore, #tpu.memory_space<semaphore_mem>> -> memref<1x!tpu.dma_semaphore, #tpu.memory_space<semaphore_mem>>
    %487 = tpu.memref_squeeze %486 : memref<1x!tpu.dma_semaphore, #tpu.memory_space<semaphore_mem>> -> memref<!tpu.dma_semaphore, #tpu.memory_space<semaphore_mem>>
    tpu.wait_dma2 semaphore(%487 : memref<!tpu.dma_semaphore, #tpu.memory_space<semaphore_mem>>) src(%483 : memref<1024x8192xbf16, #tpu.memory_space<hbm>>) dst(%485 : memref<1024x8192xbf16, #tpu.memory_space<vmem>>)
    %c1_i32_568 = arith.constant 1 : i32
    %c1_i32_569 = arith.constant 1 : i32
    %c5120_i32_570 = arith.constant 5120 : i32
    %c0_i32_571 = arith.constant 0 : i32
    %488 = tpu.memref_slice %arg1[%c5120_i32_570, %c0_i32_571] : memref<8192x2048xbf16, #tpu.memory_space<hbm>> -> memref<1024x8192xbf16, #tpu.memory_space<hbm>>
    %c0_i32_572 = arith.constant 0 : i32
    %c0_i32_573 = arith.constant 0 : i32
    %489 = tpu.memref_slice %arg3[%c1_i32_568, %c0_i32_572, %c0_i32_573] : memref<2x1024x8192xbf16, #tpu.memory_space<vmem>> -> memref<1x1024x8192xbf16, #tpu.memory_space<vmem>>
    %490 = tpu.memref_squeeze %489 : memref<1x1024x8192xbf16, #tpu.memory_space<vmem>> -> memref<1024x8192xbf16, #tpu.memory_space<vmem>>
    %491 = tpu.memref_slice %arg4[%c1_i32_569] : memref<2x!tpu.dma_semaphore, #tpu.memory_space<semaphore_mem>> -> memref<1x!tpu.dma_semaphore, #tpu.memory_space<semaphore_mem>>
    %492 = tpu.memref_squeeze %491 : memref<1x!tpu.dma_semaphore, #tpu.memory_space<semaphore_mem>> -> memref<!tpu.dma_semaphore, #tpu.memory_space<semaphore_mem>>
    tpu.enqueue_dma source(%488 : memref<1024x8192xbf16, #tpu.memory_space<hbm>>) target(%490 : memref<1024x8192xbf16, #tpu.memory_space<vmem>>) target_semaphore(%492 : memref<!tpu.dma_semaphore, #tpu.memory_space<semaphore_mem>>)
    %cst_574 = arith.constant 1.000000e+00 : f32
    %493 = arith.addf %482, %cst_574 : f32
    %c0_i32_575 = arith.constant 0 : i32
    %c0_i32_576 = arith.constant 0 : i32
    %c4096_i32_577 = arith.constant 4096 : i32
    %c0_i32_578 = arith.constant 0 : i32
    %494 = tpu.memref_slice %arg1[%c4096_i32_577, %c0_i32_578] : memref<8192x2048xbf16, #tpu.memory_space<hbm>> -> memref<1024x8192xbf16, #tpu.memory_space<hbm>>
    %c0_i32_579 = arith.constant 0 : i32
    %c0_i32_580 = arith.constant 0 : i32
    %495 = tpu.memref_slice %arg3[%c0_i32_575, %c0_i32_579, %c0_i32_580] : memref<2x1024x8192xbf16, #tpu.memory_space<vmem>> -> memref<1x1024x8192xbf16, #tpu.memory_space<vmem>>
    %496 = tpu.memref_squeeze %495 : memref<1x1024x8192xbf16, #tpu.memory_space<vmem>> -> memref<1024x8192xbf16, #tpu.memory_space<vmem>>
    %497 = tpu.memref_slice %arg4[%c0_i32_576] : memref<2x!tpu.dma_semaphore, #tpu.memory_space<semaphore_mem>> -> memref<1x!tpu.dma_semaphore, #tpu.memory_space<semaphore_mem>>
    %498 = tpu.memref_squeeze %497 : memref<1x!tpu.dma_semaphore, #tpu.memory_space<semaphore_mem>> -> memref<!tpu.dma_semaphore, #tpu.memory_space<semaphore_mem>>
    tpu.wait_dma2 semaphore(%498 : memref<!tpu.dma_semaphore, #tpu.memory_space<semaphore_mem>>) src(%494 : memref<1024x8192xbf16, #tpu.memory_space<hbm>>) dst(%496 : memref<1024x8192xbf16, #tpu.memory_space<vmem>>)
    %c0_i32_581 = arith.constant 0 : i32
    %c0_i32_582 = arith.constant 0 : i32
    %c6144_i32_583 = arith.constant 6144 : i32
    %c0_i32_584 = arith.constant 0 : i32
    %499 = tpu.memref_slice %arg1[%c6144_i32_583, %c0_i32_584] : memref<8192x2048xbf16, #tpu.memory_space<hbm>> -> memref<1024x8192xbf16, #tpu.memory_space<hbm>>
    %c0_i32_585 = arith.constant 0 : i32
    %c0_i32_586 = arith.constant 0 : i32
    %500 = tpu.memref_slice %arg3[%c0_i32_581, %c0_i32_585, %c0_i32_586] : memref<2x1024x8192xbf16, #tpu.memory_space<vmem>> -> memref<1x1024x8192xbf16, #tpu.memory_space<vmem>>
    %501 = tpu.memref_squeeze %500 : memref<1x1024x8192xbf16, #tpu.memory_space<vmem>> -> memref<1024x8192xbf16, #tpu.memory_space<vmem>>
    %502 = tpu.memref_slice %arg4[%c0_i32_582] : memref<2x!tpu.dma_semaphore, #tpu.memory_space<semaphore_mem>> -> memref<1x!tpu.dma_semaphore, #tpu.memory_space<semaphore_mem>>
    %503 = tpu.memref_squeeze %502 : memref<1x!tpu.dma_semaphore, #tpu.memory_space<semaphore_mem>> -> memref<!tpu.dma_semaphore, #tpu.memory_space<semaphore_mem>>
    tpu.enqueue_dma source(%499 : memref<1024x8192xbf16, #tpu.memory_space<hbm>>) target(%501 : memref<1024x8192xbf16, #tpu.memory_space<vmem>>) target_semaphore(%503 : memref<!tpu.dma_semaphore, #tpu.memory_space<semaphore_mem>>)
    %cst_587 = arith.constant 1.000000e+00 : f32
    %504 = arith.addf %493, %cst_587 : f32
    %c1_i32_588 = arith.constant 1 : i32
    %c1_i32_589 = arith.constant 1 : i32
    %c5120_i32_590 = arith.constant 5120 : i32
    %c0_i32_591 = arith.constant 0 : i32
    %505 = tpu.memref_slice %arg1[%c5120_i32_590, %c0_i32_591] : memref<8192x2048xbf16, #tpu.memory_space<hbm>> -> memref<1024x8192xbf16, #tpu.memory_space<hbm>>
    %c0_i32_592 = arith.constant 0 : i32
    %c0_i32_593 = arith.constant 0 : i32
    %506 = tpu.memref_slice %arg3[%c1_i32_588, %c0_i32_592, %c0_i32_593] : memref<2x1024x8192xbf16, #tpu.memory_space<vmem>> -> memref<1x1024x8192xbf16, #tpu.memory_space<vmem>>
    %507 = tpu.memref_squeeze %506 : memref<1x1024x8192xbf16, #tpu.memory_space<vmem>> -> memref<1024x8192xbf16, #tpu.memory_space<vmem>>
    %508 = tpu.memref_slice %arg4[%c1_i32_589] : memref<2x!tpu.dma_semaphore, #tpu.memory_space<semaphore_mem>> -> memref<1x!tpu.dma_semaphore, #tpu.memory_space<semaphore_mem>>
    %509 = tpu.memref_squeeze %508 : memref<1x!tpu.dma_semaphore, #tpu.memory_space<semaphore_mem>> -> memref<!tpu.dma_semaphore, #tpu.memory_space<semaphore_mem>>
    tpu.wait_dma2 semaphore(%509 : memref<!tpu.dma_semaphore, #tpu.memory_space<semaphore_mem>>) src(%505 : memref<1024x8192xbf16, #tpu.memory_space<hbm>>) dst(%507 : memref<1024x8192xbf16, #tpu.memory_space<vmem>>)
    %c1_i32_594 = arith.constant 1 : i32
    %c1_i32_595 = arith.constant 1 : i32
    %c7168_i32_596 = arith.constant 7168 : i32
    %c0_i32_597 = arith.constant 0 : i32
    %510 = tpu.memref_slice %arg1[%c7168_i32_596, %c0_i32_597] : memref<8192x2048xbf16, #tpu.memory_space<hbm>> -> memref<1024x8192xbf16, #tpu.memory_space<hbm>>
    %c0_i32_598 = arith.constant 0 : i32
    %c0_i32_599 = arith.constant 0 : i32
    %511 = tpu.memref_slice %arg3[%c1_i32_594, %c0_i32_598, %c0_i32_599] : memref<2x1024x8192xbf16, #tpu.memory_space<vmem>> -> memref<1x1024x8192xbf16, #tpu.memory_space<vmem>>
    %512 = tpu.memref_squeeze %511 : memref<1x1024x8192xbf16, #tpu.memory_space<vmem>> -> memref<1024x8192xbf16, #tpu.memory_space<vmem>>
    %513 = tpu.memref_slice %arg4[%c1_i32_595] : memref<2x!tpu.dma_semaphore, #tpu.memory_space<semaphore_mem>> -> memref<1x!tpu.dma_semaphore, #tpu.memory_space<semaphore_mem>>
    %514 = tpu.memref_squeeze %513 : memref<1x!tpu.dma_semaphore, #tpu.memory_space<semaphore_mem>> -> memref<!tpu.dma_semaphore, #tpu.memory_space<semaphore_mem>>
    tpu.enqueue_dma source(%510 : memref<1024x8192xbf16, #tpu.memory_space<hbm>>) target(%512 : memref<1024x8192xbf16, #tpu.memory_space<vmem>>) target_semaphore(%514 : memref<!tpu.dma_semaphore, #tpu.memory_space<semaphore_mem>>)
    %cst_600 = arith.constant 1.000000e+00 : f32
    %515 = arith.addf %504, %cst_600 : f32
    %c0_i32_601 = arith.constant 0 : i32
    %c0_i32_602 = arith.constant 0 : i32
    %c6144_i32_603 = arith.constant 6144 : i32
    %c0_i32_604 = arith.constant 0 : i32
    %516 = tpu.memref_slice %arg1[%c6144_i32_603, %c0_i32_604] : memref<8192x2048xbf16, #tpu.memory_space<hbm>> -> memref<1024x8192xbf16, #tpu.memory_space<hbm>>
    %c0_i32_605 = arith.constant 0 : i32
    %c0_i32_606 = arith.constant 0 : i32
    %517 = tpu.memref_slice %arg3[%c0_i32_601, %c0_i32_605, %c0_i32_606] : memref<2x1024x8192xbf16, #tpu.memory_space<vmem>> -> memref<1x1024x8192xbf16, #tpu.memory_space<vmem>>
    %518 = tpu.memref_squeeze %517 : memref<1x1024x8192xbf16, #tpu.memory_space<vmem>> -> memref<1024x8192xbf16, #tpu.memory_space<vmem>>
    %519 = tpu.memref_slice %arg4[%c0_i32_602] : memref<2x!tpu.dma_semaphore, #tpu.memory_space<semaphore_mem>> -> memref<1x!tpu.dma_semaphore, #tpu.memory_space<semaphore_mem>>
    %520 = tpu.memref_squeeze %519 : memref<1x!tpu.dma_semaphore, #tpu.memory_space<semaphore_mem>> -> memref<!tpu.dma_semaphore, #tpu.memory_space<semaphore_mem>>
    tpu.wait_dma2 semaphore(%520 : memref<!tpu.dma_semaphore, #tpu.memory_space<semaphore_mem>>) src(%516 : memref<1024x8192xbf16, #tpu.memory_space<hbm>>) dst(%518 : memref<1024x8192xbf16, #tpu.memory_space<vmem>>)
    %c0_i32_607 = arith.constant 0 : i32
    %c0_i32_608 = arith.constant 0 : i32
    %c0_i32_609 = arith.constant 0 : i32
    %c0_i32_610 = arith.constant 0 : i32
    %521 = tpu.memref_slice %arg1[%c0_i32_609, %c0_i32_610] : memref<8192x2048xbf16, #tpu.memory_space<hbm>> -> memref<1024x8192xbf16, #tpu.memory_space<hbm>>
    %c0_i32_611 = arith.constant 0 : i32
    %c0_i32_612 = arith.constant 0 : i32
    %522 = tpu.memref_slice %arg3[%c0_i32_607, %c0_i32_611, %c0_i32_612] : memref<2x1024x8192xbf16, #tpu.memory_space<vmem>> -> memref<1x1024x8192xbf16, #tpu.memory_space<vmem>>
    %523 = tpu.memref_squeeze %522 : memref<1x1024x8192xbf16, #tpu.memory_space<vmem>> -> memref<1024x8192xbf16, #tpu.memory_space<vmem>>
    %524 = tpu.memref_slice %arg4[%c0_i32_608] : memref<2x!tpu.dma_semaphore, #tpu.memory_space<semaphore_mem>> -> memref<1x!tpu.dma_semaphore, #tpu.memory_space<semaphore_mem>>
    %525 = tpu.memref_squeeze %524 : memref<1x!tpu.dma_semaphore, #tpu.memory_space<semaphore_mem>> -> memref<!tpu.dma_semaphore, #tpu.memory_space<semaphore_mem>>
    tpu.enqueue_dma source(%521 : memref<1024x8192xbf16, #tpu.memory_space<hbm>>) target(%523 : memref<1024x8192xbf16, #tpu.memory_space<vmem>>) target_semaphore(%525 : memref<!tpu.dma_semaphore, #tpu.memory_space<semaphore_mem>>)
    %cst_613 = arith.constant 1.000000e+00 : f32
    %526 = arith.addf %515, %cst_613 : f32
    %c1_i32_614 = arith.constant 1 : i32
    %c1_i32_615 = arith.constant 1 : i32
    %c7168_i32_616 = arith.constant 7168 : i32
    %c0_i32_617 = arith.constant 0 : i32
    %527 = tpu.memref_slice %arg1[%c7168_i32_616, %c0_i32_617] : memref<8192x2048xbf16, #tpu.memory_space<hbm>> -> memref<1024x8192xbf16, #tpu.memory_space<hbm>>
    %c0_i32_618 = arith.constant 0 : i32
    %c0_i32_619 = arith.constant 0 : i32
    %528 = tpu.memref_slice %arg3[%c1_i32_614, %c0_i32_618, %c0_i32_619] : memref<2x1024x8192xbf16, #tpu.memory_space<vmem>> -> memref<1x1024x8192xbf16, #tpu.memory_space<vmem>>
    %529 = tpu.memref_squeeze %528 : memref<1x1024x8192xbf16, #tpu.memory_space<vmem>> -> memref<1024x8192xbf16, #tpu.memory_space<vmem>>
    %530 = tpu.memref_slice %arg4[%c1_i32_615] : memref<2x!tpu.dma_semaphore, #tpu.memory_space<semaphore_mem>> -> memref<1x!tpu.dma_semaphore, #tpu.memory_space<semaphore_mem>>
    %531 = tpu.memref_squeeze %530 : memref<1x!tpu.dma_semaphore, #tpu.memory_space<semaphore_mem>> -> memref<!tpu.dma_semaphore, #tpu.memory_space<semaphore_mem>>
    tpu.wait_dma2 semaphore(%531 : memref<!tpu.dma_semaphore, #tpu.memory_space<semaphore_mem>>) src(%527 : memref<1024x8192xbf16, #tpu.memory_space<hbm>>) dst(%529 : memref<1024x8192xbf16, #tpu.memory_space<vmem>>)
    %c1_i32_620 = arith.constant 1 : i32
    %c1_i32_621 = arith.constant 1 : i32
    %c1024_i32_622 = arith.constant 1024 : i32
    %c0_i32_623 = arith.constant 0 : i32
    %532 = tpu.memref_slice %arg1[%c1024_i32_622, %c0_i32_623] : memref<8192x2048xbf16, #tpu.memory_space<hbm>> -> memref<1024x8192xbf16, #tpu.memory_space<hbm>>
    %c0_i32_624 = arith.constant 0 : i32
    %c0_i32_625 = arith.constant 0 : i32
    %533 = tpu.memref_slice %arg3[%c1_i32_620, %c0_i32_624, %c0_i32_625] : memref<2x1024x8192xbf16, #tpu.memory_space<vmem>> -> memref<1x1024x8192xbf16, #tpu.memory_space<vmem>>
    %534 = tpu.memref_squeeze %533 : memref<1x1024x8192xbf16, #tpu.memory_space<vmem>> -> memref<1024x8192xbf16, #tpu.memory_space<vmem>>
    %535 = tpu.memref_slice %arg4[%c1_i32_621] : memref<2x!tpu.dma_semaphore, #tpu.memory_space<semaphore_mem>> -> memref<1x!tpu.dma_semaphore, #tpu.memory_space<semaphore_mem>>
    %536 = tpu.memref_squeeze %535 : memref<1x!tpu.dma_semaphore, #tpu.memory_space<semaphore_mem>> -> memref<!tpu.dma_semaphore, #tpu.memory_space<semaphore_mem>>
    tpu.enqueue_dma source(%532 : memref<1024x8192xbf16, #tpu.memory_space<hbm>>) target(%534 : memref<1024x8192xbf16, #tpu.memory_space<vmem>>) target_semaphore(%536 : memref<!tpu.dma_semaphore, #tpu.memory_space<semaphore_mem>>)
    %cst_626 = arith.constant 1.000000e+00 : f32
    %537 = arith.addf %526, %cst_626 : f32
    %c0_i32_627 = arith.constant 0 : i32
    %c0_i32_628 = arith.constant 0 : i32
    %c0_i32_629 = arith.constant 0 : i32
    %c0_i32_630 = arith.constant 0 : i32
    %538 = tpu.memref_slice %arg1[%c0_i32_629, %c0_i32_630] : memref<8192x2048xbf16, #tpu.memory_space<hbm>> -> memref<1024x8192xbf16, #tpu.memory_space<hbm>>
    %c0_i32_631 = arith.constant 0 : i32
    %c0_i32_632 = arith.constant 0 : i32
    %539 = tpu.memref_slice %arg3[%c0_i32_627, %c0_i32_631, %c0_i32_632] : memref<2x1024x8192xbf16, #tpu.memory_space<vmem>> -> memref<1x1024x8192xbf16, #tpu.memory_space<vmem>>
    %540 = tpu.memref_squeeze %539 : memref<1x1024x8192xbf16, #tpu.memory_space<vmem>> -> memref<1024x8192xbf16, #tpu.memory_space<vmem>>
    %541 = tpu.memref_slice %arg4[%c0_i32_628] : memref<2x!tpu.dma_semaphore, #tpu.memory_space<semaphore_mem>> -> memref<1x!tpu.dma_semaphore, #tpu.memory_space<semaphore_mem>>
    %542 = tpu.memref_squeeze %541 : memref<1x!tpu.dma_semaphore, #tpu.memory_space<semaphore_mem>> -> memref<!tpu.dma_semaphore, #tpu.memory_space<semaphore_mem>>
    tpu.wait_dma2 semaphore(%542 : memref<!tpu.dma_semaphore, #tpu.memory_space<semaphore_mem>>) src(%538 : memref<1024x8192xbf16, #tpu.memory_space<hbm>>) dst(%540 : memref<1024x8192xbf16, #tpu.memory_space<vmem>>)
    %c0_i32_633 = arith.constant 0 : i32
    %c0_i32_634 = arith.constant 0 : i32
    %c2048_i32_635 = arith.constant 2048 : i32
    %c0_i32_636 = arith.constant 0 : i32
    %543 = tpu.memref_slice %arg1[%c2048_i32_635, %c0_i32_636] : memref<8192x2048xbf16, #tpu.memory_space<hbm>> -> memref<1024x8192xbf16, #tpu.memory_space<hbm>>
    %c0_i32_637 = arith.constant 0 : i32
    %c0_i32_638 = arith.constant 0 : i32
    %544 = tpu.memref_slice %arg3[%c0_i32_633, %c0_i32_637, %c0_i32_638] : memref<2x1024x8192xbf16, #tpu.memory_space<vmem>> -> memref<1x1024x8192xbf16, #tpu.memory_space<vmem>>
    %545 = tpu.memref_squeeze %544 : memref<1x1024x8192xbf16, #tpu.memory_space<vmem>> -> memref<1024x8192xbf16, #tpu.memory_space<vmem>>
    %546 = tpu.memref_slice %arg4[%c0_i32_634] : memref<2x!tpu.dma_semaphore, #tpu.memory_space<semaphore_mem>> -> memref<1x!tpu.dma_semaphore, #tpu.memory_space<semaphore_mem>>
    %547 = tpu.memref_squeeze %546 : memref<1x!tpu.dma_semaphore, #tpu.memory_space<semaphore_mem>> -> memref<!tpu.dma_semaphore, #tpu.memory_space<semaphore_mem>>
    tpu.enqueue_dma source(%543 : memref<1024x8192xbf16, #tpu.memory_space<hbm>>) target(%545 : memref<1024x8192xbf16, #tpu.memory_space<vmem>>) target_semaphore(%547 : memref<!tpu.dma_semaphore, #tpu.memory_space<semaphore_mem>>)
    %cst_639 = arith.constant 1.000000e+00 : f32
    %548 = arith.addf %537, %cst_639 : f32
    %c1_i32_640 = arith.constant 1 : i32
    %c1_i32_641 = arith.constant 1 : i32
    %c1024_i32_642 = arith.constant 1024 : i32
    %c0_i32_643 = arith.constant 0 : i32
    %549 = tpu.memref_slice %arg1[%c1024_i32_642, %c0_i32_643] : memref<8192x2048xbf16, #tpu.memory_space<hbm>> -> memref<1024x8192xbf16, #tpu.memory_space<hbm>>
    %c0_i32_644 = arith.constant 0 : i32
    %c0_i32_645 = arith.constant 0 : i32
    %550 = tpu.memref_slice %arg3[%c1_i32_640, %c0_i32_644, %c0_i32_645] : memref<2x1024x8192xbf16, #tpu.memory_space<vmem>> -> memref<1x1024x8192xbf16, #tpu.memory_space<vmem>>
    %551 = tpu.memref_squeeze %550 : memref<1x1024x8192xbf16, #tpu.memory_space<vmem>> -> memref<1024x8192xbf16, #tpu.memory_space<vmem>>
    %552 = tpu.memref_slice %arg4[%c1_i32_641] : memref<2x!tpu.dma_semaphore, #tpu.memory_space<semaphore_mem>> -> memref<1x!tpu.dma_semaphore, #tpu.memory_space<semaphore_mem>>
    %553 = tpu.memref_squeeze %552 : memref<1x!tpu.dma_semaphore, #tpu.memory_space<semaphore_mem>> -> memref<!tpu.dma_semaphore, #tpu.memory_space<semaphore_mem>>
    tpu.wait_dma2 semaphore(%553 : memref<!tpu.dma_semaphore, #tpu.memory_space<semaphore_mem>>) src(%549 : memref<1024x8192xbf16, #tpu.memory_space<hbm>>) dst(%551 : memref<1024x8192xbf16, #tpu.memory_space<vmem>>)
    %c1_i32_646 = arith.constant 1 : i32
    %c1_i32_647 = arith.constant 1 : i32
    %c3072_i32_648 = arith.constant 3072 : i32
    %c0_i32_649 = arith.constant 0 : i32
    %554 = tpu.memref_slice %arg1[%c3072_i32_648, %c0_i32_649] : memref<8192x2048xbf16, #tpu.memory_space<hbm>> -> memref<1024x8192xbf16, #tpu.memory_space<hbm>>
    %c0_i32_650 = arith.constant 0 : i32
    %c0_i32_651 = arith.constant 0 : i32
    %555 = tpu.memref_slice %arg3[%c1_i32_646, %c0_i32_650, %c0_i32_651] : memref<2x1024x8192xbf16, #tpu.memory_space<vmem>> -> memref<1x1024x8192xbf16, #tpu.memory_space<vmem>>
    %556 = tpu.memref_squeeze %555 : memref<1x1024x8192xbf16, #tpu.memory_space<vmem>> -> memref<1024x8192xbf16, #tpu.memory_space<vmem>>
    %557 = tpu.memref_slice %arg4[%c1_i32_647] : memref<2x!tpu.dma_semaphore, #tpu.memory_space<semaphore_mem>> -> memref<1x!tpu.dma_semaphore, #tpu.memory_space<semaphore_mem>>
    %558 = tpu.memref_squeeze %557 : memref<1x!tpu.dma_semaphore, #tpu.memory_space<semaphore_mem>> -> memref<!tpu.dma_semaphore, #tpu.memory_space<semaphore_mem>>
    tpu.enqueue_dma source(%554 : memref<1024x8192xbf16, #tpu.memory_space<hbm>>) target(%556 : memref<1024x8192xbf16, #tpu.memory_space<vmem>>) target_semaphore(%558 : memref<!tpu.dma_semaphore, #tpu.memory_space<semaphore_mem>>)
    %cst_652 = arith.constant 1.000000e+00 : f32
    %559 = arith.addf %548, %cst_652 : f32
    %c0_i32_653 = arith.constant 0 : i32
    %c0_i32_654 = arith.constant 0 : i32
    %c2048_i32_655 = arith.constant 2048 : i32
    %c0_i32_656 = arith.constant 0 : i32
    %560 = tpu.memref_slice %arg1[%c2048_i32_655, %c0_i32_656] : memref<8192x2048xbf16, #tpu.memory_space<hbm>> -> memref<1024x8192xbf16, #tpu.memory_space<hbm>>
    %c0_i32_657 = arith.constant 0 : i32
    %c0_i32_658 = arith.constant 0 : i32
    %561 = tpu.memref_slice %arg3[%c0_i32_653, %c0_i32_657, %c0_i32_658] : memref<2x1024x8192xbf16, #tpu.memory_space<vmem>> -> memref<1x1024x8192xbf16, #tpu.memory_space<vmem>>
    %562 = tpu.memref_squeeze %561 : memref<1x1024x8192xbf16, #tpu.memory_space<vmem>> -> memref<1024x8192xbf16, #tpu.memory_space<vmem>>
    %563 = tpu.memref_slice %arg4[%c0_i32_654] : memref<2x!tpu.dma_semaphore, #tpu.memory_space<semaphore_mem>> -> memref<1x!tpu.dma_semaphore, #tpu.memory_space<semaphore_mem>>
    %564 = tpu.memref_squeeze %563 : memref<1x!tpu.dma_semaphore, #tpu.memory_space<semaphore_mem>> -> memref<!tpu.dma_semaphore, #tpu.memory_space<semaphore_mem>>
    tpu.wait_dma2 semaphore(%564 : memref<!tpu.dma_semaphore, #tpu.memory_space<semaphore_mem>>) src(%560 : memref<1024x8192xbf16, #tpu.memory_space<hbm>>) dst(%562 : memref<1024x8192xbf16, #tpu.memory_space<vmem>>)
    %c0_i32_659 = arith.constant 0 : i32
    %c0_i32_660 = arith.constant 0 : i32
    %c4096_i32_661 = arith.constant 4096 : i32
    %c0_i32_662 = arith.constant 0 : i32
    %565 = tpu.memref_slice %arg1[%c4096_i32_661, %c0_i32_662] : memref<8192x2048xbf16, #tpu.memory_space<hbm>> -> memref<1024x8192xbf16, #tpu.memory_space<hbm>>
    %c0_i32_663 = arith.constant 0 : i32
    %c0_i32_664 = arith.constant 0 : i32
    %566 = tpu.memref_slice %arg3[%c0_i32_659, %c0_i32_663, %c0_i32_664] : memref<2x1024x8192xbf16, #tpu.memory_space<vmem>> -> memref<1x1024x8192xbf16, #tpu.memory_space<vmem>>
    %567 = tpu.memref_squeeze %566 : memref<1x1024x8192xbf16, #tpu.memory_space<vmem>> -> memref<1024x8192xbf16, #tpu.memory_space<vmem>>
    %568 = tpu.memref_slice %arg4[%c0_i32_660] : memref<2x!tpu.dma_semaphore, #tpu.memory_space<semaphore_mem>> -> memref<1x!tpu.dma_semaphore, #tpu.memory_space<semaphore_mem>>
    %569 = tpu.memref_squeeze %568 : memref<1x!tpu.dma_semaphore, #tpu.memory_space<semaphore_mem>> -> memref<!tpu.dma_semaphore, #tpu.memory_space<semaphore_mem>>
    tpu.enqueue_dma source(%565 : memref<1024x8192xbf16, #tpu.memory_space<hbm>>) target(%567 : memref<1024x8192xbf16, #tpu.memory_space<vmem>>) target_semaphore(%569 : memref<!tpu.dma_semaphore, #tpu.memory_space<semaphore_mem>>)
    %cst_665 = arith.constant 1.000000e+00 : f32
    %570 = arith.addf %559, %cst_665 : f32
    %c1_i32_666 = arith.constant 1 : i32
    %c1_i32_667 = arith.constant 1 : i32
    %c3072_i32_668 = arith.constant 3072 : i32
    %c0_i32_669 = arith.constant 0 : i32
    %571 = tpu.memref_slice %arg1[%c3072_i32_668, %c0_i32_669] : memref<8192x2048xbf16, #tpu.memory_space<hbm>> -> memref<1024x8192xbf16, #tpu.memory_space<hbm>>
    %c0_i32_670 = arith.constant 0 : i32
    %c0_i32_671 = arith.constant 0 : i32
    %572 = tpu.memref_slice %arg3[%c1_i32_666, %c0_i32_670, %c0_i32_671] : memref<2x1024x8192xbf16, #tpu.memory_space<vmem>> -> memref<1x1024x8192xbf16, #tpu.memory_space<vmem>>
    %573 = tpu.memref_squeeze %572 : memref<1x1024x8192xbf16, #tpu.memory_space<vmem>> -> memref<1024x8192xbf16, #tpu.memory_space<vmem>>
    %574 = tpu.memref_slice %arg4[%c1_i32_667] : memref<2x!tpu.dma_semaphore, #tpu.memory_space<semaphore_mem>> -> memref<1x!tpu.dma_semaphore, #tpu.memory_space<semaphore_mem>>
    %575 = tpu.memref_squeeze %574 : memref<1x!tpu.dma_semaphore, #tpu.memory_space<semaphore_mem>> -> memref<!tpu.dma_semaphore, #tpu.memory_space<semaphore_mem>>
    tpu.wait_dma2 semaphore(%575 : memref<!tpu.dma_semaphore, #tpu.memory_space<semaphore_mem>>) src(%571 : memref<1024x8192xbf16, #tpu.memory_space<hbm>>) dst(%573 : memref<1024x8192xbf16, #tpu.memory_space<vmem>>)
    %c1_i32_672 = arith.constant 1 : i32
    %c1_i32_673 = arith.constant 1 : i32
    %c5120_i32_674 = arith.constant 5120 : i32
    %c0_i32_675 = arith.constant 0 : i32
    %576 = tpu.memref_slice %arg1[%c5120_i32_674, %c0_i32_675] : memref<8192x2048xbf16, #tpu.memory_space<hbm>> -> memref<1024x8192xbf16, #tpu.memory_space<hbm>>
    %c0_i32_676 = arith.constant 0 : i32
    %c0_i32_677 = arith.constant 0 : i32
    %577 = tpu.memref_slice %arg3[%c1_i32_672, %c0_i32_676, %c0_i32_677] : memref<2x1024x8192xbf16, #tpu.memory_space<vmem>> -> memref<1x1024x8192xbf16, #tpu.memory_space<vmem>>
    %578 = tpu.memref_squeeze %577 : memref<1x1024x8192xbf16, #tpu.memory_space<vmem>> -> memref<1024x8192xbf16, #tpu.memory_space<vmem>>
    %579 = tpu.memref_slice %arg4[%c1_i32_673] : memref<2x!tpu.dma_semaphore, #tpu.memory_space<semaphore_mem>> -> memref<1x!tpu.dma_semaphore, #tpu.memory_space<semaphore_mem>>
    %580 = tpu.memref_squeeze %579 : memref<1x!tpu.dma_semaphore, #tpu.memory_space<semaphore_mem>> -> memref<!tpu.dma_semaphore, #tpu.memory_space<semaphore_mem>>
    tpu.enqueue_dma source(%576 : memref<1024x8192xbf16, #tpu.memory_space<hbm>>) target(%578 : memref<1024x8192xbf16, #tpu.memory_space<vmem>>) target_semaphore(%580 : memref<!tpu.dma_semaphore, #tpu.memory_space<semaphore_mem>>)
    %cst_678 = arith.constant 1.000000e+00 : f32
    %581 = arith.addf %570, %cst_678 : f32
    %c0_i32_679 = arith.constant 0 : i32
    %c0_i32_680 = arith.constant 0 : i32
    %c4096_i32_681 = arith.constant 4096 : i32
    %c0_i32_682 = arith.constant 0 : i32
    %582 = tpu.memref_slice %arg1[%c4096_i32_681, %c0_i32_682] : memref<8192x2048xbf16, #tpu.memory_space<hbm>> -> memref<1024x8192xbf16, #tpu.memory_space<hbm>>
    %c0_i32_683 = arith.constant 0 : i32
    %c0_i32_684 = arith.constant 0 : i32
    %583 = tpu.memref_slice %arg3[%c0_i32_679, %c0_i32_683, %c0_i32_684] : memref<2x1024x8192xbf16, #tpu.memory_space<vmem>> -> memref<1x1024x8192xbf16, #tpu.memory_space<vmem>>
    %584 = tpu.memref_squeeze %583 : memref<1x1024x8192xbf16, #tpu.memory_space<vmem>> -> memref<1024x8192xbf16, #tpu.memory_space<vmem>>
    %585 = tpu.memref_slice %arg4[%c0_i32_680] : memref<2x!tpu.dma_semaphore, #tpu.memory_space<semaphore_mem>> -> memref<1x!tpu.dma_semaphore, #tpu.memory_space<semaphore_mem>>
    %586 = tpu.memref_squeeze %585 : memref<1x!tpu.dma_semaphore, #tpu.memory_space<semaphore_mem>> -> memref<!tpu.dma_semaphore, #tpu.memory_space<semaphore_mem>>
    tpu.wait_dma2 semaphore(%586 : memref<!tpu.dma_semaphore, #tpu.memory_space<semaphore_mem>>) src(%582 : memref<1024x8192xbf16, #tpu.memory_space<hbm>>) dst(%584 : memref<1024x8192xbf16, #tpu.memory_space<vmem>>)
    %c0_i32_685 = arith.constant 0 : i32
    %c0_i32_686 = arith.constant 0 : i32
    %c6144_i32_687 = arith.constant 6144 : i32
    %c0_i32_688 = arith.constant 0 : i32
    %587 = tpu.memref_slice %arg1[%c6144_i32_687, %c0_i32_688] : memref<8192x2048xbf16, #tpu.memory_space<hbm>> -> memref<1024x8192xbf16, #tpu.memory_space<hbm>>
    %c0_i32_689 = arith.constant 0 : i32
    %c0_i32_690 = arith.constant 0 : i32
    %588 = tpu.memref_slice %arg3[%c0_i32_685, %c0_i32_689, %c0_i32_690] : memref<2x1024x8192xbf16, #tpu.memory_space<vmem>> -> memref<1x1024x8192xbf16, #tpu.memory_space<vmem>>
    %589 = tpu.memref_squeeze %588 : memref<1x1024x8192xbf16, #tpu.memory_space<vmem>> -> memref<1024x8192xbf16, #tpu.memory_space<vmem>>
    %590 = tpu.memref_slice %arg4[%c0_i32_686] : memref<2x!tpu.dma_semaphore, #tpu.memory_space<semaphore_mem>> -> memref<1x!tpu.dma_semaphore, #tpu.memory_space<semaphore_mem>>
    %591 = tpu.memref_squeeze %590 : memref<1x!tpu.dma_semaphore, #tpu.memory_space<semaphore_mem>> -> memref<!tpu.dma_semaphore, #tpu.memory_space<semaphore_mem>>
    tpu.enqueue_dma source(%587 : memref<1024x8192xbf16, #tpu.memory_space<hbm>>) target(%589 : memref<1024x8192xbf16, #tpu.memory_space<vmem>>) target_semaphore(%591 : memref<!tpu.dma_semaphore, #tpu.memory_space<semaphore_mem>>)
    %cst_691 = arith.constant 1.000000e+00 : f32
    %592 = arith.addf %581, %cst_691 : f32
    %c1_i32_692 = arith.constant 1 : i32
    %c1_i32_693 = arith.constant 1 : i32
    %c5120_i32_694 = arith.constant 5120 : i32
    %c0_i32_695 = arith.constant 0 : i32
    %593 = tpu.memref_slice %arg1[%c5120_i32_694, %c0_i32_695] : memref<8192x2048xbf16, #tpu.memory_space<hbm>> -> memref<1024x8192xbf16, #tpu.memory_space<hbm>>
    %c0_i32_696 = arith.constant 0 : i32
    %c0_i32_697 = arith.constant 0 : i32
    %594 = tpu.memref_slice %arg3[%c1_i32_692, %c0_i32_696, %c0_i32_697] : memref<2x1024x8192xbf16, #tpu.memory_space<vmem>> -> memref<1x1024x8192xbf16, #tpu.memory_space<vmem>>
    %595 = tpu.memref_squeeze %594 : memref<1x1024x8192xbf16, #tpu.memory_space<vmem>> -> memref<1024x8192xbf16, #tpu.memory_space<vmem>>
    %596 = tpu.memref_slice %arg4[%c1_i32_693] : memref<2x!tpu.dma_semaphore, #tpu.memory_space<semaphore_mem>> -> memref<1x!tpu.dma_semaphore, #tpu.memory_space<semaphore_mem>>
    %597 = tpu.memref_squeeze %596 : memref<1x!tpu.dma_semaphore, #tpu.memory_space<semaphore_mem>> -> memref<!tpu.dma_semaphore, #tpu.memory_space<semaphore_mem>>
    tpu.wait_dma2 semaphore(%597 : memref<!tpu.dma_semaphore, #tpu.memory_space<semaphore_mem>>) src(%593 : memref<1024x8192xbf16, #tpu.memory_space<hbm>>) dst(%595 : memref<1024x8192xbf16, #tpu.memory_space<vmem>>)
    %c1_i32_698 = arith.constant 1 : i32
    %c1_i32_699 = arith.constant 1 : i32
    %c7168_i32_700 = arith.constant 7168 : i32
    %c0_i32_701 = arith.constant 0 : i32
    %598 = tpu.memref_slice %arg1[%c7168_i32_700, %c0_i32_701] : memref<8192x2048xbf16, #tpu.memory_space<hbm>> -> memref<1024x8192xbf16, #tpu.memory_space<hbm>>
    %c0_i32_702 = arith.constant 0 : i32
    %c0_i32_703 = arith.constant 0 : i32
    %599 = tpu.memref_slice %arg3[%c1_i32_698, %c0_i32_702, %c0_i32_703] : memref<2x1024x8192xbf16, #tpu.memory_space<vmem>> -> memref<1x1024x8192xbf16, #tpu.memory_space<vmem>>
    %600 = tpu.memref_squeeze %599 : memref<1x1024x8192xbf16, #tpu.memory_space<vmem>> -> memref<1024x8192xbf16, #tpu.memory_space<vmem>>
    %601 = tpu.memref_slice %arg4[%c1_i32_699] : memref<2x!tpu.dma_semaphore, #tpu.memory_space<semaphore_mem>> -> memref<1x!tpu.dma_semaphore, #tpu.memory_space<semaphore_mem>>
    %602 = tpu.memref_squeeze %601 : memref<1x!tpu.dma_semaphore, #tpu.memory_space<semaphore_mem>> -> memref<!tpu.dma_semaphore, #tpu.memory_space<semaphore_mem>>
    tpu.enqueue_dma source(%598 : memref<1024x8192xbf16, #tpu.memory_space<hbm>>) target(%600 : memref<1024x8192xbf16, #tpu.memory_space<vmem>>) target_semaphore(%602 : memref<!tpu.dma_semaphore, #tpu.memory_space<semaphore_mem>>)
    %cst_704 = arith.constant 1.000000e+00 : f32
    %603 = arith.addf %592, %cst_704 : f32
    %c0_i32_705 = arith.constant 0 : i32
    %c0_i32_706 = arith.constant 0 : i32
    %c6144_i32_707 = arith.constant 6144 : i32
    %c0_i32_708 = arith.constant 0 : i32
    %604 = tpu.memref_slice %arg1[%c6144_i32_707, %c0_i32_708] : memref<8192x2048xbf16, #tpu.memory_space<hbm>> -> memref<1024x8192xbf16, #tpu.memory_space<hbm>>
    %c0_i32_709 = arith.constant 0 : i32
    %c0_i32_710 = arith.constant 0 : i32
    %605 = tpu.memref_slice %arg3[%c0_i32_705, %c0_i32_709, %c0_i32_710] : memref<2x1024x8192xbf16, #tpu.memory_space<vmem>> -> memref<1x1024x8192xbf16, #tpu.memory_space<vmem>>
    %606 = tpu.memref_squeeze %605 : memref<1x1024x8192xbf16, #tpu.memory_space<vmem>> -> memref<1024x8192xbf16, #tpu.memory_space<vmem>>
    %607 = tpu.memref_slice %arg4[%c0_i32_706] : memref<2x!tpu.dma_semaphore, #tpu.memory_space<semaphore_mem>> -> memref<1x!tpu.dma_semaphore, #tpu.memory_space<semaphore_mem>>
    %608 = tpu.memref_squeeze %607 : memref<1x!tpu.dma_semaphore, #tpu.memory_space<semaphore_mem>> -> memref<!tpu.dma_semaphore, #tpu.memory_space<semaphore_mem>>
    tpu.wait_dma2 semaphore(%608 : memref<!tpu.dma_semaphore, #tpu.memory_space<semaphore_mem>>) src(%604 : memref<1024x8192xbf16, #tpu.memory_space<hbm>>) dst(%606 : memref<1024x8192xbf16, #tpu.memory_space<vmem>>)
    %c0_i32_711 = arith.constant 0 : i32
    %c0_i32_712 = arith.constant 0 : i32
    %c0_i32_713 = arith.constant 0 : i32
    %c0_i32_714 = arith.constant 0 : i32
    %609 = tpu.memref_slice %arg1[%c0_i32_713, %c0_i32_714] : memref<8192x2048xbf16, #tpu.memory_space<hbm>> -> memref<1024x8192xbf16, #tpu.memory_space<hbm>>
    %c0_i32_715 = arith.constant 0 : i32
    %c0_i32_716 = arith.constant 0 : i32
    %610 = tpu.memref_slice %arg3[%c0_i32_711, %c0_i32_715, %c0_i32_716] : memref<2x1024x8192xbf16, #tpu.memory_space<vmem>> -> memref<1x1024x8192xbf16, #tpu.memory_space<vmem>>
    %611 = tpu.memref_squeeze %610 : memref<1x1024x8192xbf16, #tpu.memory_space<vmem>> -> memref<1024x8192xbf16, #tpu.memory_space<vmem>>
    %612 = tpu.memref_slice %arg4[%c0_i32_712] : memref<2x!tpu.dma_semaphore, #tpu.memory_space<semaphore_mem>> -> memref<1x!tpu.dma_semaphore, #tpu.memory_space<semaphore_mem>>
    %613 = tpu.memref_squeeze %612 : memref<1x!tpu.dma_semaphore, #tpu.memory_space<semaphore_mem>> -> memref<!tpu.dma_semaphore, #tpu.memory_space<semaphore_mem>>
…
    tpu.enqueue_dma source(%1203 : memref<1024x8192xbf16, #tpu.memory_space<hbm>>) target(%1205 : memref<1024x8192xbf16, #tpu.memory_space<vmem>>) target_semaphore(%1207 : memref<!tpu.dma_semaphore, #tpu.memory_space<semaphore_mem>>)
    %cst_1419 = arith.constant 1.000000e+00 : f32
    %1208 = arith.addf %1197, %cst_1419 : f32
    %c1_i32_1420 = arith.constant 1 : i32
    %c1_i32_1421 = arith.constant 1 : i32
    %c5120_i32_1422 = arith.constant 5120 : i32
    %c0_i32_1423 = arith.constant 0 : i32
    %1209 = tpu.memref_slice %arg1[%c5120_i32_1422, %c0_i32_1423] : memref<8192x2048xbf16, #tpu.memory_space<hbm>> -> memref<1024x8192xbf16, #tpu.memory_space<hbm>>
    %c0_i32_1424 = arith.constant 0 : i32
    %c0_i32_1425 = arith.constant 0 : i32
    %1210 = tpu.memref_slice %arg3[%c1_i32_1420, %c0_i32_1424, %c0_i32_1425] : memref<2x1024x8192xbf16, #tpu.memory_space<vmem>> -> memref<1x1024x8192xbf16, #tpu.memory_space<vmem>>
    %1211 = tpu.memref_squeeze %1210 : memref<1x1024x8192xbf16, #tpu.memory_space<vmem>> -> memref<1024x8192xbf16, #tpu.memory_space<vmem>>
    %1212 = tpu.memref_slice %arg4[%c1_i32_1421] : memref<2x!tpu.dma_semaphore, #tpu.memory_space<semaphore_mem>> -> memref<1x!tpu.dma_semaphore, #tpu.memory_space<semaphore_mem>>
    %1213 = tpu.memref_squeeze %1212 : memref<1x!tpu.dma_semaphore, #tpu.memory_space<semaphore_mem>> -> memref<!tpu.dma_semaphore, #tpu.memory_space<semaphore_mem>>
    tpu.wait_dma2 semaphore(%1213 : memref<!tpu.dma_semaphore, #tpu.memory_space<semaphore_mem>>) src(%1209 : memref<1024x8192xbf16, #tpu.memory_space<hbm>>) dst(%1211 : memref<1024x8192xbf16, #tpu.memory_space<vmem>>)
    %c1_i32_1426 = arith.constant 1 : i32
    %c1_i32_1427 = arith.constant 1 : i32
    %c7168_i32_1428 = arith.constant 7168 : i32
    %c0_i32_1429 = arith.constant 0 : i32
    %1214 = tpu.memref_slice %arg1[%c7168_i32_1428, %c0_i32_1429] : memref<8192x2048xbf16, #tpu.memory_space<hbm>> -> memref<1024x8192xbf16, #tpu.memory_space<hbm>>
    %c0_i32_1430 = arith.constant 0 : i32
    %c0_i32_1431 = arith.constant 0 : i32
    %1215 = tpu.memref_slice %arg3[%c1_i32_1426, %c0_i32_1430, %c0_i32_1431] : memref<2x1024x8192xbf16, #tpu.memory_space<vmem>> -> memref<1x1024x8192xbf16, #tpu.memory_space<vmem>>
    %1216 = tpu.memref_squeeze %1215 : memref<1x1024x8192xbf16, #tpu.memory_space<vmem>> -> memref<1024x8192xbf16, #tpu.memory_space<vmem>>
    %1217 = tpu.memref_slice %arg4[%c1_i32_1427] : memref<2x!tpu.dma_semaphore, #tpu.memory_space<semaphore_mem>> -> memref<1x!tpu.dma_semaphore, #tpu.memory_space<semaphore_mem>>
    %1218 = tpu.memref_squeeze %1217 : memref<1x!tpu.dma_semaphore, #tpu.memory_space<semaphore_mem>> -> memref<!tpu.dma_semaphore, #tpu.memory_space<semaphore_mem>>
    tpu.enqueue_dma source(%1214 : memref<1024x8192xbf16, #tpu.memory_space<hbm>>) target(%1216 : memref<1024x8192xbf16, #tpu.memory_space<vmem>>) target_semaphore(%1218 : memref<!tpu.dma_semaphore, #tpu.memory_space<semaphore_mem>>)
    %cst_1432 = arith.constant 1.000000e+00 : f32
    %1219 = arith.addf %1208, %cst_1432 : f32
    %c0_i32_1433 = arith.constant 0 : i32
    %c0_i32_1434 = arith.constant 0 : i32
    %c6144_i32_1435 = arith.constant 6144 : i32
    %c0_i32_1436 = arith.constant 0 : i32
    %1220 = tpu.memref_slice %arg1[%c6144_i32_1435, %c0_i32_1436] : memref<8192x2048xbf16, #tpu.memory_space<hbm>> -> memref<1024x8192xbf16, #tpu.memory_space<hbm>>
    %c0_i32_1437 = arith.constant 0 : i32
    %c0_i32_1438 = arith.constant 0 : i32
    %1221 = tpu.memref_slice %arg3[%c0_i32_1433, %c0_i32_1437, %c0_i32_1438] : memref<2x1024x8192xbf16, #tpu.memory_space<vmem>> -> memref<1x1024x8192xbf16, #tpu.memory_space<vmem>>
    %1222 = tpu.memref_squeeze %1221 : memref<1x1024x8192xbf16, #tpu.memory_space<vmem>> -> memref<1024x8192xbf16, #tpu.memory_space<vmem>>
    %1223 = tpu.memref_slice %arg4[%c0_i32_1434] : memref<2x!tpu.dma_semaphore, #tpu.memory_space<semaphore_mem>> -> memref<1x!tpu.dma_semaphore, #tpu.memory_space<semaphore_mem>>
    %1224 = tpu.memref_squeeze %1223 : memref<1x!tpu.dma_semaphore, #tpu.memory_space<semaphore_mem>> -> memref<!tpu.dma_semaphore, #tpu.memory_space<semaphore_mem>>
    tpu.wait_dma2 semaphore(%1224 : memref<!tpu.dma_semaphore, #tpu.memory_space<semaphore_mem>>) src(%1220 : memref<1024x8192xbf16, #tpu.memory_space<hbm>>) dst(%1222 : memref<1024x8192xbf16, #tpu.memory_space<vmem>>)
    %c0_i32_1439 = arith.constant 0 : i32
    %c0_i32_1440 = arith.constant 0 : i32
    %c0_i32_1441 = arith.constant 0 : i32
    %c0_i32_1442 = arith.constant 0 : i32
    %1225 = tpu.memref_slice %arg1[%c0_i32_1441, %c0_i32_1442] : memref<8192x2048xbf16, #tpu.memory_space<hbm>> -> memref<1024x8192xbf16, #tpu.memory_space<hbm>>
    %c0_i32_1443 = arith.constant 0 : i32
    %c0_i32_1444 = arith.constant 0 : i32
    %1226 = tpu.memref_slice %arg3[%c0_i32_1439, %c0_i32_1443, %c0_i32_1444] : memref<2x1024x8192xbf16, #tpu.memory_space<vmem>> -> memref<1x1024x8192xbf16, #tpu.memory_space<vmem>>
    %1227 = tpu.memref_squeeze %1226 : memref<1x1024x8192xbf16, #tpu.memory_space<vmem>> -> memref<1024x8192xbf16, #tpu.memory_space<vmem>>
    %1228 = tpu.memref_slice %arg4[%c0_i32_1440] : memref<2x!tpu.dma_semaphore, #tpu.memory_space<semaphore_mem>> -> memref<1x!tpu.dma_semaphore, #tpu.memory_space<semaphore_mem>>
    %1229 = tpu.memref_squeeze %1228 : memref<1x!tpu.dma_semaphore, #tpu.memory_space<semaphore_mem>> -> memref<!tpu.dma_semaphore, #tpu.memory_space<semaphore_mem>>
    tpu.enqueue_dma source(%1225 : memref<1024x8192xbf16, #tpu.memory_space<hbm>>) target(%1227 : memref<1024x8192xbf16, #tpu.memory_space<vmem>>) target_semaphore(%1229 : memref<!tpu.dma_semaphore, #tpu.memory_space<semaphore_mem>>)
    %cst_1445 = arith.constant 1.000000e+00 : f32
    %1230 = arith.addf %1219, %cst_1445 : f32
    %c1_i32_1446 = arith.constant 1 : i32
    %c1_i32_1447 = arith.constant 1 : i32
    %c7168_i32_1448 = arith.constant 7168 : i32
    %c0_i32_1449 = arith.constant 0 : i32
    %1231 = tpu.memref_slice %arg1[%c7168_i32_1448, %c0_i32_1449] : memref<8192x2048xbf16, #tpu.memory_space<hbm>> -> memref<1024x8192xbf16, #tpu.memory_space<hbm>>
    %c0_i32_1450 = arith.constant 0 : i32
    %c0_i32_1451 = arith.constant 0 : i32
    %1232 = tpu.memref_slice %arg3[%c1_i32_1446, %c0_i32_1450, %c0_i32_1451] : memref<2x1024x8192xbf16, #tpu.memory_space<vmem>> -> memref<1x1024x8192xbf16, #tpu.memory_space<vmem>>
    %1233 = tpu.memref_squeeze %1232 : memref<1x1024x8192xbf16, #tpu.memory_space<vmem>> -> memref<1024x8192xbf16, #tpu.memory_space<vmem>>
    %1234 = tpu.memref_slice %arg4[%c1_i32_1447] : memref<2x!tpu.dma_semaphore, #tpu.memory_space<semaphore_mem>> -> memref<1x!tpu.dma_semaphore, #tpu.memory_space<semaphore_mem>>
    %1235 = tpu.memref_squeeze %1234 : memref<1x!tpu.dma_semaphore, #tpu.memory_space<semaphore_mem>> -> memref<!tpu.dma_semaphore, #tpu.memory_space<semaphore_mem>>
    tpu.wait_dma2 semaphore(%1235 : memref<!tpu.dma_semaphore, #tpu.memory_space<semaphore_mem>>) src(%1231 : memref<1024x8192xbf16, #tpu.memory_space<hbm>>) dst(%1233 : memref<1024x8192xbf16, #tpu.memory_space<vmem>>)
    %c1_i32_1452 = arith.constant 1 : i32
    %c1_i32_1453 = arith.constant 1 : i32
    %c1024_i32_1454 = arith.constant 1024 : i32
    %c0_i32_1455 = arith.constant 0 : i32
    %1236 = tpu.memref_slice %arg1[%c1024_i32_1454, %c0_i32_1455] : memref<8192x2048xbf16, #tpu.memory_space<hbm>> -> memref<1024x8192xbf16, #tpu.memory_space<hbm>>
    %c0_i32_1456 = arith.constant 0 : i32
    %c0_i32_1457 = arith.constant 0 : i32
    %1237 = tpu.memref_slice %arg3[%c1_i32_1452, %c0_i32_1456, %c0_i32_1457] : memref<2x1024x8192xbf16, #tpu.memory_space<vmem>> -> memref<1x1024x8192xbf16, #tpu.memory_space<vmem>>
    %1238 = tpu.memref_squeeze %1237 : memref<1x1024x8192xbf16, #tpu.memory_space<vmem>> -> memref<1024x8192xbf16, #tpu.memory_space<vmem>>
    %1239 = tpu.memref_slice %arg4[%c1_i32_1453] : memref<2x!tpu.dma_semaphore, #tpu.memory_space<semaphore_mem>> -> memref<1x!tpu.dma_semaphore, #tpu.memory_space<semaphore_mem>>
    %1240 = tpu.memref_squeeze %1239 : memref<1x!tpu.dma_semaphore, #tpu.memory_space<semaphore_mem>> -> memref<!tpu.dma_semaphore, #tpu.memory_space<semaphore_mem>>
    tpu.enqueue_dma source(%1236 : memref<1024x8192xbf16, #tpu.memory_space<hbm>>) target(%1238 : memref<1024x8192xbf16, #tpu.memory_space<vmem>>) target_semaphore(%1240 : memref<!tpu.dma_semaphore, #tpu.memory_space<semaphore_mem>>)
    %cst_1458 = arith.constant 1.000000e+00 : f32
    %1241 = arith.addf %1230, %cst_1458 : f32
    %c0_i32_1459 = arith.constant 0 : i32
    %c0_i32_1460 = arith.constant 0 : i32
    %c0_i32_1461 = arith.constant 0 : i32
    %c0_i32_1462 = arith.constant 0 : i32
    %1242 = tpu.memref_slice %arg1[%c0_i32_1461, %c0_i32_1462] : memref<8192x2048xbf16, #tpu.memory_space<hbm>> -> memref<1024x8192xbf16, #tpu.memory_space<hbm>>
    %c0_i32_1463 = arith.constant 0 : i32
    %c0_i32_1464 = arith.constant 0 : i32
    %1243 = tpu.memref_slice %arg3[%c0_i32_1459, %c0_i32_1463, %c0_i32_1464] : memref<2x1024x8192xbf16, #tpu.memory_space<vmem>> -> memref<1x1024x8192xbf16, #tpu.memory_space<vmem>>
    %1244 = tpu.memref_squeeze %1243 : memref<1x1024x8192xbf16, #tpu.memory_space<vmem>> -> memref<1024x8192xbf16, #tpu.memory_space<vmem>>
    %1245 = tpu.memref_slice %arg4[%c0_i32_1460] : memref<2x!tpu.dma_semaphore, #tpu.memory_space<semaphore_mem>> -> memref<1x!tpu.dma_semaphore, #tpu.memory_space<semaphore_mem>>
    %1246 = tpu.memref_squeeze %1245 : memref<1x!tpu.dma_semaphore, #tpu.memory_space<semaphore_mem>> -> memref<!tpu.dma_semaphore, #tpu.memory_space<semaphore_mem>>
    tpu.wait_dma2 semaphore(%1246 : memref<!tpu.dma_semaphore, #tpu.memory_space<semaphore_mem>>) src(%1242 : memref<1024x8192xbf16, #tpu.memory_space<hbm>>) dst(%1244 : memref<1024x8192xbf16, #tpu.memory_space<vmem>>)
    %c0_i32_1465 = arith.constant 0 : i32
    %c0_i32_1466 = arith.constant 0 : i32
    %c2048_i32_1467 = arith.constant 2048 : i32
    %c0_i32_1468 = arith.constant 0 : i32
    %1247 = tpu.memref_slice %arg1[%c2048_i32_1467, %c0_i32_1468] : memref<8192x2048xbf16, #tpu.memory_space<hbm>> -> memref<1024x8192xbf16, #tpu.memory_space<hbm>>
    %c0_i32_1469 = arith.constant 0 : i32
    %c0_i32_1470 = arith.constant 0 : i32
    %1248 = tpu.memref_slice %arg3[%c0_i32_1465, %c0_i32_1469, %c0_i32_1470] : memref<2x1024x8192xbf16, #tpu.memory_space<vmem>> -> memref<1x1024x8192xbf16, #tpu.memory_space<vmem>>
    %1249 = tpu.memref_squeeze %1248 : memref<1x1024x8192xbf16, #tpu.memory_space<vmem>> -> memref<1024x8192xbf16, #tpu.memory_space<vmem>>
    %1250 = tpu.memref_slice %arg4[%c0_i32_1466] : memref<2x!tpu.dma_semaphore, #tpu.memory_space<semaphore_mem>> -> memref<1x!tpu.dma_semaphore, #tpu.memory_space<semaphore_mem>>
    %1251 = tpu.memref_squeeze %1250 : memref<1x!tpu.dma_semaphore, #tpu.memory_space<semaphore_mem>> -> memref<!tpu.dma_semaphore, #tpu.memory_space<semaphore_mem>>
    tpu.enqueue_dma source(%1247 : memref<1024x8192xbf16, #tpu.memory_space<hbm>>) target(%1249 : memref<1024x8192xbf16, #tpu.memory_space<vmem>>) target_semaphore(%1251 : memref<!tpu.dma_semaphore, #tpu.memory_space<semaphore_mem>>)
    %cst_1471 = arith.constant 1.000000e+00 : f32
    %1252 = arith.addf %1241, %cst_1471 : f32
    %c1_i32_1472 = arith.constant 1 : i32
    %c1_i32_1473 = arith.constant 1 : i32
    %c1024_i32_1474 = arith.constant 1024 : i32
    %c0_i32_1475 = arith.constant 0 : i32
    %1253 = tpu.memref_slice %arg1[%c1024_i32_1474, %c0_i32_1475] : memref<8192x2048xbf16, #tpu.memory_space<hbm>> -> memref<1024x8192xbf16, #tpu.memory_space<hbm>>
    %c0_i32_1476 = arith.constant 0 : i32
    %c0_i32_1477 = arith.constant 0 : i32
    %1254 = tpu.memref_slice %arg3[%c1_i32_1472, %c0_i32_1476, %c0_i32_1477] : memref<2x1024x8192xbf16, #tpu.memory_space<vmem>> -> memref<1x1024x8192xbf16, #tpu.memory_space<vmem>>
    %1255 = tpu.memref_squeeze %1254 : memref<1x1024x8192xbf16, #tpu.memory_space<vmem>> -> memref<1024x8192xbf16, #tpu.memory_space<vmem>>
    %1256 = tpu.memref_slice %arg4[%c1_i32_1473] : memref<2x!tpu.dma_semaphore, #tpu.memory_space<semaphore_mem>> -> memref<1x!tpu.dma_semaphore, #tpu.memory_space<semaphore_mem>>
    %1257 = tpu.memref_squeeze %1256 : memref<1x!tpu.dma_semaphore, #tpu.memory_space<semaphore_mem>> -> memref<!tpu.dma_semaphore, #tpu.memory_space<semaphore_mem>>
    tpu.wait_dma2 semaphore(%1257 : memref<!tpu.dma_semaphore, #tpu.memory_space<semaphore_mem>>) src(%1253 : memref<1024x8192xbf16, #tpu.memory_space<hbm>>) dst(%1255 : memref<1024x8192xbf16, #tpu.memory_space<vmem>>)
    %c1_i32_1478 = arith.constant 1 : i32
    %c1_i32_1479 = arith.constant 1 : i32
    %c3072_i32_1480 = arith.constant 3072 : i32
    %c0_i32_1481 = arith.constant 0 : i32
    %1258 = tpu.memref_slice %arg1[%c3072_i32_1480, %c0_i32_1481] : memref<8192x2048xbf16, #tpu.memory_space<hbm>> -> memref<1024x8192xbf16, #tpu.memory_space<hbm>>
    %c0_i32_1482 = arith.constant 0 : i32
    %c0_i32_1483 = arith.constant 0 : i32
    %1259 = tpu.memref_slice %arg3[%c1_i32_1478, %c0_i32_1482, %c0_i32_1483] : memref<2x1024x8192xbf16, #tpu.memory_space<vmem>> -> memref<1x1024x8192xbf16, #tpu.memory_space<vmem>>
    %1260 = tpu.memref_squeeze %1259 : memref<1x1024x8192xbf16, #tpu.memory_space<vmem>> -> memref<1024x8192xbf16, #tpu.memory_space<vmem>>
    %1261 = tpu.memref_slice %arg4[%c1_i32_1479] : memref<2x!tpu.dma_semaphore, #tpu.memory_space<semaphore_mem>> -> memref<1x!tpu.dma_semaphore, #tpu.memory_space<semaphore_mem>>
    %1262 = tpu.memref_squeeze %1261 : memref<1x!tpu.dma_semaphore, #tpu.memory_space<semaphore_mem>> -> memref<!tpu.dma_semaphore, #tpu.memory_space<semaphore_mem>>
    tpu.enqueue_dma source(%1258 : memref<1024x8192xbf16, #tpu.memory_space<hbm>>) target(%1260 : memref<1024x8192xbf16, #tpu.memory_space<vmem>>) target_semaphore(%1262 : memref<!tpu.dma_semaphore, #tpu.memory_space<semaphore_mem>>)
    %cst_1484 = arith.constant 1.000000e+00 : f32
    %1263 = arith.addf %1252, %cst_1484 : f32
    %c0_i32_1485 = arith.constant 0 : i32
    %c0_i32_1486 = arith.constant 0 : i32
    %c2048_i32_1487 = arith.constant 2048 : i32
    %c0_i32_1488 = arith.constant 0 : i32
    %1264 = tpu.memref_slice %arg1[%c2048_i32_1487, %c0_i32_1488] : memref<8192x2048xbf16, #tpu.memory_space<hbm>> -> memref<1024x8192xbf16, #tpu.memory_space<hbm>>
    %c0_i32_1489 = arith.constant 0 : i32
    %c0_i32_1490 = arith.constant 0 : i32
    %1265 = tpu.memref_slice %arg3[%c0_i32_1485, %c0_i32_1489, %c0_i32_1490] : memref<2x1024x8192xbf16, #tpu.memory_space<vmem>> -> memref<1x1024x8192xbf16, #tpu.memory_space<vmem>>
    %1266 = tpu.memref_squeeze %1265 : memref<1x1024x8192xbf16, #tpu.memory_space<vmem>> -> memref<1024x8192xbf16, #tpu.memory_space<vmem>>
    %1267 = tpu.memref_slice %arg4[%c0_i32_1486] : memref<2x!tpu.dma_semaphore, #tpu.memory_space<semaphore_mem>> -> memref<1x!tpu.dma_semaphore, #tpu.memory_space<semaphore_mem>>
    %1268 = tpu.memref_squeeze %1267 : memref<1x!tpu.dma_semaphore, #tpu.memory_space<semaphore_mem>> -> memref<!tpu.dma_semaphore, #tpu.memory_space<semaphore_mem>>
    tpu.wait_dma2 semaphore(%1268 : memref<!tpu.dma_semaphore, #tpu.memory_space<semaphore_mem>>) src(%1264 : memref<1024x8192xbf16, #tpu.memory_space<hbm>>) dst(%1266 : memref<1024x8192xbf16, #tpu.memory_space<vmem>>)
    %c0_i32_1491 = arith.constant 0 : i32
    %c0_i32_1492 = arith.constant 0 : i32
    %c4096_i32_1493 = arith.constant 4096 : i32
    %c0_i32_1494 = arith.constant 0 : i32
    %1269 = tpu.memref_slice %arg1[%c4096_i32_1493, %c0_i32_1494] : memref<8192x2048xbf16, #tpu.memory_space<hbm>> -> memref<1024x8192xbf16, #tpu.memory_space<hbm>>
    %c0_i32_1495 = arith.constant 0 : i32
    %c0_i32_1496 = arith.constant 0 : i32
    %1270 = tpu.memref_slice %arg3[%c0_i32_1491, %c0_i32_1495, %c0_i32_1496] : memref<2x1024x8192xbf16, #tpu.memory_space<vmem>> -> memref<1x1024x8192xbf16, #tpu.memory_space<vmem>>
    %1271 = tpu.memref_squeeze %1270 : memref<1x1024x8192xbf16, #tpu.memory_space<vmem>> -> memref<1024x8192xbf16, #tpu.memory_space<vmem>>
    %1272 = tpu.memref_slice %arg4[%c0_i32_1492] : memref<2x!tpu.dma_semaphore, #tpu.memory_space<semaphore_mem>> -> memref<1x!tpu.dma_semaphore, #tpu.memory_space<semaphore_mem>>
    %1273 = tpu.memref_squeeze %1272 : memref<1x!tpu.dma_semaphore, #tpu.memory_space<semaphore_mem>> -> memref<!tpu.dma_semaphore, #tpu.memory_space<semaphore_mem>>
    tpu.enqueue_dma source(%1269 : memref<1024x8192xbf16, #tpu.memory_space<hbm>>) target(%1271 : memref<1024x8192xbf16, #tpu.memory_space<vmem>>) target_semaphore(%1273 : memref<!tpu.dma_semaphore, #tpu.memory_space<semaphore_mem>>)
    %cst_1497 = arith.constant 1.000000e+00 : f32
    %1274 = arith.addf %1263, %cst_1497 : f32
    %c1_i32_1498 = arith.constant 1 : i32
    %c1_i32_1499 = arith.constant 1 : i32
    %c3072_i32_1500 = arith.constant 3072 : i32
    %c0_i32_1501 = arith.constant 0 : i32
    %1275 = tpu.memref_slice %arg1[%c3072_i32_1500, %c0_i32_1501] : memref<8192x2048xbf16, #tpu.memory_space<hbm>> -> memref<1024x8192xbf16, #tpu.memory_space<hbm>>
    %c0_i32_1502 = arith.constant 0 : i32
    %c0_i32_1503 = arith.constant 0 : i32
    %1276 = tpu.memref_slice %arg3[%c1_i32_1498, %c0_i32_1502, %c0_i32_1503] : memref<2x1024x8192xbf16, #tpu.memory_space<vmem>> -> memref<1x1024x8192xbf16, #tpu.memory_space<vmem>>
    %1277 = tpu.memref_squeeze %1276 : memref<1x1024x8192xbf16, #tpu.memory_space<vmem>> -> memref<1024x8192xbf16, #tpu.memory_space<vmem>>
    %1278 = tpu.memref_slice %arg4[%c1_i32_1499] : memref<2x!tpu.dma_semaphore, #tpu.memory_space<semaphore_mem>> -> memref<1x!tpu.dma_semaphore, #tpu.memory_space<semaphore_mem>>
    %1279 = tpu.memref_squeeze %1278 : memref<1x!tpu.dma_semaphore, #tpu.memory_space<semaphore_mem>> -> memref<!tpu.dma_semaphore, #tpu.memory_space<semaphore_mem>>
    tpu.wait_dma2 semaphore(%1279 : memref<!tpu.dma_semaphore, #tpu.memory_space<semaphore_mem>>) src(%1275 : memref<1024x8192xbf16, #tpu.memory_space<hbm>>) dst(%1277 : memref<1024x8192xbf16, #tpu.memory_space<vmem>>)
    %c1_i32_1504 = arith.constant 1 : i32
    %c1_i32_1505 = arith.constant 1 : i32
    %c5120_i32_1506 = arith.constant 5120 : i32
    %c0_i32_1507 = arith.constant 0 : i32
    %1280 = tpu.memref_slice %arg1[%c5120_i32_1506, %c0_i32_1507] : memref<8192x2048xbf16, #tpu.memory_space<hbm>> -> memref<1024x8192xbf16, #tpu.memory_space<hbm>>
    %c0_i32_1508 = arith.constant 0 : i32
    %c0_i32_1509 = arith.constant 0 : i32
    %1281 = tpu.memref_slice %arg3[%c1_i32_1504, %c0_i32_1508, %c0_i32_1509] : memref<2x1024x8192xbf16, #tpu.memory_space<vmem>> -> memref<1x1024x8192xbf16, #tpu.memory_space<vmem>>
    %1282 = tpu.memref_squeeze %1281 : memref<1x1024x8192xbf16, #tpu.memory_space<vmem>> -> memref<1024x8192xbf16, #tpu.memory_space<vmem>>
    %1283 = tpu.memref_slice %arg4[%c1_i32_1505] : memref<2x!tpu.dma_semaphore, #tpu.memory_space<semaphore_mem>> -> memref<1x!tpu.dma_semaphore, #tpu.memory_space<semaphore_mem>>
    %1284 = tpu.memref_squeeze %1283 : memref<1x!tpu.dma_semaphore, #tpu.memory_space<semaphore_mem>> -> memref<!tpu.dma_semaphore, #tpu.memory_space<semaphore_mem>>
    tpu.enqueue_dma source(%1280 : memref<1024x8192xbf16, #tpu.memory_space<hbm>>) target(%1282 : memref<1024x8192xbf16, #tpu.memory_space<vmem>>) target_semaphore(%1284 : memref<!tpu.dma_semaphore, #tpu.memory_space<semaphore_mem>>)
    %cst_1510 = arith.constant 1.000000e+00 : f32
    %1285 = arith.addf %1274, %cst_1510 : f32
    %c0_i32_1511 = arith.constant 0 : i32
    %c0_i32_1512 = arith.constant 0 : i32
    %c4096_i32_1513 = arith.constant 4096 : i32
    %c0_i32_1514 = arith.constant 0 : i32
    %1286 = tpu.memref_slice %arg1[%c4096_i32_1513, %c0_i32_1514] : memref<8192x2048xbf16, #tpu.memory_space<hbm>> -> memref<1024x8192xbf16, #tpu.memory_space<hbm>>
    %c0_i32_1515 = arith.constant 0 : i32
    %c0_i32_1516 = arith.constant 0 : i32
    %1287 = tpu.memref_slice %arg3[%c0_i32_1511, %c0_i32_1515, %c0_i32_1516] : memref<2x1024x8192xbf16, #tpu.memory_space<vmem>> -> memref<1x1024x8192xbf16, #tpu.memory_space<vmem>>
    %1288 = tpu.memref_squeeze %1287 : memref<1x1024x8192xbf16, #tpu.memory_space<vmem>> -> memref<1024x8192xbf16, #tpu.memory_space<vmem>>
    %1289 = tpu.memref_slice %arg4[%c0_i32_1512] : memref<2x!tpu.dma_semaphore, #tpu.memory_space<semaphore_mem>> -> memref<1x!tpu.dma_semaphore, #tpu.memory_space<semaphore_mem>>
    %1290 = tpu.memref_squeeze %1289 : memref<1x!tpu.dma_semaphore, #tpu.memory_space<semaphore_mem>> -> memref<!tpu.dma_semaphore, #tpu.memory_space<semaphore_mem>>
    tpu.wait_dma2 semaphore(%1290 : memref<!tpu.dma_semaphore, #tpu.memory_space<semaphore_mem>>) src(%1286 : memref<1024x8192xbf16, #tpu.memory_space<hbm>>) dst(%1288 : memref<1024x8192xbf16, #tpu.memory_space<vmem>>)
    %c0_i32_1517 = arith.constant 0 : i32
    %c0_i32_1518 = arith.constant 0 : i32
    %c6144_i32_1519 = arith.constant 6144 : i32
    %c0_i32_1520 = arith.constant 0 : i32
    %1291 = tpu.memref_slice %arg1[%c6144_i32_1519, %c0_i32_1520] : memref<8192x2048xbf16, #tpu.memory_space<hbm>> -> memref<1024x8192xbf16, #tpu.memory_space<hbm>>
    %c0_i32_1521 = arith.constant 0 : i32
    %c0_i32_1522 = arith.constant 0 : i32
    %1292 = tpu.memref_slice %arg3[%c0_i32_1517, %c0_i32_1521, %c0_i32_1522] : memref<2x1024x8192xbf16, #tpu.memory_space<vmem>> -> memref<1x1024x8192xbf16, #tpu.memory_space<vmem>>
    %1293 = tpu.memref_squeeze %1292 : memref<1x1024x8192xbf16, #tpu.memory_space<vmem>> -> memref<1024x8192xbf16, #tpu.memory_space<vmem>>
    %1294 = tpu.memref_slice %arg4[%c0_i32_1518] : memref<2x!tpu.dma_semaphore, #tpu.memory_space<semaphore_mem>> -> memref<1x!tpu.dma_semaphore, #tpu.memory_space<semaphore_mem>>
    %1295 = tpu.memref_squeeze %1294 : memref<1x!tpu.dma_semaphore, #tpu.memory_space<semaphore_mem>> -> memref<!tpu.dma_semaphore, #tpu.memory_space<semaphore_mem>>
    tpu.enqueue_dma source(%1291 : memref<1024x8192xbf16, #tpu.memory_space<hbm>>) target(%1293 : memref<1024x8192xbf16, #tpu.memory_space<vmem>>) target_semaphore(%1295 : memref<!tpu.dma_semaphore, #tpu.memory_space<semaphore_mem>>)
    %cst_1523 = arith.constant 1.000000e+00 : f32
    %1296 = arith.addf %1285, %cst_1523 : f32
    %c1_i32_1524 = arith.constant 1 : i32
    %c1_i32_1525 = arith.constant 1 : i32
    %c5120_i32_1526 = arith.constant 5120 : i32
    %c0_i32_1527 = arith.constant 0 : i32
    %1297 = tpu.memref_slice %arg1[%c5120_i32_1526, %c0_i32_1527] : memref<8192x2048xbf16, #tpu.memory_space<hbm>> -> memref<1024x8192xbf16, #tpu.memory_space<hbm>>
    %c0_i32_1528 = arith.constant 0 : i32
    %c0_i32_1529 = arith.constant 0 : i32
    %1298 = tpu.memref_slice %arg3[%c1_i32_1524, %c0_i32_1528, %c0_i32_1529] : memref<2x1024x8192xbf16, #tpu.memory_space<vmem>> -> memref<1x1024x8192xbf16, #tpu.memory_space<vmem>>
    %1299 = tpu.memref_squeeze %1298 : memref<1x1024x8192xbf16, #tpu.memory_space<vmem>> -> memref<1024x8192xbf16, #tpu.memory_space<vmem>>
    %1300 = tpu.memref_slice %arg4[%c1_i32_1525] : memref<2x!tpu.dma_semaphore, #tpu.memory_space<semaphore_mem>> -> memref<1x!tpu.dma_semaphore, #tpu.memory_space<semaphore_mem>>
    %1301 = tpu.memref_squeeze %1300 : memref<1x!tpu.dma_semaphore, #tpu.memory_space<semaphore_mem>> -> memref<!tpu.dma_semaphore, #tpu.memory_space<semaphore_mem>>
    tpu.wait_dma2 semaphore(%1301 : memref<!tpu.dma_semaphore, #tpu.memory_space<semaphore_mem>>) src(%1297 : memref<1024x8192xbf16, #tpu.memory_space<hbm>>) dst(%1299 : memref<1024x8192xbf16, #tpu.memory_space<vmem>>)
    %c1_i32_1530 = arith.constant 1 : i32
    %c1_i32_1531 = arith.constant 1 : i32
    %c7168_i32_1532 = arith.constant 7168 : i32
    %c0_i32_1533 = arith.constant 0 : i32
    %1302 = tpu.memref_slice %arg1[%c7168_i32_1532, %c0_i32_1533] : memref<8192x2048xbf16, #tpu.memory_space<hbm>> -> memref<1024x8192xbf16, #tpu.memory_space<hbm>>
    %c0_i32_1534 = arith.constant 0 : i32
    %c0_i32_1535 = arith.constant 0 : i32
    %1303 = tpu.memref_slice %arg3[%c1_i32_1530, %c0_i32_1534, %c0_i32_1535] : memref<2x1024x8192xbf16, #tpu.memory_space<vmem>> -> memref<1x1024x8192xbf16, #tpu.memory_space<vmem>>
    %1304 = tpu.memref_squeeze %1303 : memref<1x1024x8192xbf16, #tpu.memory_space<vmem>> -> memref<1024x8192xbf16, #tpu.memory_space<vmem>>
    %1305 = tpu.memref_slice %arg4[%c1_i32_1531] : memref<2x!tpu.dma_semaphore, #tpu.memory_space<semaphore_mem>> -> memref<1x!tpu.dma_semaphore, #tpu.memory_space<semaphore_mem>>
    %1306 = tpu.memref_squeeze %1305 : memref<1x!tpu.dma_semaphore, #tpu.memory_space<semaphore_mem>> -> memref<!tpu.dma_semaphore, #tpu.memory_space<semaphore_mem>>
    tpu.enqueue_dma source(%1302 : memref<1024x8192xbf16, #tpu.memory_space<hbm>>) target(%1304 : memref<1024x8192xbf16, #tpu.memory_space<vmem>>) target_semaphore(%1306 : memref<!tpu.dma_semaphore, #tpu.memory_space<semaphore_mem>>)
    %cst_1536 = arith.constant 1.000000e+00 : f32
    %1307 = arith.addf %1296, %cst_1536 : f32
    %c0_i32_1537 = arith.constant 0 : i32
    %c0_i32_1538 = arith.constant 0 : i32
    %c6144_i32_1539 = arith.constant 6144 : i32
    %c0_i32_1540 = arith.constant 0 : i32
    %1308 = tpu.memref_slice %arg1[%c6144_i32_1539, %c0_i32_1540] : memref<8192x2048xbf16, #tpu.memory_space<hbm>> -> memref<1024x8192xbf16, #tpu.memory_space<hbm>>
    %c0_i32_1541 = arith.constant 0 : i32
    %c0_i32_1542 = arith.constant 0 : i32
    %1309 = tpu.memref_slice %arg3[%c0_i32_1537, %c0_i32_1541, %c0_i32_1542] : memref<2x1024x8192xbf16, #tpu.memory_space<vmem>> -> memref<1x1024x8192xbf16, #tpu.memory_space<vmem>>
    %1310 = tpu.memref_squeeze %1309 : memref<1x1024x8192xbf16, #tpu.memory_space<vmem>> -> memref<1024x8192xbf16, #tpu.memory_space<vmem>>
    %1311 = tpu.memref_slice %arg4[%c0_i32_1538] : memref<2x!tpu.dma_semaphore, #tpu.memory_space<semaphore_mem>> -> memref<1x!tpu.dma_semaphore, #tpu.memory_space<semaphore_mem>>
    %1312 = tpu.memref_squeeze %1311 : memref<1x!tpu.dma_semaphore, #tpu.memory_space<semaphore_mem>> -> memref<!tpu.dma_semaphore, #tpu.memory_space<semaphore_mem>>
    tpu.wait_dma2 semaphore(%1312 : memref<!tpu.dma_semaphore, #tpu.memory_space<semaphore_mem>>) src(%1308 : memref<1024x8192xbf16, #tpu.memory_space<hbm>>) dst(%1310 : memref<1024x8192xbf16, #tpu.memory_space<vmem>>)
    %c0_i32_1543 = arith.constant 0 : i32
    %c0_i32_1544 = arith.constant 0 : i32
    %c0_i32_1545 = arith.constant 0 : i32
    %c0_i32_1546 = arith.constant 0 : i32
    %1313 = tpu.memref_slice %arg1[%c0_i32_1545, %c0_i32_1546] : memref<8192x2048xbf16, #tpu.memory_space<hbm>> -> memref<1024x8192xbf16, #tpu.memory_space<hbm>>
    %c0_i32_1547 = arith.constant 0 : i32
    %c0_i32_1548 = arith.constant 0 : i32
    %1314 = tpu.memref_slice %arg3[%c0_i32_1543, %c0_i32_1547, %c0_i32_1548] : memref<2x1024x8192xbf16, #tpu.memory_space<vmem>> -> memref<1x1024x8192xbf16, #tpu.memory_space<vmem>>
    %1315 = tpu.memref_squeeze %1314 : memref<1x1024x8192xbf16, #tpu.memory_space<vmem>> -> memref<1024x8192xbf16, #tpu.memory_space<vmem>>
    %1316 = tpu.memref_slice %arg4[%c0_i32_1544] : memref<2x!tpu.dma_semaphore, #tpu.memory_space<semaphore_mem>> -> memref<1x!tpu.dma_semaphore, #tpu.memory_space<semaphore_mem>>
    %1317 = tpu.memref_squeeze %1316 : memref<1x!tpu.dma_semaphore, #tpu.memory_space<semaphore_mem>> -> memref<!tpu.dma_semaphore, #tpu.memory_space<semaphore_mem>>
    tpu.enqueue_dma source(%1313 : memref<1024x8192xbf16, #tpu.memory_space<hbm>>) target(%1315 : memref<1024x8192xbf16, #tpu.memory_space<vmem>>) target_semaphore(%1317 : memref<!tpu.dma_semaphore, #tpu.memory_space<semaphore_mem>>)
    %cst_1549 = arith.constant 1.000000e+00 : f32
    %1318 = arith.addf %1307, %cst_1549 : f32
    %c1_i32_1550 = arith.constant 1 : i32
    %c1_i32_1551 = arith.constant 1 : i32
    %c7168_i32_1552 = arith.constant 7168 : i32
    %c0_i32_1553 = arith.constant 0 : i32
    %1319 = tpu.memref_slice %arg1[%c7168_i32_1552, %c0_i32_1553] : memref<8192x2048xbf16, #tpu.memory_space<hbm>> -> memref<1024x8192xbf16, #tpu.memory_space<hbm>>
    %c0_i32_1554 = arith.constant 0 : i32
    %c0_i32_1555 = arith.constant 0 : i32
    %1320 = tpu.memref_slice %arg3[%c1_i32_1550, %c0_i32_1554, %c0_i32_1555] : memref<2x1024x8192xbf16, #tpu.memory_space<vmem>> -> memref<1x1024x8192xbf16, #tpu.memory_space<vmem>>
    %1321 = tpu.memref_squeeze %1320 : memref<1x1024x8192xbf16, #tpu.memory_space<vmem>> -> memref<1024x8192xbf16, #tpu.memory_space<vmem>>
    %1322 = tpu.memref_slice %arg4[%c1_i32_1551] : memref<2x!tpu.dma_semaphore, #tpu.memory_space<semaphore_mem>> -> memref<1x!tpu.dma_semaphore, #tpu.memory_space<semaphore_mem>>
    %1323 = tpu.memref_squeeze %1322 : memref<1x!tpu.dma_semaphore, #tpu.memory_space<semaphore_mem>> -> memref<!tpu.dma_semaphore, #tpu.memory_space<semaphore_mem>>
    tpu.wait_dma2 semaphore(%1323 : memref<!tpu.dma_semaphore, #tpu.memory_space<semaphore_mem>>) src(%1319 : memref<1024x8192xbf16, #tpu.memory_space<hbm>>) dst(%1321 : memref<1024x8192xbf16, #tpu.memory_space<vmem>>)
    %c1_i32_1556 = arith.constant 1 : i32
    %c1_i32_1557 = arith.constant 1 : i32
    %c1024_i32_1558 = arith.constant 1024 : i32
    %c0_i32_1559 = arith.constant 0 : i32
    %1324 = tpu.memref_slice %arg1[%c1024_i32_1558, %c0_i32_1559] : memref<8192x2048xbf16, #tpu.memory_space<hbm>> -> memref<1024x8192xbf16, #tpu.memory_space<hbm>>
    %c0_i32_1560 = arith.constant 0 : i32
    %c0_i32_1561 = arith.constant 0 : i32
    %1325 = tpu.memref_slice %arg3[%c1_i32_1556, %c0_i32_1560, %c0_i32_1561] : memref<2x1024x8192xbf16, #tpu.memory_space<vmem>> -> memref<1x1024x8192xbf16, #tpu.memory_space<vmem>>
    %1326 = tpu.memref_squeeze %1325 : memref<1x1024x8192xbf16, #tpu.memory_space<vmem>> -> memref<1024x8192xbf16, #tpu.memory_space<vmem>>
    %1327 = tpu.memref_slice %arg4[%c1_i32_1557] : memref<2x!tpu.dma_semaphore, #tpu.memory_space<semaphore_mem>> -> memref<1x!tpu.dma_semaphore, #tpu.memory_space<semaphore_mem>>
    %1328 = tpu.memref_squeeze %1327 : memref<1x!tpu.dma_semaphore, #tpu.memory_space<semaphore_mem>> -> memref<!tpu.dma_semaphore, #tpu.memory_space<semaphore_mem>>
    tpu.enqueue_dma source(%1324 : memref<1024x8192xbf16, #tpu.memory_space<hbm>>) target(%1326 : memref<1024x8192xbf16, #tpu.memory_space<vmem>>) target_semaphore(%1328 : memref<!tpu.dma_semaphore, #tpu.memory_space<semaphore_mem>>)
    %cst_1562 = arith.constant 1.000000e+00 : f32
    %1329 = arith.addf %1318, %cst_1562 : f32
    %c0_i32_1563 = arith.constant 0 : i32
    %c0_i32_1564 = arith.constant 0 : i32
    %c0_i32_1565 = arith.constant 0 : i32
    %c0_i32_1566 = arith.constant 0 : i32
    %1330 = tpu.memref_slice %arg1[%c0_i32_1565, %c0_i32_1566] : memref<8192x2048xbf16, #tpu.memory_space<hbm>> -> memref<1024x8192xbf16, #tpu.memory_space<hbm>>
    %c0_i32_1567 = arith.constant 0 : i32
    %c0_i32_1568 = arith.constant 0 : i32
    %1331 = tpu.memref_slice %arg3[%c0_i32_1563, %c0_i32_1567, %c0_i32_1568] : memref<2x1024x8192xbf16, #tpu.memory_space<vmem>> -> memref<1x1024x8192xbf16, #tpu.memory_space<vmem>>
    %1332 = tpu.memref_squeeze %1331 : memref<1x1024x8192xbf16, #tpu.memory_space<vmem>> -> memref<1024x8192xbf16, #tpu.memory_space<vmem>>
    %1333 = tpu.memref_slice %arg4[%c0_i32_1564] : memref<2x!tpu.dma_semaphore, #tpu.memory_space<semaphore_mem>> -> memref<1x!tpu.dma_semaphore, #tpu.memory_space<semaphore_mem>>
    %1334 = tpu.memref_squeeze %1333 : memref<1x!tpu.dma_semaphore, #tpu.memory_space<semaphore_mem>> -> memref<!tpu.dma_semaphore, #tpu.memory_space<semaphore_mem>>
    tpu.wait_dma2 semaphore(%1334 : memref<!tpu.dma_semaphore, #tpu.memory_space<semaphore_mem>>) src(%1330 : memref<1024x8192xbf16, #tpu.memory_space<hbm>>) dst(%1332 : memref<1024x8192xbf16, #tpu.memory_space<vmem>>)
    %c0_i32_1569 = arith.constant 0 : i32
    %c0_i32_1570 = arith.constant 0 : i32
    %c2048_i32_1571 = arith.constant 2048 : i32
    %c0_i32_1572 = arith.constant 0 : i32
    %1335 = tpu.memref_slice %arg1[%c2048_i32_1571, %c0_i32_1572] : memref<8192x2048xbf16, #tpu.memory_space<hbm>> -> memref<1024x8192xbf16, #tpu.memory_space<hbm>>
    %c0_i32_1573 = arith.constant 0 : i32
    %c0_i32_1574 = arith.constant 0 : i32
    %1336 = tpu.memref_slice %arg3[%c0_i32_1569, %c0_i32_1573, %c0_i32_1574] : memref<2x1024x8192xbf16, #tpu.memory_space<vmem>> -> memref<1x1024x8192xbf16, #tpu.memory_space<vmem>>
    %1337 = tpu.memref_squeeze %1336 : memref<1x1024x8192xbf16, #tpu.memory_space<vmem>> -> memref<1024x8192xbf16, #tpu.memory_space<vmem>>
    %1338 = tpu.memref_slice %arg4[%c0_i32_1570] : memref<2x!tpu.dma_semaphore, #tpu.memory_space<semaphore_mem>> -> memref<1x!tpu.dma_semaphore, #tpu.memory_space<semaphore_mem>>
    %1339 = tpu.memref_squeeze %1338 : memref<1x!tpu.dma_semaphore, #tpu.memory_space<semaphore_mem>> -> memref<!tpu.dma_semaphore, #tpu.memory_space<semaphore_mem>>
    tpu.enqueue_dma source(%1335 : memref<1024x8192xbf16, #tpu.memory_space<hbm>>) target(%1337 : memref<1024x8192xbf16, #tpu.memory_space<vmem>>) target_semaphore(%1339 : memref<!tpu.dma_semaphore, #tpu.memory_space<semaphore_mem>>)
    %cst_1575 = arith.constant 1.000000e+00 : f32
    %1340 = arith.addf %1329, %cst_1575 : f32
    %c1_i32_1576 = arith.constant 1 : i32
    %c1_i32_1577 = arith.constant 1 : i32
    %c1024_i32_1578 = arith.constant 1024 : i32
    %c0_i32_1579 = arith.constant 0 : i32
    %1341 = tpu.memref_slice %arg1[%c1024_i32_1578, %c0_i32_1579] : memref<8192x2048xbf16, #tpu.memory_space<hbm>> -> memref<1024x8192xbf16, #tpu.memory_space<hbm>>
    %c0_i32_1580 = arith.constant 0 : i32
    %c0_i32_1581 = arith.constant 0 : i32
    %1342 = tpu.memref_slice %arg3[%c1_i32_1576, %c0_i32_1580, %c0_i32_1581] : memref<2x1024x8192xbf16, #tpu.memory_space<vmem>> -> memref<1x1024x8192xbf16, #tpu.memory_space<vmem>>
    %1343 = tpu.memref_squeeze %1342 : memref<1x1024x8192xbf16, #tpu.memory_space<vmem>> -> memref<1024x8192xbf16, #tpu.memory_space<vmem>>
    %1344 = tpu.memref_slice %arg4[%c1_i32_1577] : memref<2x!tpu.dma_semaphore, #tpu.memory_space<semaphore_mem>> -> memref<1x!tpu.dma_semaphore, #tpu.memory_space<semaphore_mem>>
    %1345 = tpu.memref_squeeze %1344 : memref<1x!tpu.dma_semaphore, #tpu.memory_space<semaphore_mem>> -> memref<!tpu.dma_semaphore, #tpu.memory_space<semaphore_mem>>
    tpu.wait_dma2 semaphore(%1345 : memref<!tpu.dma_semaphore, #tpu.memory_space<semaphore_mem>>) src(%1341 : memref<1024x8192xbf16, #tpu.memory_space<hbm>>) dst(%1343 : memref<1024x8192xbf16, #tpu.memory_space<vmem>>)
    %c1_i32_1582 = arith.constant 1 : i32
    %c1_i32_1583 = arith.constant 1 : i32
    %c3072_i32_1584 = arith.constant 3072 : i32
    %c0_i32_1585 = arith.constant 0 : i32
    %1346 = tpu.memref_slice %arg1[%c3072_i32_1584, %c0_i32_1585] : memref<8192x2048xbf16, #tpu.memory_space<hbm>> -> memref<1024x8192xbf16, #tpu.memory_space<hbm>>
    %c0_i32_1586 = arith.constant 0 : i32
    %c0_i32_1587 = arith.constant 0 : i32
    %1347 = tpu.memref_slice %arg3[%c1_i32_1582, %c0_i32_1586, %c0_i32_1587] : memref<2x1024x8192xbf16, #tpu.memory_space<vmem>> -> memref<1x1024x8192xbf16, #tpu.memory_space<vmem>>
    %1348 = tpu.memref_squeeze %1347 : memref<1x1024x8192xbf16, #tpu.memory_space<vmem>> -> memref<1024x8192xbf16, #tpu.memory_space<vmem>>
    %1349 = tpu.memref_slice %arg4[%c1_i32_1583] : memref<2x!tpu.dma_semaphore, #tpu.memory_space<semaphore_mem>> -> memref<1x!tpu.dma_semaphore, #tpu.memory_space<semaphore_mem>>
    %1350 = tpu.memref_squeeze %1349 : memref<1x!tpu.dma_semaphore, #tpu.memory_space<semaphore_mem>> -> memref<!tpu.dma_semaphore, #tpu.memory_space<semaphore_mem>>
    tpu.enqueue_dma source(%1346 : memref<1024x8192xbf16, #tpu.memory_space<hbm>>) target(%1348 : memref<1024x8192xbf16, #tpu.memory_space<vmem>>) target_semaphore(%1350 : memref<!tpu.dma_semaphore, #tpu.memory_space<semaphore_mem>>)
    %cst_1588 = arith.constant 1.000000e+00 : f32
    %1351 = arith.addf %1340, %cst_1588 : f32
    %c0_i32_1589 = arith.constant 0 : i32
    %c0_i32_1590 = arith.constant 0 : i32
    %c2048_i32_1591 = arith.constant 2048 : i32
    %c0_i32_1592 = arith.constant 0 : i32
    %1352 = tpu.memref_slice %arg1[%c2048_i32_1591, %c0_i32_1592] : memref<8192x2048xbf16, #tpu.memory_space<hbm>> -> memref<1024x8192xbf16, #tpu.memory_space<hbm>>
    %c0_i32_1593 = arith.constant 0 : i32
    %c0_i32_1594 = arith.constant 0 : i32
    %1353 = tpu.memref_slice %arg3[%c0_i32_1589, %c0_i32_1593, %c0_i32_1594] : memref<2x1024x8192xbf16, #tpu.memory_space<vmem>> -> memref<1x1024x8192xbf16, #tpu.memory_space<vmem>>
    %1354 = tpu.memref_squeeze %1353 : memref<1x1024x8192xbf16, #tpu.memory_space<vmem>> -> memref<1024x8192xbf16, #tpu.memory_space<vmem>>
    %1355 = tpu.memref_slice %arg4[%c0_i32_1590] : memref<2x!tpu.dma_semaphore, #tpu.memory_space<semaphore_mem>> -> memref<1x!tpu.dma_semaphore, #tpu.memory_space<semaphore_mem>>
    %1356 = tpu.memref_squeeze %1355 : memref<1x!tpu.dma_semaphore, #tpu.memory_space<semaphore_mem>> -> memref<!tpu.dma_semaphore, #tpu.memory_space<semaphore_mem>>
    tpu.wait_dma2 semaphore(%1356 : memref<!tpu.dma_semaphore, #tpu.memory_space<semaphore_mem>>) src(%1352 : memref<1024x8192xbf16, #tpu.memory_space<hbm>>) dst(%1354 : memref<1024x8192xbf16, #tpu.memory_space<vmem>>)
    %c0_i32_1595 = arith.constant 0 : i32
    %c0_i32_1596 = arith.constant 0 : i32
    %c4096_i32_1597 = arith.constant 4096 : i32
    %c0_i32_1598 = arith.constant 0 : i32
    %1357 = tpu.memref_slice %arg1[%c4096_i32_1597, %c0_i32_1598] : memref<8192x2048xbf16, #tpu.memory_space<hbm>> -> memref<1024x8192xbf16, #tpu.memory_space<hbm>>
    %c0_i32_1599 = arith.constant 0 : i32
    %c0_i32_1600 = arith.constant 0 : i32
    %1358 = tpu.memref_slice %arg3[%c0_i32_1595, %c0_i32_1599, %c0_i32_1600] : memref<2x1024x8192xbf16, #tpu.memory_space<vmem>> -> memref<1x1024x8192xbf16, #tpu.memory_space<vmem>>
    %1359 = tpu.memref_squeeze %1358 : memref<1x1024x8192xbf16, #tpu.memory_space<vmem>> -> memref<1024x8192xbf16, #tpu.memory_space<vmem>>
    %1360 = tpu.memref_slice %arg4[%c0_i32_1596] : memref<2x!tpu.dma_semaphore, #tpu.memory_space<semaphore_mem>> -> memref<1x!tpu.dma_semaphore, #tpu.memory_space<semaphore_mem>>
    %1361 = tpu.memref_squeeze %1360 : memref<1x!tpu.dma_semaphore, #tpu.memory_space<semaphore_mem>> -> memref<!tpu.dma_semaphore, #tpu.memory_space<semaphore_mem>>
    tpu.enqueue_dma source(%1357 : memref<1024x8192xbf16, #tpu.memory_space<hbm>>) target(%1359 : memref<1024x8192xbf16, #tpu.memory_space<vmem>>) target_semaphore(%1361 : memref<!tpu.dma_semaphore, #tpu.memory_space<semaphore_mem>>)
    %cst_1601 = arith.constant 1.000000e+00 : f32
    %1362 = arith.addf %1351, %cst_1601 : f32
    %c1_i32_1602 = arith.constant 1 : i32
    %c1_i32_1603 = arith.constant 1 : i32
    %c3072_i32_1604 = arith.constant 3072 : i32
    %c0_i32_1605 = arith.constant 0 : i32
    %1363 = tpu.memref_slice %arg1[%c3072_i32_1604, %c0_i32_1605] : memref<8192x2048xbf16, #tpu.memory_space<hbm>> -> memref<1024x8192xbf16, #tpu.memory_space<hbm>>
    %c0_i32_1606 = arith.constant 0 : i32
    %c0_i32_1607 = arith.constant 0 : i32
    %1364 = tpu.memref_slice %arg3[%c1_i32_1602, %c0_i32_1606, %c0_i32_1607] : memref<2x1024x8192xbf16, #tpu.memory_space<vmem>> -> memref<1x1024x8192xbf16, #tpu.memory_space<vmem>>
    %1365 = tpu.memref_squeeze %1364 : memref<1x1024x8192xbf16, #tpu.memory_space<vmem>> -> memref<1024x8192xbf16, #tpu.memory_space<vmem>>
    %1366 = tpu.memref_slice %arg4[%c1_i32_1603] : memref<2x!tpu.dma_semaphore, #tpu.memory_space<semaphore_mem>> -> memref<1x!tpu.dma_semaphore, #tpu.memory_space<semaphore_mem>>
    %1367 = tpu.memref_squeeze %1366 : memref<1x!tpu.dma_semaphore, #tpu.memory_space<semaphore_mem>> -> memref<!tpu.dma_semaphore, #tpu.memory_space<semaphore_mem>>
    tpu.wait_dma2 semaphore(%1367 : memref<!tpu.dma_semaphore, #tpu.memory_space<semaphore_mem>>) src(%1363 : memref<1024x8192xbf16, #tpu.memory_space<hbm>>) dst(%1365 : memref<1024x8192xbf16, #tpu.memory_space<vmem>>)
    %c1_i32_1608 = arith.constant 1 : i32
    %c1_i32_1609 = arith.constant 1 : i32
    %c5120_i32_1610 = arith.constant 5120 : i32
    %c0_i32_1611 = arith.constant 0 : i32
    %1368 = tpu.memref_slice %arg1[%c5120_i32_1610, %c0_i32_1611] : memref<8192x2048xbf16, #tpu.memory_space<hbm>> -> memref<1024x8192xbf16, #tpu.memory_space<hbm>>
    %c0_i32_1612 = arith.constant 0 : i32
    %c0_i32_1613 = arith.constant 0 : i32
    %1369 = tpu.memref_slice %arg3[%c1_i32_1608, %c0_i32_1612, %c0_i32_1613] : memref<2x1024x8192xbf16, #tpu.memory_space<vmem>> -> memref<1x1024x8192xbf16, #tpu.memory_space<vmem>>
    %1370 = tpu.memref_squeeze %1369 : memref<1x1024x8192xbf16, #tpu.memory_space<vmem>> -> memref<1024x8192xbf16, #tpu.memory_space<vmem>>
    %1371 = tpu.memref_slice %arg4[%c1_i32_1609] : memref<2x!tpu.dma_semaphore, #tpu.memory_space<semaphore_mem>> -> memref<1x!tpu.dma_semaphore, #tpu.memory_space<semaphore_mem>>
    %1372 = tpu.memref_squeeze %1371 : memref<1x!tpu.dma_semaphore, #tpu.memory_space<semaphore_mem>> -> memref<!tpu.dma_semaphore, #tpu.memory_space<semaphore_mem>>
    tpu.enqueue_dma source(%1368 : memref<1024x8192xbf16, #tpu.memory_space<hbm>>) target(%1370 : memref<1024x8192xbf16, #tpu.memory_space<vmem>>) target_semaphore(%1372 : memref<!tpu.dma_semaphore, #tpu.memory_space<semaphore_mem>>)
    %cst_1614 = arith.constant 1.000000e+00 : f32
    %1373 = arith.addf %1362, %cst_1614 : f32
    %c0_i32_1615 = arith.constant 0 : i32
    %c0_i32_1616 = arith.constant 0 : i32
    %c4096_i32_1617 = arith.constant 4096 : i32
    %c0_i32_1618 = arith.constant 0 : i32
    %1374 = tpu.memref_slice %arg1[%c4096_i32_1617, %c0_i32_1618] : memref<8192x2048xbf16, #tpu.memory_space<hbm>> -> memref<1024x8192xbf16, #tpu.memory_space<hbm>>
    %c0_i32_1619 = arith.constant 0 : i32
    %c0_i32_1620 = arith.constant 0 : i32
    %1375 = tpu.memref_slice %arg3[%c0_i32_1615, %c0_i32_1619, %c0_i32_1620] : memref<2x1024x8192xbf16, #tpu.memory_space<vmem>> -> memref<1x1024x8192xbf16, #tpu.memory_space<vmem>>
    %1376 = tpu.memref_squeeze %1375 : memref<1x1024x8192xbf16, #tpu.memory_space<vmem>> -> memref<1024x8192xbf16, #tpu.memory_space<vmem>>
    %1377 = tpu.memref_slice %arg4[%c0_i32_1616] : memref<2x!tpu.dma_semaphore, #tpu.memory_space<semaphore_mem>> -> memref<1x!tpu.dma_semaphore, #tpu.memory_space<semaphore_mem>>
    %1378 = tpu.memref_squeeze %1377 : memref<1x!tpu.dma_semaphore, #tpu.memory_space<semaphore_mem>> -> memref<!tpu.dma_semaphore, #tpu.memory_space<semaphore_mem>>
    tpu.wait_dma2 semaphore(%1378 : memref<!tpu.dma_semaphore, #tpu.memory_space<semaphore_mem>>) src(%1374 : memref<1024x8192xbf16, #tpu.memory_space<hbm>>) dst(%1376 : memref<1024x8192xbf16, #tpu.memory_space<vmem>>)
    %c0_i32_1621 = arith.constant 0 : i32
    %c0_i32_1622 = arith.constant 0 : i32
    %c6144_i32_1623 = arith.constant 6144 : i32
    %c0_i32_1624 = arith.constant 0 : i32
    %1379 = tpu.memref_slice %arg1[%c6144_i32_1623, %c0_i32_1624] : memref<8192x2048xbf16, #tpu.memory_space<hbm>> -> memref<1024x8192xbf16, #tpu.memory_space<hbm>>
    %c0_i32_1625 = arith.constant 0 : i32
    %c0_i32_1626 = arith.constant 0 : i32
    %1380 = tpu.memref_slice %arg3[%c0_i32_1621, %c0_i32_1625, %c0_i32_1626] : memref<2x1024x8192xbf16, #tpu.memory_space<vmem>> -> memref<1x1024x8192xbf16, #tpu.memory_space<vmem>>
    %1381 = tpu.memref_squeeze %1380 : memref<1x1024x8192xbf16, #tpu.memory_space<vmem>> -> memref<1024x8192xbf16, #tpu.memory_space<vmem>>
    %1382 = tpu.memref_slice %arg4[%c0_i32_1622] : memref<2x!tpu.dma_semaphore, #tpu.memory_space<semaphore_mem>> -> memref<1x!tpu.dma_semaphore, #tpu.memory_space<semaphore_mem>>
    %1383 = tpu.memref_squeeze %1382 : memref<1x!tpu.dma_semaphore, #tpu.memory_space<semaphore_mem>> -> memref<!tpu.dma_semaphore, #tpu.memory_space<semaphore_mem>>
    tpu.enqueue_dma source(%1379 : memref<1024x8192xbf16, #tpu.memory_space<hbm>>) target(%1381 : memref<1024x8192xbf16, #tpu.memory_space<vmem>>) target_semaphore(%1383 : memref<!tpu.dma_semaphore, #tpu.memory_space<semaphore_mem>>)
    %cst_1627 = arith.constant 1.000000e+00 : f32
    %1384 = arith.addf %1373, %cst_1627 : f32
    %c1_i32_1628 = arith.constant 1 : i32
    %c1_i32_1629 = arith.constant 1 : i32
    %c5120_i32_1630 = arith.constant 5120 : i32
    %c0_i32_1631 = arith.constant 0 : i32
    %1385 = tpu.memref_slice %arg1[%c5120_i32_1630, %c0_i32_1631] : memref<8192x2048xbf16, #tpu.memory_space<hbm>> -> memref<1024x8192xbf16, #tpu.memory_space<hbm>>
    %c0_i32_1632 = arith.constant 0 : i32
    %c0_i32_1633 = arith.constant 0 : i32
    %1386 = tpu.memref_slice %arg3[%c1_i32_1628, %c0_i32_1632, %c0_i32_1633] : memref<2x1024x8192xbf16, #tpu.memory_space<vmem>> -> memref<1x1024x8192xbf16, #tpu.memory_space<vmem>>
    %1387 = tpu.memref_squeeze %1386 : memref<1x1024x8192xbf16, #tpu.memory_space<vmem>> -> memref<1024x8192xbf16, #tpu.memory_space<vmem>>
    %1388 = tpu.memref_slice %arg4[%c1_i32_1629] : memref<2x!tpu.dma_semaphore, #tpu.memory_space<semaphore_mem>> -> memref<1x!tpu.dma_semaphore, #tpu.memory_space<semaphore_mem>>
    %1389 = tpu.memref_squeeze %1388 : memref<1x!tpu.dma_semaphore, #tpu.memory_space<semaphore_mem>> -> memref<!tpu.dma_semaphore, #tpu.memory_space<semaphore_mem>>
    tpu.wait_dma2 semaphore(%1389 : memref<!tpu.dma_semaphore, #tpu.memory_space<semaphore_mem>>) src(%1385 : memref<1024x8192xbf16, #tpu.memory_space<hbm>>) dst(%1387 : memref<1024x8192xbf16, #tpu.memory_space<vmem>>)
    %c1_i32_1634 = arith.constant 1 : i32
    %c1_i32_1635 = arith.constant 1 : i32
    %c7168_i32_1636 = arith.constant 7168 : i32
    %c0_i32_1637 = arith.constant 0 : i32
    %1390 = tpu.memref_slice %arg1[%c7168_i32_1636, %c0_i32_1637] : memref<8192x2048xbf16, #tpu.memory_space<hbm>> -> memref<1024x8192xbf16, #tpu.memory_space<hbm>>
    %c0_i32_1638 = arith.constant 0 : i32
    %c0_i32_1639 = arith.constant 0 : i32
    %1391 = tpu.memref_slice %arg3[%c1_i32_1634, %c0_i32_1638, %c0_i32_1639] : memref<2x1024x8192xbf16, #tpu.memory_space<vmem>> -> memref<1x1024x8192xbf16, #tpu.memory_space<vmem>>
    %1392 = tpu.memref_squeeze %1391 : memref<1x1024x8192xbf16, #tpu.memory_space<vmem>> -> memref<1024x8192xbf16, #tpu.memory_space<vmem>>
    %1393 = tpu.memref_slice %arg4[%c1_i32_1635] : memref<2x!tpu.dma_semaphore, #tpu.memory_space<semaphore_mem>> -> memref<1x!tpu.dma_semaphore, #tpu.memory_space<semaphore_mem>>
    %1394 = tpu.memref_squeeze %1393 : memref<1x!tpu.dma_semaphore, #tpu.memory_space<semaphore_mem>> -> memref<!tpu.dma_semaphore, #tpu.memory_space<semaphore_mem>>
    tpu.enqueue_dma source(%1390 : memref<1024x8192xbf16, #tpu.memory_space<hbm>>) target(%1392 : memref<1024x8192xbf16, #tpu.memory_space<vmem>>) target_semaphore(%1394 : memref<!tpu.dma_semaphore, #tpu.memory_space<semaphore_mem>>)
    %cst_1640 = arith.constant 1.000000e+00 : f32
    %1395 = arith.addf %1384, %cst_1640 : f32
    %c0_i32_1641 = arith.constant 0 : i32
    %c0_i32_1642 = arith.constant 0 : i32
    %c6144_i32_1643 = arith.constant 6144 : i32
    %c0_i32_1644 = arith.constant 0 : i32
    %1396 = tpu.memref_slice %arg1[%c6144_i32_1643, %c0_i32_1644] : memref<8192x2048xbf16, #tpu.memory_space<hbm>> -> memref<1024x8192xbf16, #tpu.memory_space<hbm>>
    %c0_i32_1645 = arith.constant 0 : i32
    %c0_i32_1646 = arith.constant 0 : i32
    %1397 = tpu.memref_slice %arg3[%c0_i32_1641, %c0_i32_1645, %c0_i32_1646] : memref<2x1024x8192xbf16, #tpu.memory_space<vmem>> -> memref<1x1024x8192xbf16, #tpu.memory_space<vmem>>
    %1398 = tpu.memref_squeeze %1397 : memref<1x1024x8192xbf16, #tpu.memory_space<vmem>> -> memref<1024x8192xbf16, #tpu.memory_space<vmem>>
    %1399 = tpu.memref_slice %arg4[%c0_i32_1642] : memref<2x!tpu.dma_semaphore, #tpu.memory_space<semaphore_mem>> -> memref<1x!tpu.dma_semaphore, #tpu.memory_space<semaphore_mem>>
    %1400 = tpu.memref_squeeze %1399 : memref<1x!tpu.dma_semaphore, #tpu.memory_space<semaphore_mem>> -> memref<!tpu.dma_semaphore, #tpu.memory_space<semaphore_mem>>
    tpu.wait_dma2 semaphore(%1400 : memref<!tpu.dma_semaphore, #tpu.memory_space<semaphore_mem>>) src(%1396 : memref<1024x8192xbf16, #tpu.memory_space<hbm>>) dst(%1398 : memref<1024x8192xbf16, #tpu.memory_space<vmem>>)
    %cst_1647 = arith.constant 1.000000e+00 : f32
    %1401 = arith.addf %1395, %cst_1647 : f32
    %c1_i32_1648 = arith.constant 1 : i32
    %c1_i32_1649 = arith.constant 1 : i32
    %c7168_i32_1650 = arith.constant 7168 : i32
    %c0_i32_1651 = arith.constant 0 : i32
    %1402 = tpu.memref_slice %arg1[%c7168_i32_1650, %c0_i32_1651] : memref<8192x2048xbf16, #tpu.memory_space<hbm>> -> memref<1024x8192xbf16, #tpu.memory_space<hbm>>
    %c0_i32_1652 = arith.constant 0 : i32
    %c0_i32_1653 = arith.constant 0 : i32
    %1403 = tpu.memref_slice %arg3[%c1_i32_1648, %c0_i32_1652, %c0_i32_1653] : memref<2x1024x8192xbf16, #tpu.memory_space<vmem>> -> memref<1x1024x8192xbf16, #tpu.memory_space<vmem>>
    %1404 = tpu.memref_squeeze %1403 : memref<1x1024x8192xbf16, #tpu.memory_space<vmem>> -> memref<1024x8192xbf16, #tpu.memory_space<vmem>>
    %1405 = tpu.memref_slice %arg4[%c1_i32_1649] : memref<2x!tpu.dma_semaphore, #tpu.memory_space<semaphore_mem>> -> memref<1x!tpu.dma_semaphore, #tpu.memory_space<semaphore_mem>>
    %1406 = tpu.memref_squeeze %1405 : memref<1x!tpu.dma_semaphore, #tpu.memory_space<semaphore_mem>> -> memref<!tpu.dma_semaphore, #tpu.memory_space<semaphore_mem>>
    tpu.wait_dma2 semaphore(%1406 : memref<!tpu.dma_semaphore, #tpu.memory_space<semaphore_mem>>) src(%1402 : memref<1024x8192xbf16, #tpu.memory_space<hbm>>) dst(%1404 : memref<1024x8192xbf16, #tpu.memory_space<vmem>>)
    %cst_1654 = arith.constant 1.000000e+00 : f32
    %1407 = arith.addf %1401, %cst_1654 : f32
    %1408 = vector.broadcast %1407 : f32 to vector<1xf32>
    %c0 = arith.constant 0 : index
    %1409 = vector.load %arg2[%c0] : memref<1xf32, #tpu.memory_space<vmem>>, vector<1xf32>
    tpu.vector_store %arg2[%c0], %1408 {strides = array<i32>} : memref<1xf32, #tpu.memory_space<vmem>>, vector<1xf32>, 
    return
  }
  func.func @transform_1(%arg0: i32) -> i32 {
    %c0_i32 = arith.constant 0 : i32
    %c0_i32_0 = arith.constant 0 : i32
    return %c0_i32 : i32
  }
}
