module attributes {stable_mosaic.version = 11 : i64} {
  func.func @_dma_double_buffer_load_kernel(%arg0: i32, %arg1: memref<8192x2048xbf16, #tpu.tiled<(8,128)(2,1),[16,1]>, #tpu.memory_space<hbm>>, %arg2: memref<1xf32, #tpu.tiled<(128),[1]>, #tpu.memory_space<vmem>>, %arg3: memref<2x8192x1024xbf16, #tpu.tiled<(16,128)(2,1),[4096,8,1]>, #tpu.memory_space<vmem>>, %arg4: memref<2x!tpu.dma_semaphore, #tpu.tiled<,[1]>, #tpu.memory_space<semaphore_mem>>) attributes {dimension_semantics = [#tpu.dimension_semantics<arbitrary>], iteration_bounds = array<i64: 1>, scalar_prefetch = 0 : i64, scratch_operands = 2 : i64, tpu.core_type = #tpu.core_type<tc>, window_params = [{}, {pipeline_mode = #tpu.pipeline_mode<synchronous>, transform_indices = @transform_1, window_bounds = array<i64: 1>}]} {
    %0 = tpu.erase_memref_layout %arg1 : memref<8192x2048xbf16, #tpu.tiled<(8,128)(2,1),[16,1]>, #tpu.memory_space<hbm>> -> memref<8192x2048xbf16, #tpu.memory_space<hbm>>
    %1 = tpu.erase_memref_layout %arg2 : memref<1xf32, #tpu.tiled<(128),[1]>, #tpu.memory_space<vmem>> -> memref<1xf32, #tpu.memory_space<vmem>>
    %2 = tpu.erase_memref_layout %arg3 : memref<2x8192x1024xbf16, #tpu.tiled<(16,128)(2,1),[4096,8,1]>, #tpu.memory_space<vmem>> -> memref<2x8192x1024xbf16, #tpu.memory_space<vmem>>
    %3 = tpu.erase_memref_layout %arg4 : memref<2x!tpu.dma_semaphore, #tpu.tiled<,[1]>, #tpu.memory_space<semaphore_mem>> -> memref<2x!tpu.dma_semaphore, #tpu.memory_space<semaphore_mem>>
    %c0_i32 = arith.constant 0 : i32
    %c0_i32_0 = arith.constant 0 : i32
    %c0_i32_1 = arith.constant 0 : i32
    %c0_i32_2 = arith.constant 0 : i32
    %4 = tpu.memref_slice %0[%c0_i32_1, %c0_i32_2] : memref<8192x2048xbf16, #tpu.memory_space<hbm>> -> memref<8192x1024xbf16, #tpu.memory_space<hbm>>
    %c0_i32_3 = arith.constant 0 : i32
    %c0_i32_4 = arith.constant 0 : i32
    %5 = tpu.memref_slice %2[%c0_i32, %c0_i32_3, %c0_i32_4] : memref<2x8192x1024xbf16, #tpu.memory_space<vmem>> -> memref<1x8192x1024xbf16, #tpu.memory_space<vmem>>
    %6 = tpu.memref_squeeze %5 : memref<1x8192x1024xbf16, #tpu.memory_space<vmem>> -> memref<8192x1024xbf16, #tpu.memory_space<vmem>>
    %7 = tpu.memref_slice %3[%c0_i32_0] : memref<2x!tpu.dma_semaphore, #tpu.memory_space<semaphore_mem>> -> memref<1x!tpu.dma_semaphore, #tpu.memory_space<semaphore_mem>>
    %8 = tpu.memref_squeeze %7 : memref<1x!tpu.dma_semaphore, #tpu.memory_space<semaphore_mem>> -> memref<!tpu.dma_semaphore, #tpu.memory_space<semaphore_mem>>
    tpu.enqueue_dma source(%4 : memref<8192x1024xbf16, #tpu.memory_space<hbm>>) target(%6 : memref<8192x1024xbf16, #tpu.memory_space<vmem>>) target_semaphore(%8 : memref<!tpu.dma_semaphore, #tpu.memory_space<semaphore_mem>>)
    %c1_i32 = arith.constant 1 : i32
    %c1_i32_5 = arith.constant 1 : i32
    %c0_i32_6 = arith.constant 0 : i32
    %c1024_i32 = arith.constant 1024 : i32
    %9 = tpu.memref_slice %0[%c0_i32_6, %c1024_i32] : memref<8192x2048xbf16, #tpu.memory_space<hbm>> -> memref<8192x1024xbf16, #tpu.memory_space<hbm>>
    %c0_i32_7 = arith.constant 0 : i32
    %c0_i32_8 = arith.constant 0 : i32
    %10 = tpu.memref_slice %2[%c1_i32, %c0_i32_7, %c0_i32_8] : memref<2x8192x1024xbf16, #tpu.memory_space<vmem>> -> memref<1x8192x1024xbf16, #tpu.memory_space<vmem>>
    %11 = tpu.memref_squeeze %10 : memref<1x8192x1024xbf16, #tpu.memory_space<vmem>> -> memref<8192x1024xbf16, #tpu.memory_space<vmem>>
    %12 = tpu.memref_slice %3[%c1_i32_5] : memref<2x!tpu.dma_semaphore, #tpu.memory_space<semaphore_mem>> -> memref<1x!tpu.dma_semaphore, #tpu.memory_space<semaphore_mem>>
    %13 = tpu.memref_squeeze %12 : memref<1x!tpu.dma_semaphore, #tpu.memory_space<semaphore_mem>> -> memref<!tpu.dma_semaphore, #tpu.memory_space<semaphore_mem>>
    tpu.enqueue_dma source(%9 : memref<8192x1024xbf16, #tpu.memory_space<hbm>>) target(%11 : memref<8192x1024xbf16, #tpu.memory_space<vmem>>) target_semaphore(%13 : memref<!tpu.dma_semaphore, #tpu.memory_space<semaphore_mem>>)
    %c0_i32_9 = arith.constant 0 : i32
    %c0_i32_10 = arith.constant 0 : i32
    %c0_i32_11 = arith.constant 0 : i32
    %c0_i32_12 = arith.constant 0 : i32
    %14 = tpu.memref_slice %0[%c0_i32_11, %c0_i32_12] : memref<8192x2048xbf16, #tpu.memory_space<hbm>> -> memref<8192x1024xbf16, #tpu.memory_space<hbm>>
    %c0_i32_13 = arith.constant 0 : i32
    %c0_i32_14 = arith.constant 0 : i32
    %15 = tpu.memref_slice %2[%c0_i32_9, %c0_i32_13, %c0_i32_14] : memref<2x8192x1024xbf16, #tpu.memory_space<vmem>> -> memref<1x8192x1024xbf16, #tpu.memory_space<vmem>>
    %16 = tpu.memref_squeeze %15 : memref<1x8192x1024xbf16, #tpu.memory_space<vmem>> -> memref<8192x1024xbf16, #tpu.memory_space<vmem>>
    %17 = tpu.memref_slice %3[%c0_i32_10] : memref<2x!tpu.dma_semaphore, #tpu.memory_space<semaphore_mem>> -> memref<1x!tpu.dma_semaphore, #tpu.memory_space<semaphore_mem>>
    %18 = tpu.memref_squeeze %17 : memref<1x!tpu.dma_semaphore, #tpu.memory_space<semaphore_mem>> -> memref<!tpu.dma_semaphore, #tpu.memory_space<semaphore_mem>>
    tpu.wait_dma2 semaphore(%18 : memref<!tpu.dma_semaphore, #tpu.memory_space<semaphore_mem>>) src(%14 : memref<8192x1024xbf16, #tpu.memory_space<hbm>>) dst(%16 : memref<8192x1024xbf16, #tpu.memory_space<vmem>>)
    %c0_i32_15 = arith.constant 0 : i32
    %c0_i32_16 = arith.constant 0 : i32
    %c0_i32_17 = arith.constant 0 : i32
    %c0_i32_18 = arith.constant 0 : i32
    %19 = tpu.memref_slice %0[%c0_i32_17, %c0_i32_18] : memref<8192x2048xbf16, #tpu.memory_space<hbm>> -> memref<8192x1024xbf16, #tpu.memory_space<hbm>>
    %c0_i32_19 = arith.constant 0 : i32
    %c0_i32_20 = arith.constant 0 : i32
    %20 = tpu.memref_slice %2[%c0_i32_15, %c0_i32_19, %c0_i32_20] : memref<2x8192x1024xbf16, #tpu.memory_space<vmem>> -> memref<1x8192x1024xbf16, #tpu.memory_space<vmem>>
    %21 = tpu.memref_squeeze %20 : memref<1x8192x1024xbf16, #tpu.memory_space<vmem>> -> memref<8192x1024xbf16, #tpu.memory_space<vmem>>
    %22 = tpu.memref_slice %3[%c0_i32_16] : memref<2x!tpu.dma_semaphore, #tpu.memory_space<semaphore_mem>> -> memref<1x!tpu.dma_semaphore, #tpu.memory_space<semaphore_mem>>
    %23 = tpu.memref_squeeze %22 : memref<1x!tpu.dma_semaphore, #tpu.memory_space<semaphore_mem>> -> memref<!tpu.dma_semaphore, #tpu.memory_space<semaphore_mem>>
    tpu.enqueue_dma source(%19 : memref<8192x1024xbf16, #tpu.memory_space<hbm>>) target(%21 : memref<8192x1024xbf16, #tpu.memory_space<vmem>>) target_semaphore(%23 : memref<!tpu.dma_semaphore, #tpu.memory_space<semaphore_mem>>)
    %cst = arith.constant 0.000000e+00 : f32
    %cst_21 = arith.constant 1.000000e+00 : f32
    %24 = arith.addf %cst, %cst_21 : f32
    %c1_i32_22 = arith.constant 1 : i32
    %c1_i32_23 = arith.constant 1 : i32
    %c0_i32_24 = arith.constant 0 : i32
    %c1024_i32_25 = arith.constant 1024 : i32
    %25 = tpu.memref_slice %0[%c0_i32_24, %c1024_i32_25] : memref<8192x2048xbf16, #tpu.memory_space<hbm>> -> memref<8192x1024xbf16, #tpu.memory_space<hbm>>
    %c0_i32_26 = arith.constant 0 : i32
    %c0_i32_27 = arith.constant 0 : i32
    %26 = tpu.memref_slice %2[%c1_i32_22, %c0_i32_26, %c0_i32_27] : memref<2x8192x1024xbf16, #tpu.memory_space<vmem>> -> memref<1x8192x1024xbf16, #tpu.memory_space<vmem>>
    %27 = tpu.memref_squeeze %26 : memref<1x8192x1024xbf16, #tpu.memory_space<vmem>> -> memref<8192x1024xbf16, #tpu.memory_space<vmem>>
    %28 = tpu.memref_slice %3[%c1_i32_23] : memref<2x!tpu.dma_semaphore, #tpu.memory_space<semaphore_mem>> -> memref<1x!tpu.dma_semaphore, #tpu.memory_space<semaphore_mem>>
    %29 = tpu.memref_squeeze %28 : memref<1x!tpu.dma_semaphore, #tpu.memory_space<semaphore_mem>> -> memref<!tpu.dma_semaphore, #tpu.memory_space<semaphore_mem>>
    tpu.wait_dma2 semaphore(%29 : memref<!tpu.dma_semaphore, #tpu.memory_space<semaphore_mem>>) src(%25 : memref<8192x1024xbf16, #tpu.memory_space<hbm>>) dst(%27 : memref<8192x1024xbf16, #tpu.memory_space<vmem>>)
    %c1_i32_28 = arith.constant 1 : i32
    %c1_i32_29 = arith.constant 1 : i32
    %c0_i32_30 = arith.constant 0 : i32
    %c1024_i32_31 = arith.constant 1024 : i32
    %30 = tpu.memref_slice %0[%c0_i32_30, %c1024_i32_31] : memref<8192x2048xbf16, #tpu.memory_space<hbm>> -> memref<8192x1024xbf16, #tpu.memory_space<hbm>>
    %c0_i32_32 = arith.constant 0 : i32
    %c0_i32_33 = arith.constant 0 : i32
    %31 = tpu.memref_slice %2[%c1_i32_28, %c0_i32_32, %c0_i32_33] : memref<2x8192x1024xbf16, #tpu.memory_space<vmem>> -> memref<1x8192x1024xbf16, #tpu.memory_space<vmem>>
    %32 = tpu.memref_squeeze %31 : memref<1x8192x1024xbf16, #tpu.memory_space<vmem>> -> memref<8192x1024xbf16, #tpu.memory_space<vmem>>
    %33 = tpu.memref_slice %3[%c1_i32_29] : memref<2x!tpu.dma_semaphore, #tpu.memory_space<semaphore_mem>> -> memref<1x!tpu.dma_semaphore, #tpu.memory_space<semaphore_mem>>
    %34 = tpu.memref_squeeze %33 : memref<1x!tpu.dma_semaphore, #tpu.memory_space<semaphore_mem>> -> memref<!tpu.dma_semaphore, #tpu.memory_space<semaphore_mem>>
    tpu.enqueue_dma source(%30 : memref<8192x1024xbf16, #tpu.memory_space<hbm>>) target(%32 : memref<8192x1024xbf16, #tpu.memory_space<vmem>>) target_semaphore(%34 : memref<!tpu.dma_semaphore, #tpu.memory_space<semaphore_mem>>)
    %cst_34 = arith.constant 1.000000e+00 : f32
    %35 = arith.addf %24, %cst_34 : f32
    %c0_i32_35 = arith.constant 0 : i32
    %c0_i32_36 = arith.constant 0 : i32
    %c0_i32_37 = arith.constant 0 : i32
    %c0_i32_38 = arith.constant 0 : i32
    %36 = tpu.memref_slice %0[%c0_i32_37, %c0_i32_38] : memref<8192x2048xbf16, #tpu.memory_space<hbm>> -> memref<8192x1024xbf16, #tpu.memory_space<hbm>>
    %c0_i32_39 = arith.constant 0 : i32
    %c0_i32_40 = arith.constant 0 : i32
    %37 = tpu.memref_slice %2[%c0_i32_35, %c0_i32_39, %c0_i32_40] : memref<2x8192x1024xbf16, #tpu.memory_space<vmem>> -> memref<1x8192x1024xbf16, #tpu.memory_space<vmem>>
    %38 = tpu.memref_squeeze %37 : memref<1x8192x1024xbf16, #tpu.memory_space<vmem>> -> memref<8192x1024xbf16, #tpu.memory_space<vmem>>
    %39 = tpu.memref_slice %3[%c0_i32_36] : memref<2x!tpu.dma_semaphore, #tpu.memory_space<semaphore_mem>> -> memref<1x!tpu.dma_semaphore, #tpu.memory_space<semaphore_mem>>
    %40 = tpu.memref_squeeze %39 : memref<1x!tpu.dma_semaphore, #tpu.memory_space<semaphore_mem>> -> memref<!tpu.dma_semaphore, #tpu.memory_space<semaphore_mem>>
    tpu.wait_dma2 semaphore(%40 : memref<!tpu.dma_semaphore, #tpu.memory_space<semaphore_mem>>) src(%36 : memref<8192x1024xbf16, #tpu.memory_space<hbm>>) dst(%38 : memref<8192x1024xbf16, #tpu.memory_space<vmem>>)
    %c0_i32_41 = arith.constant 0 : i32
    %c0_i32_42 = arith.constant 0 : i32
    %c0_i32_43 = arith.constant 0 : i32
    %c0_i32_44 = arith.constant 0 : i32
    %41 = tpu.memref_slice %0[%c0_i32_43, %c0_i32_44] : memref<8192x2048xbf16, #tpu.memory_space<hbm>> -> memref<8192x1024xbf16, #tpu.memory_space<hbm>>
    %c0_i32_45 = arith.constant 0 : i32
    %c0_i32_46 = arith.constant 0 : i32
    %42 = tpu.memref_slice %2[%c0_i32_41, %c0_i32_45, %c0_i32_46] : memref<2x8192x1024xbf16, #tpu.memory_space<vmem>> -> memref<1x8192x1024xbf16, #tpu.memory_space<vmem>>
    %43 = tpu.memref_squeeze %42 : memref<1x8192x1024xbf16, #tpu.memory_space<vmem>> -> memref<8192x1024xbf16, #tpu.memory_space<vmem>>
    %44 = tpu.memref_slice %3[%c0_i32_42] : memref<2x!tpu.dma_semaphore, #tpu.memory_space<semaphore_mem>> -> memref<1x!tpu.dma_semaphore, #tpu.memory_space<semaphore_mem>>
    %45 = tpu.memref_squeeze %44 : memref<1x!tpu.dma_semaphore, #tpu.memory_space<semaphore_mem>> -> memref<!tpu.dma_semaphore, #tpu.memory_space<semaphore_mem>>
    tpu.enqueue_dma source(%41 : memref<8192x1024xbf16, #tpu.memory_space<hbm>>) target(%43 : memref<8192x1024xbf16, #tpu.memory_space<vmem>>) target_semaphore(%45 : memref<!tpu.dma_semaphore, #tpu.memory_space<semaphore_mem>>)
    %cst_47 = arith.constant 1.000000e+00 : f32
    %46 = arith.addf %35, %cst_47 : f32
    %c1_i32_48 = arith.constant 1 : i32
    %c1_i32_49 = arith.constant 1 : i32
    %c0_i32_50 = arith.constant 0 : i32
    %c1024_i32_51 = arith.constant 1024 : i32
    %47 = tpu.memref_slice %0[%c0_i32_50, %c1024_i32_51] : memref<8192x2048xbf16, #tpu.memory_space<hbm>> -> memref<8192x1024xbf16, #tpu.memory_space<hbm>>
    %c0_i32_52 = arith.constant 0 : i32
    %c0_i32_53 = arith.constant 0 : i32
    %48 = tpu.memref_slice %2[%c1_i32_48, %c0_i32_52, %c0_i32_53] : memref<2x8192x1024xbf16, #tpu.memory_space<vmem>> -> memref<1x8192x1024xbf16, #tpu.memory_space<vmem>>
    %49 = tpu.memref_squeeze %48 : memref<1x8192x1024xbf16, #tpu.memory_space<vmem>> -> memref<8192x1024xbf16, #tpu.memory_space<vmem>>
    %50 = tpu.memref_slice %3[%c1_i32_49] : memref<2x!tpu.dma_semaphore, #tpu.memory_space<semaphore_mem>> -> memref<1x!tpu.dma_semaphore, #tpu.memory_space<semaphore_mem>>
    %51 = tpu.memref_squeeze %50 : memref<1x!tpu.dma_semaphore, #tpu.memory_space<semaphore_mem>> -> memref<!tpu.dma_semaphore, #tpu.memory_space<semaphore_mem>>
    tpu.wait_dma2 semaphore(%51 : memref<!tpu.dma_semaphore, #tpu.memory_space<semaphore_mem>>) src(%47 : memref<8192x1024xbf16, #tpu.memory_space<hbm>>) dst(%49 : memref<8192x1024xbf16, #tpu.memory_space<vmem>>)
    %c1_i32_54 = arith.constant 1 : i32
    %c1_i32_55 = arith.constant 1 : i32
    %c0_i32_56 = arith.constant 0 : i32
    %c1024_i32_57 = arith.constant 1024 : i32
    %52 = tpu.memref_slice %0[%c0_i32_56, %c1024_i32_57] : memref<8192x2048xbf16, #tpu.memory_space<hbm>> -> memref<8192x1024xbf16, #tpu.memory_space<hbm>>
    %c0_i32_58 = arith.constant 0 : i32
    %c0_i32_59 = arith.constant 0 : i32
    %53 = tpu.memref_slice %2[%c1_i32_54, %c0_i32_58, %c0_i32_59] : memref<2x8192x1024xbf16, #tpu.memory_space<vmem>> -> memref<1x8192x1024xbf16, #tpu.memory_space<vmem>>
    %54 = tpu.memref_squeeze %53 : memref<1x8192x1024xbf16, #tpu.memory_space<vmem>> -> memref<8192x1024xbf16, #tpu.memory_space<vmem>>
    %55 = tpu.memref_slice %3[%c1_i32_55] : memref<2x!tpu.dma_semaphore, #tpu.memory_space<semaphore_mem>> -> memref<1x!tpu.dma_semaphore, #tpu.memory_space<semaphore_mem>>
    %56 = tpu.memref_squeeze %55 : memref<1x!tpu.dma_semaphore, #tpu.memory_space<semaphore_mem>> -> memref<!tpu.dma_semaphore, #tpu.memory_space<semaphore_mem>>
    tpu.enqueue_dma source(%52 : memref<8192x1024xbf16, #tpu.memory_space<hbm>>) target(%54 : memref<8192x1024xbf16, #tpu.memory_space<vmem>>) target_semaphore(%56 : memref<!tpu.dma_semaphore, #tpu.memory_space<semaphore_mem>>)
    %cst_60 = arith.constant 1.000000e+00 : f32
    %57 = arith.addf %46, %cst_60 : f32
    %c0_i32_61 = arith.constant 0 : i32
    %c0_i32_62 = arith.constant 0 : i32
    %c0_i32_63 = arith.constant 0 : i32
    %c0_i32_64 = arith.constant 0 : i32
    %58 = tpu.memref_slice %0[%c0_i32_63, %c0_i32_64] : memref<8192x2048xbf16, #tpu.memory_space<hbm>> -> memref<8192x1024xbf16, #tpu.memory_space<hbm>>
    %c0_i32_65 = arith.constant 0 : i32
    %c0_i32_66 = arith.constant 0 : i32
    %59 = tpu.memref_slice %2[%c0_i32_61, %c0_i32_65, %c0_i32_66] : memref<2x8192x1024xbf16, #tpu.memory_space<vmem>> -> memref<1x8192x1024xbf16, #tpu.memory_space<vmem>>
    %60 = tpu.memref_squeeze %59 : memref<1x8192x1024xbf16, #tpu.memory_space<vmem>> -> memref<8192x1024xbf16, #tpu.memory_space<vmem>>
    %61 = tpu.memref_slice %3[%c0_i32_62] : memref<2x!tpu.dma_semaphore, #tpu.memory_space<semaphore_mem>> -> memref<1x!tpu.dma_semaphore, #tpu.memory_space<semaphore_mem>>
    %62 = tpu.memref_squeeze %61 : memref<1x!tpu.dma_semaphore, #tpu.memory_space<semaphore_mem>> -> memref<!tpu.dma_semaphore, #tpu.memory_space<semaphore_mem>>
    tpu.wait_dma2 semaphore(%62 : memref<!tpu.dma_semaphore, #tpu.memory_space<semaphore_mem>>) src(%58 : memref<8192x1024xbf16, #tpu.memory_space<hbm>>) dst(%60 : memref<8192x1024xbf16, #tpu.memory_space<vmem>>)
    %c0_i32_67 = arith.constant 0 : i32
    %c0_i32_68 = arith.constant 0 : i32
    %c0_i32_69 = arith.constant 0 : i32
    %c0_i32_70 = arith.constant 0 : i32
    %63 = tpu.memref_slice %0[%c0_i32_69, %c0_i32_70] : memref<8192x2048xbf16, #tpu.memory_space<hbm>> -> memref<8192x1024xbf16, #tpu.memory_space<hbm>>
    %c0_i32_71 = arith.constant 0 : i32
    %c0_i32_72 = arith.constant 0 : i32
    %64 = tpu.memref_slice %2[%c0_i32_67, %c0_i32_71, %c0_i32_72] : memref<2x8192x1024xbf16, #tpu.memory_space<vmem>> -> memref<1x8192x1024xbf16, #tpu.memory_space<vmem>>
    %65 = tpu.memref_squeeze %64 : memref<1x8192x1024xbf16, #tpu.memory_space<vmem>> -> memref<8192x1024xbf16, #tpu.memory_space<vmem>>
    %66 = tpu.memref_slice %3[%c0_i32_68] : memref<2x!tpu.dma_semaphore, #tpu.memory_space<semaphore_mem>> -> memref<1x!tpu.dma_semaphore, #tpu.memory_space<semaphore_mem>>
    %67 = tpu.memref_squeeze %66 : memref<1x!tpu.dma_semaphore, #tpu.memory_space<semaphore_mem>> -> memref<!tpu.dma_semaphore, #tpu.memory_space<semaphore_mem>>
    tpu.enqueue_dma source(%63 : memref<8192x1024xbf16, #tpu.memory_space<hbm>>) target(%65 : memref<8192x1024xbf16, #tpu.memory_space<vmem>>) target_semaphore(%67 : memref<!tpu.dma_semaphore, #tpu.memory_space<semaphore_mem>>)
    %cst_73 = arith.constant 1.000000e+00 : f32
    %68 = arith.addf %57, %cst_73 : f32
    %c1_i32_74 = arith.constant 1 : i32
    %c1_i32_75 = arith.constant 1 : i32
    %c0_i32_76 = arith.constant 0 : i32
    %c1024_i32_77 = arith.constant 1024 : i32
    %69 = tpu.memref_slice %0[%c0_i32_76, %c1024_i32_77] : memref<8192x2048xbf16, #tpu.memory_space<hbm>> -> memref<8192x1024xbf16, #tpu.memory_space<hbm>>
    %c0_i32_78 = arith.constant 0 : i32
    %c0_i32_79 = arith.constant 0 : i32
    %70 = tpu.memref_slice %2[%c1_i32_74, %c0_i32_78, %c0_i32_79] : memref<2x8192x1024xbf16, #tpu.memory_space<vmem>> -> memref<1x8192x1024xbf16, #tpu.memory_space<vmem>>
    %71 = tpu.memref_squeeze %70 : memref<1x8192x1024xbf16, #tpu.memory_space<vmem>> -> memref<8192x1024xbf16, #tpu.memory_space<vmem>>
    %72 = tpu.memref_slice %3[%c1_i32_75] : memref<2x!tpu.dma_semaphore, #tpu.memory_space<semaphore_mem>> -> memref<1x!tpu.dma_semaphore, #tpu.memory_space<semaphore_mem>>
    %73 = tpu.memref_squeeze %72 : memref<1x!tpu.dma_semaphore, #tpu.memory_space<semaphore_mem>> -> memref<!tpu.dma_semaphore, #tpu.memory_space<semaphore_mem>>
    tpu.wait_dma2 semaphore(%73 : memref<!tpu.dma_semaphore, #tpu.memory_space<semaphore_mem>>) src(%69 : memref<8192x1024xbf16, #tpu.memory_space<hbm>>) dst(%71 : memref<8192x1024xbf16, #tpu.memory_space<vmem>>)
    %c1_i32_80 = arith.constant 1 : i32
    %c1_i32_81 = arith.constant 1 : i32
    %c0_i32_82 = arith.constant 0 : i32
    %c1024_i32_83 = arith.constant 1024 : i32
    %74 = tpu.memref_slice %0[%c0_i32_82, %c1024_i32_83] : memref<8192x2048xbf16, #tpu.memory_space<hbm>> -> memref<8192x1024xbf16, #tpu.memory_space<hbm>>
    %c0_i32_84 = arith.constant 0 : i32
    %c0_i32_85 = arith.constant 0 : i32
    %75 = tpu.memref_slice %2[%c1_i32_80, %c0_i32_84, %c0_i32_85] : memref<2x8192x1024xbf16, #tpu.memory_space<vmem>> -> memref<1x8192x1024xbf16, #tpu.memory_space<vmem>>
    %76 = tpu.memref_squeeze %75 : memref<1x8192x1024xbf16, #tpu.memory_space<vmem>> -> memref<8192x1024xbf16, #tpu.memory_space<vmem>>
    %77 = tpu.memref_slice %3[%c1_i32_81] : memref<2x!tpu.dma_semaphore, #tpu.memory_space<semaphore_mem>> -> memref<1x!tpu.dma_semaphore, #tpu.memory_space<semaphore_mem>>
    %78 = tpu.memref_squeeze %77 : memref<1x!tpu.dma_semaphore, #tpu.memory_space<semaphore_mem>> -> memref<!tpu.dma_semaphore, #tpu.memory_space<semaphore_mem>>
    tpu.enqueue_dma source(%74 : memref<8192x1024xbf16, #tpu.memory_space<hbm>>) target(%76 : memref<8192x1024xbf16, #tpu.memory_space<vmem>>) target_semaphore(%78 : memref<!tpu.dma_semaphore, #tpu.memory_space<semaphore_mem>>)
    %cst_86 = arith.constant 1.000000e+00 : f32
    %79 = arith.addf %68, %cst_86 : f32
    %c0_i32_87 = arith.constant 0 : i32
    %c0_i32_88 = arith.constant 0 : i32
    %c0_i32_89 = arith.constant 0 : i32
    %c0_i32_90 = arith.constant 0 : i32
    %80 = tpu.memref_slice %0[%c0_i32_89, %c0_i32_90] : memref<8192x2048xbf16, #tpu.memory_space<hbm>> -> memref<8192x1024xbf16, #tpu.memory_space<hbm>>
    %c0_i32_91 = arith.constant 0 : i32
    %c0_i32_92 = arith.constant 0 : i32
    %81 = tpu.memref_slice %2[%c0_i32_87, %c0_i32_91, %c0_i32_92] : memref<2x8192x1024xbf16, #tpu.memory_space<vmem>> -> memref<1x8192x1024xbf16, #tpu.memory_space<vmem>>
    %82 = tpu.memref_squeeze %81 : memref<1x8192x1024xbf16, #tpu.memory_space<vmem>> -> memref<8192x1024xbf16, #tpu.memory_space<vmem>>
    %83 = tpu.memref_slice %3[%c0_i32_88] : memref<2x!tpu.dma_semaphore, #tpu.memory_space<semaphore_mem>> -> memref<1x!tpu.dma_semaphore, #tpu.memory_space<semaphore_mem>>
    %84 = tpu.memref_squeeze %83 : memref<1x!tpu.dma_semaphore, #tpu.memory_space<semaphore_mem>> -> memref<!tpu.dma_semaphore, #tpu.memory_space<semaphore_mem>>
    tpu.wait_dma2 semaphore(%84 : memref<!tpu.dma_semaphore, #tpu.memory_space<semaphore_mem>>) src(%80 : memref<8192x1024xbf16, #tpu.memory_space<hbm>>) dst(%82 : memref<8192x1024xbf16, #tpu.memory_space<vmem>>)
    %c0_i32_93 = arith.constant 0 : i32
    %c0_i32_94 = arith.constant 0 : i32
    %c0_i32_95 = arith.constant 0 : i32
    %c0_i32_96 = arith.constant 0 : i32
    %85 = tpu.memref_slice %0[%c0_i32_95, %c0_i32_96] : memref<8192x2048xbf16, #tpu.memory_space<hbm>> -> memref<8192x1024xbf16, #tpu.memory_space<hbm>>
    %c0_i32_97 = arith.constant 0 : i32
    %c0_i32_98 = arith.constant 0 : i32
    %86 = tpu.memref_slice %2[%c0_i32_93, %c0_i32_97, %c0_i32_98] : memref<2x8192x1024xbf16, #tpu.memory_space<vmem>> -> memref<1x8192x1024xbf16, #tpu.memory_space<vmem>>
    %87 = tpu.memref_squeeze %86 : memref<1x8192x1024xbf16, #tpu.memory_space<vmem>> -> memref<8192x1024xbf16, #tpu.memory_space<vmem>>
    %88 = tpu.memref_slice %3[%c0_i32_94] : memref<2x!tpu.dma_semaphore, #tpu.memory_space<semaphore_mem>> -> memref<1x!tpu.dma_semaphore, #tpu.memory_space<semaphore_mem>>
    %89 = tpu.memref_squeeze %88 : memref<1x!tpu.dma_semaphore, #tpu.memory_space<semaphore_mem>> -> memref<!tpu.dma_semaphore, #tpu.memory_space<semaphore_mem>>
    tpu.enqueue_dma source(%85 : memref<8192x1024xbf16, #tpu.memory_space<hbm>>) target(%87 : memref<8192x1024xbf16, #tpu.memory_space<vmem>>) target_semaphore(%89 : memref<!tpu.dma_semaphore, #tpu.memory_space<semaphore_mem>>)
    %cst_99 = arith.constant 1.000000e+00 : f32
    %90 = arith.addf %79, %cst_99 : f32
    %c1_i32_100 = arith.constant 1 : i32
    %c1_i32_101 = arith.constant 1 : i32
    %c0_i32_102 = arith.constant 0 : i32
    %c1024_i32_103 = arith.constant 1024 : i32
    %91 = tpu.memref_slice %0[%c0_i32_102, %c1024_i32_103] : memref<8192x2048xbf16, #tpu.memory_space<hbm>> -> memref<8192x1024xbf16, #tpu.memory_space<hbm>>
    %c0_i32_104 = arith.constant 0 : i32
    %c0_i32_105 = arith.constant 0 : i32
    %92 = tpu.memref_slice %2[%c1_i32_100, %c0_i32_104, %c0_i32_105] : memref<2x8192x1024xbf16, #tpu.memory_space<vmem>> -> memref<1x8192x1024xbf16, #tpu.memory_space<vmem>>
    %93 = tpu.memref_squeeze %92 : memref<1x8192x1024xbf16, #tpu.memory_space<vmem>> -> memref<8192x1024xbf16, #tpu.memory_space<vmem>>
    %94 = tpu.memref_slice %3[%c1_i32_101] : memref<2x!tpu.dma_semaphore, #tpu.memory_space<semaphore_mem>> -> memref<1x!tpu.dma_semaphore, #tpu.memory_space<semaphore_mem>>
    %95 = tpu.memref_squeeze %94 : memref<1x!tpu.dma_semaphore, #tpu.memory_space<semaphore_mem>> -> memref<!tpu.dma_semaphore, #tpu.memory_space<semaphore_mem>>
    tpu.wait_dma2 semaphore(%95 : memref<!tpu.dma_semaphore, #tpu.memory_space<semaphore_mem>>) src(%91 : memref<8192x1024xbf16, #tpu.memory_space<hbm>>) dst(%93 : memref<8192x1024xbf16, #tpu.memory_space<vmem>>)
    %c1_i32_106 = arith.constant 1 : i32
    %c1_i32_107 = arith.constant 1 : i32
    %c0_i32_108 = arith.constant 0 : i32
    %c1024_i32_109 = arith.constant 1024 : i32
    %96 = tpu.memref_slice %0[%c0_i32_108, %c1024_i32_109] : memref<8192x2048xbf16, #tpu.memory_space<hbm>> -> memref<8192x1024xbf16, #tpu.memory_space<hbm>>
    %c0_i32_110 = arith.constant 0 : i32
    %c0_i32_111 = arith.constant 0 : i32
    %97 = tpu.memref_slice %2[%c1_i32_106, %c0_i32_110, %c0_i32_111] : memref<2x8192x1024xbf16, #tpu.memory_space<vmem>> -> memref<1x8192x1024xbf16, #tpu.memory_space<vmem>>
    %98 = tpu.memref_squeeze %97 : memref<1x8192x1024xbf16, #tpu.memory_space<vmem>> -> memref<8192x1024xbf16, #tpu.memory_space<vmem>>
    %99 = tpu.memref_slice %3[%c1_i32_107] : memref<2x!tpu.dma_semaphore, #tpu.memory_space<semaphore_mem>> -> memref<1x!tpu.dma_semaphore, #tpu.memory_space<semaphore_mem>>
    %100 = tpu.memref_squeeze %99 : memref<1x!tpu.dma_semaphore, #tpu.memory_space<semaphore_mem>> -> memref<!tpu.dma_semaphore, #tpu.memory_space<semaphore_mem>>
    tpu.enqueue_dma source(%96 : memref<8192x1024xbf16, #tpu.memory_space<hbm>>) target(%98 : memref<8192x1024xbf16, #tpu.memory_space<vmem>>) target_semaphore(%100 : memref<!tpu.dma_semaphore, #tpu.memory_space<semaphore_mem>>)
    %cst_112 = arith.constant 1.000000e+00 : f32
    %101 = arith.addf %90, %cst_112 : f32
    %c0_i32_113 = arith.constant 0 : i32
    %c0_i32_114 = arith.constant 0 : i32
    %c0_i32_115 = arith.constant 0 : i32
    %c0_i32_116 = arith.constant 0 : i32
    %102 = tpu.memref_slice %0[%c0_i32_115, %c0_i32_116] : memref<8192x2048xbf16, #tpu.memory_space<hbm>> -> memref<8192x1024xbf16, #tpu.memory_space<hbm>>
    %c0_i32_117 = arith.constant 0 : i32
    %c0_i32_118 = arith.constant 0 : i32
    %103 = tpu.memref_slice %2[%c0_i32_113, %c0_i32_117, %c0_i32_118] : memref<2x8192x1024xbf16, #tpu.memory_space<vmem>> -> memref<1x8192x1024xbf16, #tpu.memory_space<vmem>>
    %104 = tpu.memref_squeeze %103 : memref<1x8192x1024xbf16, #tpu.memory_space<vmem>> -> memref<8192x1024xbf16, #tpu.memory_space<vmem>>
    %105 = tpu.memref_slice %3[%c0_i32_114] : memref<2x!tpu.dma_semaphore, #tpu.memory_space<semaphore_mem>> -> memref<1x!tpu.dma_semaphore, #tpu.memory_space<semaphore_mem>>
    %106 = tpu.memref_squeeze %105 : memref<1x!tpu.dma_semaphore, #tpu.memory_space<semaphore_mem>> -> memref<!tpu.dma_semaphore, #tpu.memory_space<semaphore_mem>>
    tpu.wait_dma2 semaphore(%106 : memref<!tpu.dma_semaphore, #tpu.memory_space<semaphore_mem>>) src(%102 : memref<8192x1024xbf16, #tpu.memory_space<hbm>>) dst(%104 : memref<8192x1024xbf16, #tpu.memory_space<vmem>>)
    %c0_i32_119 = arith.constant 0 : i32
    %c0_i32_120 = arith.constant 0 : i32
    %c0_i32_121 = arith.constant 0 : i32
    %c0_i32_122 = arith.constant 0 : i32
    %107 = tpu.memref_slice %0[%c0_i32_121, %c0_i32_122] : memref<8192x2048xbf16, #tpu.memory_space<hbm>> -> memref<8192x1024xbf16, #tpu.memory_space<hbm>>
    %c0_i32_123 = arith.constant 0 : i32
    %c0_i32_124 = arith.constant 0 : i32
    %108 = tpu.memref_slice %2[%c0_i32_119, %c0_i32_123, %c0_i32_124] : memref<2x8192x1024xbf16, #tpu.memory_space<vmem>> -> memref<1x8192x1024xbf16, #tpu.memory_space<vmem>>
    %109 = tpu.memref_squeeze %108 : memref<1x8192x1024xbf16, #tpu.memory_space<vmem>> -> memref<8192x1024xbf16, #tpu.memory_space<vmem>>
    %110 = tpu.memref_slice %3[%c0_i32_120] : memref<2x!tpu.dma_semaphore, #tpu.memory_space<semaphore_mem>> -> memref<1x!tpu.dma_semaphore, #tpu.memory_space<semaphore_mem>>
    %111 = tpu.memref_squeeze %110 : memref<1x!tpu.dma_semaphore, #tpu.memory_space<semaphore_mem>> -> memref<!tpu.dma_semaphore, #tpu.memory_space<semaphore_mem>>
    tpu.enqueue_dma source(%107 : memref<8192x1024xbf16, #tpu.memory_space<hbm>>) target(%109 : memref<8192x1024xbf16, #tpu.memory_space<vmem>>) target_semaphore(%111 : memref<!tpu.dma_semaphore, #tpu.memory_space<semaphore_mem>>)
    %cst_125 = arith.constant 1.000000e+00 : f32
    %112 = arith.addf %101, %cst_125 : f32
    %c1_i32_126 = arith.constant 1 : i32
    %c1_i32_127 = arith.constant 1 : i32
    %c0_i32_128 = arith.constant 0 : i32
    %c1024_i32_129 = arith.constant 1024 : i32
    %113 = tpu.memref_slice %0[%c0_i32_128, %c1024_i32_129] : memref<8192x2048xbf16, #tpu.memory_space<hbm>> -> memref<8192x1024xbf16, #tpu.memory_space<hbm>>
    %c0_i32_130 = arith.constant 0 : i32
    %c0_i32_131 = arith.constant 0 : i32
    %114 = tpu.memref_slice %2[%c1_i32_126, %c0_i32_130, %c0_i32_131] : memref<2x8192x1024xbf16, #tpu.memory_space<vmem>> -> memref<1x8192x1024xbf16, #tpu.memory_space<vmem>>
    %115 = tpu.memref_squeeze %114 : memref<1x8192x1024xbf16, #tpu.memory_space<vmem>> -> memref<8192x1024xbf16, #tpu.memory_space<vmem>>
    %116 = tpu.memref_slice %3[%c1_i32_127] : memref<2x!tpu.dma_semaphore, #tpu.memory_space<semaphore_mem>> -> memref<1x!tpu.dma_semaphore, #tpu.memory_space<semaphore_mem>>
    %117 = tpu.memref_squeeze %116 : memref<1x!tpu.dma_semaphore, #tpu.memory_space<semaphore_mem>> -> memref<!tpu.dma_semaphore, #tpu.memory_space<semaphore_mem>>
    tpu.wait_dma2 semaphore(%117 : memref<!tpu.dma_semaphore, #tpu.memory_space<semaphore_mem>>) src(%113 : memref<8192x1024xbf16, #tpu.memory_space<hbm>>) dst(%115 : memref<8192x1024xbf16, #tpu.memory_space<vmem>>)
    %c1_i32_132 = arith.constant 1 : i32
    %c1_i32_133 = arith.constant 1 : i32
    %c0_i32_134 = arith.constant 0 : i32
    %c1024_i32_135 = arith.constant 1024 : i32
    %118 = tpu.memref_slice %0[%c0_i32_134, %c1024_i32_135] : memref<8192x2048xbf16, #tpu.memory_space<hbm>> -> memref<8192x1024xbf16, #tpu.memory_space<hbm>>
    %c0_i32_136 = arith.constant 0 : i32
    %c0_i32_137 = arith.constant 0 : i32
    %119 = tpu.memref_slice %2[%c1_i32_132, %c0_i32_136, %c0_i32_137] : memref<2x8192x1024xbf16, #tpu.memory_space<vmem>> -> memref<1x8192x1024xbf16, #tpu.memory_space<vmem>>
    %120 = tpu.memref_squeeze %119 : memref<1x8192x1024xbf16, #tpu.memory_space<vmem>> -> memref<8192x1024xbf16, #tpu.memory_space<vmem>>
    %121 = tpu.memref_slice %3[%c1_i32_133] : memref<2x!tpu.dma_semaphore, #tpu.memory_space<semaphore_mem>> -> memref<1x!tpu.dma_semaphore, #tpu.memory_space<semaphore_mem>>
    %122 = tpu.memref_squeeze %121 : memref<1x!tpu.dma_semaphore, #tpu.memory_space<semaphore_mem>> -> memref<!tpu.dma_semaphore, #tpu.memory_space<semaphore_mem>>
    tpu.enqueue_dma source(%118 : memref<8192x1024xbf16, #tpu.memory_space<hbm>>) target(%120 : memref<8192x1024xbf16, #tpu.memory_space<vmem>>) target_semaphore(%122 : memref<!tpu.dma_semaphore, #tpu.memory_space<semaphore_mem>>)
    %cst_138 = arith.constant 1.000000e+00 : f32
    %123 = arith.addf %112, %cst_138 : f32
    %c0_i32_139 = arith.constant 0 : i32
    %c0_i32_140 = arith.constant 0 : i32
    %c0_i32_141 = arith.constant 0 : i32
    %c0_i32_142 = arith.constant 0 : i32
    %124 = tpu.memref_slice %0[%c0_i32_141, %c0_i32_142] : memref<8192x2048xbf16, #tpu.memory_space<hbm>> -> memref<8192x1024xbf16, #tpu.memory_space<hbm>>
    %c0_i32_143 = arith.constant 0 : i32
    %c0_i32_144 = arith.constant 0 : i32
    %125 = tpu.memref_slice %2[%c0_i32_139, %c0_i32_143, %c0_i32_144] : memref<2x8192x1024xbf16, #tpu.memory_space<vmem>> -> memref<1x8192x1024xbf16, #tpu.memory_space<vmem>>
    %126 = tpu.memref_squeeze %125 : memref<1x8192x1024xbf16, #tpu.memory_space<vmem>> -> memref<8192x1024xbf16, #tpu.memory_space<vmem>>
    %127 = tpu.memref_slice %3[%c0_i32_140] : memref<2x!tpu.dma_semaphore, #tpu.memory_space<semaphore_mem>> -> memref<1x!tpu.dma_semaphore, #tpu.memory_space<semaphore_mem>>
    %128 = tpu.memref_squeeze %127 : memref<1x!tpu.dma_semaphore, #tpu.memory_space<semaphore_mem>> -> memref<!tpu.dma_semaphore, #tpu.memory_space<semaphore_mem>>
    tpu.wait_dma2 semaphore(%128 : memref<!tpu.dma_semaphore, #tpu.memory_space<semaphore_mem>>) src(%124 : memref<8192x1024xbf16, #tpu.memory_space<hbm>>) dst(%126 : memref<8192x1024xbf16, #tpu.memory_space<vmem>>)
    %c0_i32_145 = arith.constant 0 : i32
    %c0_i32_146 = arith.constant 0 : i32
    %c0_i32_147 = arith.constant 0 : i32
    %c0_i32_148 = arith.constant 0 : i32
    %129 = tpu.memref_slice %0[%c0_i32_147, %c0_i32_148] : memref<8192x2048xbf16, #tpu.memory_space<hbm>> -> memref<8192x1024xbf16, #tpu.memory_space<hbm>>
    %c0_i32_149 = arith.constant 0 : i32
    %c0_i32_150 = arith.constant 0 : i32
    %130 = tpu.memref_slice %2[%c0_i32_145, %c0_i32_149, %c0_i32_150] : memref<2x8192x1024xbf16, #tpu.memory_space<vmem>> -> memref<1x8192x1024xbf16, #tpu.memory_space<vmem>>
    %131 = tpu.memref_squeeze %130 : memref<1x8192x1024xbf16, #tpu.memory_space<vmem>> -> memref<8192x1024xbf16, #tpu.memory_space<vmem>>
    %132 = tpu.memref_slice %3[%c0_i32_146] : memref<2x!tpu.dma_semaphore, #tpu.memory_space<semaphore_mem>> -> memref<1x!tpu.dma_semaphore, #tpu.memory_space<semaphore_mem>>
    %133 = tpu.memref_squeeze %132 : memref<1x!tpu.dma_semaphore, #tpu.memory_space<semaphore_mem>> -> memref<!tpu.dma_semaphore, #tpu.memory_space<semaphore_mem>>
    tpu.enqueue_dma source(%129 : memref<8192x1024xbf16, #tpu.memory_space<hbm>>) target(%131 : memref<8192x1024xbf16, #tpu.memory_space<vmem>>) target_semaphore(%133 : memref<!tpu.dma_semaphore, #tpu.memory_space<semaphore_mem>>)
    %cst_151 = arith.constant 1.000000e+00 : f32
    %134 = arith.addf %123, %cst_151 : f32
    %c1_i32_152 = arith.constant 1 : i32
    %c1_i32_153 = arith.constant 1 : i32
    %c0_i32_154 = arith.constant 0 : i32
    %c1024_i32_155 = arith.constant 1024 : i32
    %135 = tpu.memref_slice %0[%c0_i32_154, %c1024_i32_155] : memref<8192x2048xbf16, #tpu.memory_space<hbm>> -> memref<8192x1024xbf16, #tpu.memory_space<hbm>>
    %c0_i32_156 = arith.constant 0 : i32
    %c0_i32_157 = arith.constant 0 : i32
    %136 = tpu.memref_slice %2[%c1_i32_152, %c0_i32_156, %c0_i32_157] : memref<2x8192x1024xbf16, #tpu.memory_space<vmem>> -> memref<1x8192x1024xbf16, #tpu.memory_space<vmem>>
    %137 = tpu.memref_squeeze %136 : memref<1x8192x1024xbf16, #tpu.memory_space<vmem>> -> memref<8192x1024xbf16, #tpu.memory_space<vmem>>
    %138 = tpu.memref_slice %3[%c1_i32_153] : memref<2x!tpu.dma_semaphore, #tpu.memory_space<semaphore_mem>> -> memref<1x!tpu.dma_semaphore, #tpu.memory_space<semaphore_mem>>
    %139 = tpu.memref_squeeze %138 : memref<1x!tpu.dma_semaphore, #tpu.memory_space<semaphore_mem>> -> memref<!tpu.dma_semaphore, #tpu.memory_space<semaphore_mem>>
    tpu.wait_dma2 semaphore(%139 : memref<!tpu.dma_semaphore, #tpu.memory_space<semaphore_mem>>) src(%135 : memref<8192x1024xbf16, #tpu.memory_space<hbm>>) dst(%137 : memref<8192x1024xbf16, #tpu.memory_space<vmem>>)
    %c1_i32_158 = arith.constant 1 : i32
    %c1_i32_159 = arith.constant 1 : i32
    %c0_i32_160 = arith.constant 0 : i32
    %c1024_i32_161 = arith.constant 1024 : i32
    %140 = tpu.memref_slice %0[%c0_i32_160, %c1024_i32_161] : memref<8192x2048xbf16, #tpu.memory_space<hbm>> -> memref<8192x1024xbf16, #tpu.memory_space<hbm>>
    %c0_i32_162 = arith.constant 0 : i32
    %c0_i32_163 = arith.constant 0 : i32
    %141 = tpu.memref_slice %2[%c1_i32_158, %c0_i32_162, %c0_i32_163] : memref<2x8192x1024xbf16, #tpu.memory_space<vmem>> -> memref<1x8192x1024xbf16, #tpu.memory_space<vmem>>
    %142 = tpu.memref_squeeze %141 : memref<1x8192x1024xbf16, #tpu.memory_space<vmem>> -> memref<8192x1024xbf16, #tpu.memory_space<vmem>>
    %143 = tpu.memref_slice %3[%c1_i32_159] : memref<2x!tpu.dma_semaphore, #tpu.memory_space<semaphore_mem>> -> memref<1x!tpu.dma_semaphore, #tpu.memory_space<semaphore_mem>>
    %144 = tpu.memref_squeeze %143 : memref<1x!tpu.dma_semaphore, #tpu.memory_space<semaphore_mem>> -> memref<!tpu.dma_semaphore, #tpu.memory_space<semaphore_mem>>
    tpu.enqueue_dma source(%140 : memref<8192x1024xbf16, #tpu.memory_space<hbm>>) target(%142 : memref<8192x1024xbf16, #tpu.memory_space<vmem>>) target_semaphore(%144 : memref<!tpu.dma_semaphore, #tpu.memory_space<semaphore_mem>>)
    %cst_164 = arith.constant 1.000000e+00 : f32
    %145 = arith.addf %134, %cst_164 : f32
    %c0_i32_165 = arith.constant 0 : i32
    %c0_i32_166 = arith.constant 0 : i32
    %c0_i32_167 = arith.constant 0 : i32
    %c0_i32_168 = arith.constant 0 : i32
    %146 = tpu.memref_slice %0[%c0_i32_167, %c0_i32_168] : memref<8192x2048xbf16, #tpu.memory_space<hbm>> -> memref<8192x1024xbf16, #tpu.memory_space<hbm>>
    %c0_i32_169 = arith.constant 0 : i32
    %c0_i32_170 = arith.constant 0 : i32
    %147 = tpu.memref_slice %2[%c0_i32_165, %c0_i32_169, %c0_i32_170] : memref<2x8192x1024xbf16, #tpu.memory_space<vmem>> -> memref<1x8192x1024xbf16, #tpu.memory_space<vmem>>
    %148 = tpu.memref_squeeze %147 : memref<1x8192x1024xbf16, #tpu.memory_space<vmem>> -> memref<8192x1024xbf16, #tpu.memory_space<vmem>>
    %149 = tpu.memref_slice %3[%c0_i32_166] : memref<2x!tpu.dma_semaphore, #tpu.memory_space<semaphore_mem>> -> memref<1x!tpu.dma_semaphore, #tpu.memory_space<semaphore_mem>>
    %150 = tpu.memref_squeeze %149 : memref<1x!tpu.dma_semaphore, #tpu.memory_space<semaphore_mem>> -> memref<!tpu.dma_semaphore, #tpu.memory_space<semaphore_mem>>
    tpu.wait_dma2 semaphore(%150 : memref<!tpu.dma_semaphore, #tpu.memory_space<semaphore_mem>>) src(%146 : memref<8192x1024xbf16, #tpu.memory_space<hbm>>) dst(%148 : memref<8192x1024xbf16, #tpu.memory_space<vmem>>)
    %c0_i32_171 = arith.constant 0 : i32
    %c0_i32_172 = arith.constant 0 : i32
    %c0_i32_173 = arith.constant 0 : i32
    %c0_i32_174 = arith.constant 0 : i32
    %151 = tpu.memref_slice %0[%c0_i32_173, %c0_i32_174] : memref<8192x2048xbf16, #tpu.memory_space<hbm>> -> memref<8192x1024xbf16, #tpu.memory_space<hbm>>
    %c0_i32_175 = arith.constant 0 : i32
    %c0_i32_176 = arith.constant 0 : i32
    %152 = tpu.memref_slice %2[%c0_i32_171, %c0_i32_175, %c0_i32_176] : memref<2x8192x1024xbf16, #tpu.memory_space<vmem>> -> memref<1x8192x1024xbf16, #tpu.memory_space<vmem>>
    %153 = tpu.memref_squeeze %152 : memref<1x8192x1024xbf16, #tpu.memory_space<vmem>> -> memref<8192x1024xbf16, #tpu.memory_space<vmem>>
    %154 = tpu.memref_slice %3[%c0_i32_172] : memref<2x!tpu.dma_semaphore, #tpu.memory_space<semaphore_mem>> -> memref<1x!tpu.dma_semaphore, #tpu.memory_space<semaphore_mem>>
    %155 = tpu.memref_squeeze %154 : memref<1x!tpu.dma_semaphore, #tpu.memory_space<semaphore_mem>> -> memref<!tpu.dma_semaphore, #tpu.memory_space<semaphore_mem>>
    tpu.enqueue_dma source(%151 : memref<8192x1024xbf16, #tpu.memory_space<hbm>>) target(%153 : memref<8192x1024xbf16, #tpu.memory_space<vmem>>) target_semaphore(%155 : memref<!tpu.dma_semaphore, #tpu.memory_space<semaphore_mem>>)
    %cst_177 = arith.constant 1.000000e+00 : f32
    %156 = arith.addf %145, %cst_177 : f32
    %c1_i32_178 = arith.constant 1 : i32
    %c1_i32_179 = arith.constant 1 : i32
    %c0_i32_180 = arith.constant 0 : i32
    %c1024_i32_181 = arith.constant 1024 : i32
    %157 = tpu.memref_slice %0[%c0_i32_180, %c1024_i32_181] : memref<8192x2048xbf16, #tpu.memory_space<hbm>> -> memref<8192x1024xbf16, #tpu.memory_space<hbm>>
    %c0_i32_182 = arith.constant 0 : i32
    %c0_i32_183 = arith.constant 0 : i32
    %158 = tpu.memref_slice %2[%c1_i32_178, %c0_i32_182, %c0_i32_183] : memref<2x8192x1024xbf16, #tpu.memory_space<vmem>> -> memref<1x8192x1024xbf16, #tpu.memory_space<vmem>>
    %159 = tpu.memref_squeeze %158 : memref<1x8192x1024xbf16, #tpu.memory_space<vmem>> -> memref<8192x1024xbf16, #tpu.memory_space<vmem>>
    %160 = tpu.memref_slice %3[%c1_i32_179] : memref<2x!tpu.dma_semaphore, #tpu.memory_space<semaphore_mem>> -> memref<1x!tpu.dma_semaphore, #tpu.memory_space<semaphore_mem>>
    %161 = tpu.memref_squeeze %160 : memref<1x!tpu.dma_semaphore, #tpu.memory_space<semaphore_mem>> -> memref<!tpu.dma_semaphore, #tpu.memory_space<semaphore_mem>>
    tpu.wait_dma2 semaphore(%161 : memref<!tpu.dma_semaphore, #tpu.memory_space<semaphore_mem>>) src(%157 : memref<8192x1024xbf16, #tpu.memory_space<hbm>>) dst(%159 : memref<8192x1024xbf16, #tpu.memory_space<vmem>>)
    %c1_i32_184 = arith.constant 1 : i32
    %c1_i32_185 = arith.constant 1 : i32
    %c0_i32_186 = arith.constant 0 : i32
    %c1024_i32_187 = arith.constant 1024 : i32
    %162 = tpu.memref_slice %0[%c0_i32_186, %c1024_i32_187] : memref<8192x2048xbf16, #tpu.memory_space<hbm>> -> memref<8192x1024xbf16, #tpu.memory_space<hbm>>
    %c0_i32_188 = arith.constant 0 : i32
    %c0_i32_189 = arith.constant 0 : i32
    %163 = tpu.memref_slice %2[%c1_i32_184, %c0_i32_188, %c0_i32_189] : memref<2x8192x1024xbf16, #tpu.memory_space<vmem>> -> memref<1x8192x1024xbf16, #tpu.memory_space<vmem>>
    %164 = tpu.memref_squeeze %163 : memref<1x8192x1024xbf16, #tpu.memory_space<vmem>> -> memref<8192x1024xbf16, #tpu.memory_space<vmem>>
    %165 = tpu.memref_slice %3[%c1_i32_185] : memref<2x!tpu.dma_semaphore, #tpu.memory_space<semaphore_mem>> -> memref<1x!tpu.dma_semaphore, #tpu.memory_space<semaphore_mem>>
    %166 = tpu.memref_squeeze %165 : memref<1x!tpu.dma_semaphore, #tpu.memory_space<semaphore_mem>> -> memref<!tpu.dma_semaphore, #tpu.memory_space<semaphore_mem>>
    tpu.enqueue_dma source(%162 : memref<8192x1024xbf16, #tpu.memory_space<hbm>>) target(%164 : memref<8192x1024xbf16, #tpu.memory_space<vmem>>) target_semaphore(%166 : memref<!tpu.dma_semaphore, #tpu.memory_space<semaphore_mem>>)
    %cst_190 = arith.constant 1.000000e+00 : f32
    %167 = arith.addf %156, %cst_190 : f32
    %c0_i32_191 = arith.constant 0 : i32
    %c0_i32_192 = arith.constant 0 : i32
    %c0_i32_193 = arith.constant 0 : i32
    %c0_i32_194 = arith.constant 0 : i32
    %168 = tpu.memref_slice %0[%c0_i32_193, %c0_i32_194] : memref<8192x2048xbf16, #tpu.memory_space<hbm>> -> memref<8192x1024xbf16, #tpu.memory_space<hbm>>
    %c0_i32_195 = arith.constant 0 : i32
    %c0_i32_196 = arith.constant 0 : i32
    %169 = tpu.memref_slice %2[%c0_i32_191, %c0_i32_195, %c0_i32_196] : memref<2x8192x1024xbf16, #tpu.memory_space<vmem>> -> memref<1x8192x1024xbf16, #tpu.memory_space<vmem>>
    %170 = tpu.memref_squeeze %169 : memref<1x8192x1024xbf16, #tpu.memory_space<vmem>> -> memref<8192x1024xbf16, #tpu.memory_space<vmem>>
    %171 = tpu.memref_slice %3[%c0_i32_192] : memref<2x!tpu.dma_semaphore, #tpu.memory_space<semaphore_mem>> -> memref<1x!tpu.dma_semaphore, #tpu.memory_space<semaphore_mem>>
    %172 = tpu.memref_squeeze %171 : memref<1x!tpu.dma_semaphore, #tpu.memory_space<semaphore_mem>> -> memref<!tpu.dma_semaphore, #tpu.memory_space<semaphore_mem>>
    tpu.wait_dma2 semaphore(%172 : memref<!tpu.dma_semaphore, #tpu.memory_space<semaphore_mem>>) src(%168 : memref<8192x1024xbf16, #tpu.memory_space<hbm>>) dst(%170 : memref<8192x1024xbf16, #tpu.memory_space<vmem>>)
    %c0_i32_197 = arith.constant 0 : i32
    %c0_i32_198 = arith.constant 0 : i32
    %c0_i32_199 = arith.constant 0 : i32
    %c0_i32_200 = arith.constant 0 : i32
    %173 = tpu.memref_slice %0[%c0_i32_199, %c0_i32_200] : memref<8192x2048xbf16, #tpu.memory_space<hbm>> -> memref<8192x1024xbf16, #tpu.memory_space<hbm>>
    %c0_i32_201 = arith.constant 0 : i32
    %c0_i32_202 = arith.constant 0 : i32
    %174 = tpu.memref_slice %2[%c0_i32_197, %c0_i32_201, %c0_i32_202] : memref<2x8192x1024xbf16, #tpu.memory_space<vmem>> -> memref<1x8192x1024xbf16, #tpu.memory_space<vmem>>
    %175 = tpu.memref_squeeze %174 : memref<1x8192x1024xbf16, #tpu.memory_space<vmem>> -> memref<8192x1024xbf16, #tpu.memory_space<vmem>>
    %176 = tpu.memref_slice %3[%c0_i32_198] : memref<2x!tpu.dma_semaphore, #tpu.memory_space<semaphore_mem>> -> memref<1x!tpu.dma_semaphore, #tpu.memory_space<semaphore_mem>>
    %177 = tpu.memref_squeeze %176 : memref<1x!tpu.dma_semaphore, #tpu.memory_space<semaphore_mem>> -> memref<!tpu.dma_semaphore, #tpu.memory_space<semaphore_mem>>
    tpu.enqueue_dma source(%173 : memref<8192x1024xbf16, #tpu.memory_space<hbm>>) target(%175 : memref<8192x1024xbf16, #tpu.memory_space<vmem>>) target_semaphore(%177 : memref<!tpu.dma_semaphore, #tpu.memory_space<semaphore_mem>>)
    %cst_203 = arith.constant 1.000000e+00 : f32
    %178 = arith.addf %167, %cst_203 : f32
    %c1_i32_204 = arith.constant 1 : i32
    %c1_i32_205 = arith.constant 1 : i32
    %c0_i32_206 = arith.constant 0 : i32
    %c1024_i32_207 = arith.constant 1024 : i32
    %179 = tpu.memref_slice %0[%c0_i32_206, %c1024_i32_207] : memref<8192x2048xbf16, #tpu.memory_space<hbm>> -> memref<8192x1024xbf16, #tpu.memory_space<hbm>>
    %c0_i32_208 = arith.constant 0 : i32
    %c0_i32_209 = arith.constant 0 : i32
    %180 = tpu.memref_slice %2[%c1_i32_204, %c0_i32_208, %c0_i32_209] : memref<2x8192x1024xbf16, #tpu.memory_space<vmem>> -> memref<1x8192x1024xbf16, #tpu.memory_space<vmem>>
    %181 = tpu.memref_squeeze %180 : memref<1x8192x1024xbf16, #tpu.memory_space<vmem>> -> memref<8192x1024xbf16, #tpu.memory_space<vmem>>
    %182 = tpu.memref_slice %3[%c1_i32_205] : memref<2x!tpu.dma_semaphore, #tpu.memory_space<semaphore_mem>> -> memref<1x!tpu.dma_semaphore, #tpu.memory_space<semaphore_mem>>
    %183 = tpu.memref_squeeze %182 : memref<1x!tpu.dma_semaphore, #tpu.memory_space<semaphore_mem>> -> memref<!tpu.dma_semaphore, #tpu.memory_space<semaphore_mem>>
    tpu.wait_dma2 semaphore(%183 : memref<!tpu.dma_semaphore, #tpu.memory_space<semaphore_mem>>) src(%179 : memref<8192x1024xbf16, #tpu.memory_space<hbm>>) dst(%181 : memref<8192x1024xbf16, #tpu.memory_space<vmem>>)
    %c1_i32_210 = arith.constant 1 : i32
    %c1_i32_211 = arith.constant 1 : i32
    %c0_i32_212 = arith.constant 0 : i32
    %c1024_i32_213 = arith.constant 1024 : i32
    %184 = tpu.memref_slice %0[%c0_i32_212, %c1024_i32_213] : memref<8192x2048xbf16, #tpu.memory_space<hbm>> -> memref<8192x1024xbf16, #tpu.memory_space<hbm>>
    %c0_i32_214 = arith.constant 0 : i32
    %c0_i32_215 = arith.constant 0 : i32
    %185 = tpu.memref_slice %2[%c1_i32_210, %c0_i32_214, %c0_i32_215] : memref<2x8192x1024xbf16, #tpu.memory_space<vmem>> -> memref<1x8192x1024xbf16, #tpu.memory_space<vmem>>
    %186 = tpu.memref_squeeze %185 : memref<1x8192x1024xbf16, #tpu.memory_space<vmem>> -> memref<8192x1024xbf16, #tpu.memory_space<vmem>>
    %187 = tpu.memref_slice %3[%c1_i32_211] : memref<2x!tpu.dma_semaphore, #tpu.memory_space<semaphore_mem>> -> memref<1x!tpu.dma_semaphore, #tpu.memory_space<semaphore_mem>>
    %188 = tpu.memref_squeeze %187 : memref<1x!tpu.dma_semaphore, #tpu.memory_space<semaphore_mem>> -> memref<!tpu.dma_semaphore, #tpu.memory_space<semaphore_mem>>
    tpu.enqueue_dma source(%184 : memref<8192x1024xbf16, #tpu.memory_space<hbm>>) target(%186 : memref<8192x1024xbf16, #tpu.memory_space<vmem>>) target_semaphore(%188 : memref<!tpu.dma_semaphore, #tpu.memory_space<semaphore_mem>>)
    %cst_216 = arith.constant 1.000000e+00 : f32
    %189 = arith.addf %178, %cst_216 : f32
    %c0_i32_217 = arith.constant 0 : i32
    %c0_i32_218 = arith.constant 0 : i32
    %c0_i32_219 = arith.constant 0 : i32
    %c0_i32_220 = arith.constant 0 : i32
    %190 = tpu.memref_slice %0[%c0_i32_219, %c0_i32_220] : memref<8192x2048xbf16, #tpu.memory_space<hbm>> -> memref<8192x1024xbf16, #tpu.memory_space<hbm>>
    %c0_i32_221 = arith.constant 0 : i32
    %c0_i32_222 = arith.constant 0 : i32
    %191 = tpu.memref_slice %2[%c0_i32_217, %c0_i32_221, %c0_i32_222] : memref<2x8192x1024xbf16, #tpu.memory_space<vmem>> -> memref<1x8192x1024xbf16, #tpu.memory_space<vmem>>
    %192 = tpu.memref_squeeze %191 : memref<1x8192x1024xbf16, #tpu.memory_space<vmem>> -> memref<8192x1024xbf16, #tpu.memory_space<vmem>>
    %193 = tpu.memref_slice %3[%c0_i32_218] : memref<2x!tpu.dma_semaphore, #tpu.memory_space<semaphore_mem>> -> memref<1x!tpu.dma_semaphore, #tpu.memory_space<semaphore_mem>>
    %194 = tpu.memref_squeeze %193 : memref<1x!tpu.dma_semaphore, #tpu.memory_space<semaphore_mem>> -> memref<!tpu.dma_semaphore, #tpu.memory_space<semaphore_mem>>
    tpu.wait_dma2 semaphore(%194 : memref<!tpu.dma_semaphore, #tpu.memory_space<semaphore_mem>>) src(%190 : memref<8192x1024xbf16, #tpu.memory_space<hbm>>) dst(%192 : memref<8192x1024xbf16, #tpu.memory_space<vmem>>)
    %c0_i32_223 = arith.constant 0 : i32
    %c0_i32_224 = arith.constant 0 : i32
    %c0_i32_225 = arith.constant 0 : i32
    %c0_i32_226 = arith.constant 0 : i32
    %195 = tpu.memref_slice %0[%c0_i32_225, %c0_i32_226] : memref<8192x2048xbf16, #tpu.memory_space<hbm>> -> memref<8192x1024xbf16, #tpu.memory_space<hbm>>
    %c0_i32_227 = arith.constant 0 : i32
    %c0_i32_228 = arith.constant 0 : i32
    %196 = tpu.memref_slice %2[%c0_i32_223, %c0_i32_227, %c0_i32_228] : memref<2x8192x1024xbf16, #tpu.memory_space<vmem>> -> memref<1x8192x1024xbf16, #tpu.memory_space<vmem>>
    %197 = tpu.memref_squeeze %196 : memref<1x8192x1024xbf16, #tpu.memory_space<vmem>> -> memref<8192x1024xbf16, #tpu.memory_space<vmem>>
    %198 = tpu.memref_slice %3[%c0_i32_224] : memref<2x!tpu.dma_semaphore, #tpu.memory_space<semaphore_mem>> -> memref<1x!tpu.dma_semaphore, #tpu.memory_space<semaphore_mem>>
    %199 = tpu.memref_squeeze %198 : memref<1x!tpu.dma_semaphore, #tpu.memory_space<semaphore_mem>> -> memref<!tpu.dma_semaphore, #tpu.memory_space<semaphore_mem>>
    tpu.enqueue_dma source(%195 : memref<8192x1024xbf16, #tpu.memory_space<hbm>>) target(%197 : memref<8192x1024xbf16, #tpu.memory_space<vmem>>) target_semaphore(%199 : memref<!tpu.dma_semaphore, #tpu.memory_space<semaphore_mem>>)
    %cst_229 = arith.constant 1.000000e+00 : f32
    %200 = arith.addf %189, %cst_229 : f32
    %c1_i32_230 = arith.constant 1 : i32
    %c1_i32_231 = arith.constant 1 : i32
    %c0_i32_232 = arith.constant 0 : i32
    %c1024_i32_233 = arith.constant 1024 : i32
    %201 = tpu.memref_slice %0[%c0_i32_232, %c1024_i32_233] : memref<8192x2048xbf16, #tpu.memory_space<hbm>> -> memref<8192x1024xbf16, #tpu.memory_space<hbm>>
    %c0_i32_234 = arith.constant 0 : i32
    %c0_i32_235 = arith.constant 0 : i32
    %202 = tpu.memref_slice %2[%c1_i32_230, %c0_i32_234, %c0_i32_235] : memref<2x8192x1024xbf16, #tpu.memory_space<vmem>> -> memref<1x8192x1024xbf16, #tpu.memory_space<vmem>>
    %203 = tpu.memref_squeeze %202 : memref<1x8192x1024xbf16, #tpu.memory_space<vmem>> -> memref<8192x1024xbf16, #tpu.memory_space<vmem>>
    %204 = tpu.memref_slice %3[%c1_i32_231] : memref<2x!tpu.dma_semaphore, #tpu.memory_space<semaphore_mem>> -> memref<1x!tpu.dma_semaphore, #tpu.memory_space<semaphore_mem>>
    %205 = tpu.memref_squeeze %204 : memref<1x!tpu.dma_semaphore, #tpu.memory_space<semaphore_mem>> -> memref<!tpu.dma_semaphore, #tpu.memory_space<semaphore_mem>>
    tpu.wait_dma2 semaphore(%205 : memref<!tpu.dma_semaphore, #tpu.memory_space<semaphore_mem>>) src(%201 : memref<8192x1024xbf16, #tpu.memory_space<hbm>>) dst(%203 : memref<8192x1024xbf16, #tpu.memory_space<vmem>>)
    %c1_i32_236 = arith.constant 1 : i32
    %c1_i32_237 = arith.constant 1 : i32
    %c0_i32_238 = arith.constant 0 : i32
    %c1024_i32_239 = arith.constant 1024 : i32
    %206 = tpu.memref_slice %0[%c0_i32_238, %c1024_i32_239] : memref<8192x2048xbf16, #tpu.memory_space<hbm>> -> memref<8192x1024xbf16, #tpu.memory_space<hbm>>
    %c0_i32_240 = arith.constant 0 : i32
    %c0_i32_241 = arith.constant 0 : i32
    %207 = tpu.memref_slice %2[%c1_i32_236, %c0_i32_240, %c0_i32_241] : memref<2x8192x1024xbf16, #tpu.memory_space<vmem>> -> memref<1x8192x1024xbf16, #tpu.memory_space<vmem>>
    %208 = tpu.memref_squeeze %207 : memref<1x8192x1024xbf16, #tpu.memory_space<vmem>> -> memref<8192x1024xbf16, #tpu.memory_space<vmem>>
    %209 = tpu.memref_slice %3[%c1_i32_237] : memref<2x!tpu.dma_semaphore, #tpu.memory_space<semaphore_mem>> -> memref<1x!tpu.dma_semaphore, #tpu.memory_space<semaphore_mem>>
    %210 = tpu.memref_squeeze %209 : memref<1x!tpu.dma_semaphore, #tpu.memory_space<semaphore_mem>> -> memref<!tpu.dma_semaphore, #tpu.memory_space<semaphore_mem>>
    tpu.enqueue_dma source(%206 : memref<8192x1024xbf16, #tpu.memory_space<hbm>>) target(%208 : memref<8192x1024xbf16, #tpu.memory_space<vmem>>) target_semaphore(%210 : memref<!tpu.dma_semaphore, #tpu.memory_space<semaphore_mem>>)
    %cst_242 = arith.constant 1.000000e+00 : f32
    %211 = arith.addf %200, %cst_242 : f32
    %c0_i32_243 = arith.constant 0 : i32
    %c0_i32_244 = arith.constant 0 : i32
    %c0_i32_245 = arith.constant 0 : i32
    %c0_i32_246 = arith.constant 0 : i32
    %212 = tpu.memref_slice %0[%c0_i32_245, %c0_i32_246] : memref<8192x2048xbf16, #tpu.memory_space<hbm>> -> memref<8192x1024xbf16, #tpu.memory_space<hbm>>
    %c0_i32_247 = arith.constant 0 : i32
    %c0_i32_248 = arith.constant 0 : i32
    %213 = tpu.memref_slice %2[%c0_i32_243, %c0_i32_247, %c0_i32_248] : memref<2x8192x1024xbf16, #tpu.memory_space<vmem>> -> memref<1x8192x1024xbf16, #tpu.memory_space<vmem>>
    %214 = tpu.memref_squeeze %213 : memref<1x8192x1024xbf16, #tpu.memory_space<vmem>> -> memref<8192x1024xbf16, #tpu.memory_space<vmem>>
    %215 = tpu.memref_slice %3[%c0_i32_244] : memref<2x!tpu.dma_semaphore, #tpu.memory_space<semaphore_mem>> -> memref<1x!tpu.dma_semaphore, #tpu.memory_space<semaphore_mem>>
    %216 = tpu.memref_squeeze %215 : memref<1x!tpu.dma_semaphore, #tpu.memory_space<semaphore_mem>> -> memref<!tpu.dma_semaphore, #tpu.memory_space<semaphore_mem>>
    tpu.wait_dma2 semaphore(%216 : memref<!tpu.dma_semaphore, #tpu.memory_space<semaphore_mem>>) src(%212 : memref<8192x1024xbf16, #tpu.memory_space<hbm>>) dst(%214 : memref<8192x1024xbf16, #tpu.memory_space<vmem>>)
    %c0_i32_249 = arith.constant 0 : i32
    %c0_i32_250 = arith.constant 0 : i32
    %c0_i32_251 = arith.constant 0 : i32
    %c0_i32_252 = arith.constant 0 : i32
    %217 = tpu.memref_slice %0[%c0_i32_251, %c0_i32_252] : memref<8192x2048xbf16, #tpu.memory_space<hbm>> -> memref<8192x1024xbf16, #tpu.memory_space<hbm>>
    %c0_i32_253 = arith.constant 0 : i32
    %c0_i32_254 = arith.constant 0 : i32
    %218 = tpu.memref_slice %2[%c0_i32_249, %c0_i32_253, %c0_i32_254] : memref<2x8192x1024xbf16, #tpu.memory_space<vmem>> -> memref<1x8192x1024xbf16, #tpu.memory_space<vmem>>
    %219 = tpu.memref_squeeze %218 : memref<1x8192x1024xbf16, #tpu.memory_space<vmem>> -> memref<8192x1024xbf16, #tpu.memory_space<vmem>>
    %220 = tpu.memref_slice %3[%c0_i32_250] : memref<2x!tpu.dma_semaphore, #tpu.memory_space<semaphore_mem>> -> memref<1x!tpu.dma_semaphore, #tpu.memory_space<semaphore_mem>>
    %221 = tpu.memref_squeeze %220 : memref<1x!tpu.dma_semaphore, #tpu.memory_space<semaphore_mem>> -> memref<!tpu.dma_semaphore, #tpu.memory_space<semaphore_mem>>
    tpu.enqueue_dma source(%217 : memref<8192x1024xbf16, #tpu.memory_space<hbm>>) target(%219 : memref<8192x1024xbf16, #tpu.memory_space<vmem>>) target_semaphore(%221 : memref<!tpu.dma_semaphore, #tpu.memory_space<semaphore_mem>>)
    %cst_255 = arith.constant 1.000000e+00 : f32
    %222 = arith.addf %211, %cst_255 : f32
    %c1_i32_256 = arith.constant 1 : i32
    %c1_i32_257 = arith.constant 1 : i32
    %c0_i32_258 = arith.constant 0 : i32
    %c1024_i32_259 = arith.constant 1024 : i32
    %223 = tpu.memref_slice %0[%c0_i32_258, %c1024_i32_259] : memref<8192x2048xbf16, #tpu.memory_space<hbm>> -> memref<8192x1024xbf16, #tpu.memory_space<hbm>>
    %c0_i32_260 = arith.constant 0 : i32
    %c0_i32_261 = arith.constant 0 : i32
    %224 = tpu.memref_slice %2[%c1_i32_256, %c0_i32_260, %c0_i32_261] : memref<2x8192x1024xbf16, #tpu.memory_space<vmem>> -> memref<1x8192x1024xbf16, #tpu.memory_space<vmem>>
    %225 = tpu.memref_squeeze %224 : memref<1x8192x1024xbf16, #tpu.memory_space<vmem>> -> memref<8192x1024xbf16, #tpu.memory_space<vmem>>
    %226 = tpu.memref_slice %3[%c1_i32_257] : memref<2x!tpu.dma_semaphore, #tpu.memory_space<semaphore_mem>> -> memref<1x!tpu.dma_semaphore, #tpu.memory_space<semaphore_mem>>
    %227 = tpu.memref_squeeze %226 : memref<1x!tpu.dma_semaphore, #tpu.memory_space<semaphore_mem>> -> memref<!tpu.dma_semaphore, #tpu.memory_space<semaphore_mem>>
    tpu.wait_dma2 semaphore(%227 : memref<!tpu.dma_semaphore, #tpu.memory_space<semaphore_mem>>) src(%223 : memref<8192x1024xbf16, #tpu.memory_space<hbm>>) dst(%225 : memref<8192x1024xbf16, #tpu.memory_space<vmem>>)
    %c1_i32_262 = arith.constant 1 : i32
    %c1_i32_263 = arith.constant 1 : i32
    %c0_i32_264 = arith.constant 0 : i32
    %c1024_i32_265 = arith.constant 1024 : i32
    %228 = tpu.memref_slice %0[%c0_i32_264, %c1024_i32_265] : memref<8192x2048xbf16, #tpu.memory_space<hbm>> -> memref<8192x1024xbf16, #tpu.memory_space<hbm>>
    %c0_i32_266 = arith.constant 0 : i32
    %c0_i32_267 = arith.constant 0 : i32
    %229 = tpu.memref_slice %2[%c1_i32_262, %c0_i32_266, %c0_i32_267] : memref<2x8192x1024xbf16, #tpu.memory_space<vmem>> -> memref<1x8192x1024xbf16, #tpu.memory_space<vmem>>
    %230 = tpu.memref_squeeze %229 : memref<1x8192x1024xbf16, #tpu.memory_space<vmem>> -> memref<8192x1024xbf16, #tpu.memory_space<vmem>>
    %231 = tpu.memref_slice %3[%c1_i32_263] : memref<2x!tpu.dma_semaphore, #tpu.memory_space<semaphore_mem>> -> memref<1x!tpu.dma_semaphore, #tpu.memory_space<semaphore_mem>>
    %232 = tpu.memref_squeeze %231 : memref<1x!tpu.dma_semaphore, #tpu.memory_space<semaphore_mem>> -> memref<!tpu.dma_semaphore, #tpu.memory_space<semaphore_mem>>
    tpu.enqueue_dma source(%228 : memref<8192x1024xbf16, #tpu.memory_space<hbm>>) target(%230 : memref<8192x1024xbf16, #tpu.memory_space<vmem>>) target_semaphore(%232 : memref<!tpu.dma_semaphore, #tpu.memory_space<semaphore_mem>>)
    %cst_268 = arith.constant 1.000000e+00 : f32
    %233 = arith.addf %222, %cst_268 : f32
    %c0_i32_269 = arith.constant 0 : i32
    %c0_i32_270 = arith.constant 0 : i32
    %c0_i32_271 = arith.constant 0 : i32
    %c0_i32_272 = arith.constant 0 : i32
    %234 = tpu.memref_slice %0[%c0_i32_271, %c0_i32_272] : memref<8192x2048xbf16, #tpu.memory_space<hbm>> -> memref<8192x1024xbf16, #tpu.memory_space<hbm>>
    %c0_i32_273 = arith.constant 0 : i32
    %c0_i32_274 = arith.constant 0 : i32
    %235 = tpu.memref_slice %2[%c0_i32_269, %c0_i32_273, %c0_i32_274] : memref<2x8192x1024xbf16, #tpu.memory_space<vmem>> -> memref<1x8192x1024xbf16, #tpu.memory_space<vmem>>
    %236 = tpu.memref_squeeze %235 : memref<1x8192x1024xbf16, #tpu.memory_space<vmem>> -> memref<8192x1024xbf16, #tpu.memory_space<vmem>>
    %237 = tpu.memref_slice %3[%c0_i32_270] : memref<2x!tpu.dma_semaphore, #tpu.memory_space<semaphore_mem>> -> memref<1x!tpu.dma_semaphore, #tpu.memory_space<semaphore_mem>>
    %238 = tpu.memref_squeeze %237 : memref<1x!tpu.dma_semaphore, #tpu.memory_space<semaphore_mem>> -> memref<!tpu.dma_semaphore, #tpu.memory_space<semaphore_mem>>
    tpu.wait_dma2 semaphore(%238 : memref<!tpu.dma_semaphore, #tpu.memory_space<semaphore_mem>>) src(%234 : memref<8192x1024xbf16, #tpu.memory_space<hbm>>) dst(%236 : memref<8192x1024xbf16, #tpu.memory_space<vmem>>)
    %c0_i32_275 = arith.constant 0 : i32
    %c0_i32_276 = arith.constant 0 : i32
    %c0_i32_277 = arith.constant 0 : i32
    %c0_i32_278 = arith.constant 0 : i32
    %239 = tpu.memref_slice %0[%c0_i32_277, %c0_i32_278] : memref<8192x2048xbf16, #tpu.memory_space<hbm>> -> memref<8192x1024xbf16, #tpu.memory_space<hbm>>
    %c0_i32_279 = arith.constant 0 : i32
    %c0_i32_280 = arith.constant 0 : i32
    %240 = tpu.memref_slice %2[%c0_i32_275, %c0_i32_279, %c0_i32_280] : memref<2x8192x1024xbf16, #tpu.memory_space<vmem>> -> memref<1x8192x1024xbf16, #tpu.memory_space<vmem>>
    %241 = tpu.memref_squeeze %240 : memref<1x8192x1024xbf16, #tpu.memory_space<vmem>> -> memref<8192x1024xbf16, #tpu.memory_space<vmem>>
    %242 = tpu.memref_slice %3[%c0_i32_276] : memref<2x!tpu.dma_semaphore, #tpu.memory_space<semaphore_mem>> -> memref<1x!tpu.dma_semaphore, #tpu.memory_space<semaphore_mem>>
    %243 = tpu.memref_squeeze %242 : memref<1x!tpu.dma_semaphore, #tpu.memory_space<semaphore_mem>> -> memref<!tpu.dma_semaphore, #tpu.memory_space<semaphore_mem>>
    tpu.enqueue_dma source(%239 : memref<8192x1024xbf16, #tpu.memory_space<hbm>>) target(%241 : memref<8192x1024xbf16, #tpu.memory_space<vmem>>) target_semaphore(%243 : memref<!tpu.dma_semaphore, #tpu.memory_space<semaphore_mem>>)
    %cst_281 = arith.constant 1.000000e+00 : f32
    %244 = arith.addf %233, %cst_281 : f32
    %c1_i32_282 = arith.constant 1 : i32
    %c1_i32_283 = arith.constant 1 : i32
    %c0_i32_284 = arith.constant 0 : i32
    %c1024_i32_285 = arith.constant 1024 : i32
    %245 = tpu.memref_slice %0[%c0_i32_284, %c1024_i32_285] : memref<8192x2048xbf16, #tpu.memory_space<hbm>> -> memref<8192x1024xbf16, #tpu.memory_space<hbm>>
    %c0_i32_286 = arith.constant 0 : i32
    %c0_i32_287 = arith.constant 0 : i32
    %246 = tpu.memref_slice %2[%c1_i32_282, %c0_i32_286, %c0_i32_287] : memref<2x8192x1024xbf16, #tpu.memory_space<vmem>> -> memref<1x8192x1024xbf16, #tpu.memory_space<vmem>>
    %247 = tpu.memref_squeeze %246 : memref<1x8192x1024xbf16, #tpu.memory_space<vmem>> -> memref<8192x1024xbf16, #tpu.memory_space<vmem>>
    %248 = tpu.memref_slice %3[%c1_i32_283] : memref<2x!tpu.dma_semaphore, #tpu.memory_space<semaphore_mem>> -> memref<1x!tpu.dma_semaphore, #tpu.memory_space<semaphore_mem>>
    %249 = tpu.memref_squeeze %248 : memref<1x!tpu.dma_semaphore, #tpu.memory_space<semaphore_mem>> -> memref<!tpu.dma_semaphore, #tpu.memory_space<semaphore_mem>>
    tpu.wait_dma2 semaphore(%249 : memref<!tpu.dma_semaphore, #tpu.memory_space<semaphore_mem>>) src(%245 : memref<8192x1024xbf16, #tpu.memory_space<hbm>>) dst(%247 : memref<8192x1024xbf16, #tpu.memory_space<vmem>>)
    %c1_i32_288 = arith.constant 1 : i32
    %c1_i32_289 = arith.constant 1 : i32
    %c0_i32_290 = arith.constant 0 : i32
    %c1024_i32_291 = arith.constant 1024 : i32
    %250 = tpu.memref_slice %0[%c0_i32_290, %c1024_i32_291] : memref<8192x2048xbf16, #tpu.memory_space<hbm>> -> memref<8192x1024xbf16, #tpu.memory_space<hbm>>
    %c0_i32_292 = arith.constant 0 : i32
    %c0_i32_293 = arith.constant 0 : i32
    %251 = tpu.memref_slice %2[%c1_i32_288, %c0_i32_292, %c0_i32_293] : memref<2x8192x1024xbf16, #tpu.memory_space<vmem>> -> memref<1x8192x1024xbf16, #tpu.memory_space<vmem>>
    %252 = tpu.memref_squeeze %251 : memref<1x8192x1024xbf16, #tpu.memory_space<vmem>> -> memref<8192x1024xbf16, #tpu.memory_space<vmem>>
    %253 = tpu.memref_slice %3[%c1_i32_289] : memref<2x!tpu.dma_semaphore, #tpu.memory_space<semaphore_mem>> -> memref<1x!tpu.dma_semaphore, #tpu.memory_space<semaphore_mem>>
    %254 = tpu.memref_squeeze %253 : memref<1x!tpu.dma_semaphore, #tpu.memory_space<semaphore_mem>> -> memref<!tpu.dma_semaphore, #tpu.memory_space<semaphore_mem>>
    tpu.enqueue_dma source(%250 : memref<8192x1024xbf16, #tpu.memory_space<hbm>>) target(%252 : memref<8192x1024xbf16, #tpu.memory_space<vmem>>) target_semaphore(%254 : memref<!tpu.dma_semaphore, #tpu.memory_space<semaphore_mem>>)
    %cst_294 = arith.constant 1.000000e+00 : f32
    %255 = arith.addf %244, %cst_294 : f32
    %c0_i32_295 = arith.constant 0 : i32
    %c0_i32_296 = arith.constant 0 : i32
    %c0_i32_297 = arith.constant 0 : i32
    %c0_i32_298 = arith.constant 0 : i32
    %256 = tpu.memref_slice %0[%c0_i32_297, %c0_i32_298] : memref<8192x2048xbf16, #tpu.memory_space<hbm>> -> memref<8192x1024xbf16, #tpu.memory_space<hbm>>
    %c0_i32_299 = arith.constant 0 : i32
    %c0_i32_300 = arith.constant 0 : i32
    %257 = tpu.memref_slice %2[%c0_i32_295, %c0_i32_299, %c0_i32_300] : memref<2x8192x1024xbf16, #tpu.memory_space<vmem>> -> memref<1x8192x1024xbf16, #tpu.memory_space<vmem>>
    %258 = tpu.memref_squeeze %257 : memref<1x8192x1024xbf16, #tpu.memory_space<vmem>> -> memref<8192x1024xbf16, #tpu.memory_space<vmem>>
    %259 = tpu.memref_slice %3[%c0_i32_296] : memref<2x!tpu.dma_semaphore, #tpu.memory_space<semaphore_mem>> -> memref<1x!tpu.dma_semaphore, #tpu.memory_space<semaphore_mem>>
    %260 = tpu.memref_squeeze %259 : memref<1x!tpu.dma_semaphore, #tpu.memory_space<semaphore_mem>> -> memref<!tpu.dma_semaphore, #tpu.memory_space<semaphore_mem>>
    tpu.wait_dma2 semaphore(%260 : memref<!tpu.dma_semaphore, #tpu.memory_space<semaphore_mem>>) src(%256 : memref<8192x1024xbf16, #tpu.memory_space<hbm>>) dst(%258 : memref<8192x1024xbf16, #tpu.memory_space<vmem>>)
    %c0_i32_301 = arith.constant 0 : i32
    %c0_i32_302 = arith.constant 0 : i32
    %c0_i32_303 = arith.constant 0 : i32
    %c0_i32_304 = arith.constant 0 : i32
    %261 = tpu.memref_slice %0[%c0_i32_303, %c0_i32_304] : memref<8192x2048xbf16, #tpu.memory_space<hbm>> -> memref<8192x1024xbf16, #tpu.memory_space<hbm>>
    %c0_i32_305 = arith.constant 0 : i32
    %c0_i32_306 = arith.constant 0 : i32
    %262 = tpu.memref_slice %2[%c0_i32_301, %c0_i32_305, %c0_i32_306] : memref<2x8192x1024xbf16, #tpu.memory_space<vmem>> -> memref<1x8192x1024xbf16, #tpu.memory_space<vmem>>
    %263 = tpu.memref_squeeze %262 : memref<1x8192x1024xbf16, #tpu.memory_space<vmem>> -> memref<8192x1024xbf16, #tpu.memory_space<vmem>>
    %264 = tpu.memref_slice %3[%c0_i32_302] : memref<2x!tpu.dma_semaphore, #tpu.memory_space<semaphore_mem>> -> memref<1x!tpu.dma_semaphore, #tpu.memory_space<semaphore_mem>>
    %265 = tpu.memref_squeeze %264 : memref<1x!tpu.dma_semaphore, #tpu.memory_space<semaphore_mem>> -> memref<!tpu.dma_semaphore, #tpu.memory_space<semaphore_mem>>
    tpu.enqueue_dma source(%261 : memref<8192x1024xbf16, #tpu.memory_space<hbm>>) target(%263 : memref<8192x1024xbf16, #tpu.memory_space<vmem>>) target_semaphore(%265 : memref<!tpu.dma_semaphore, #tpu.memory_space<semaphore_mem>>)
    %cst_307 = arith.constant 1.000000e+00 : f32
    %266 = arith.addf %255, %cst_307 : f32
    %c1_i32_308 = arith.constant 1 : i32
    %c1_i32_309 = arith.constant 1 : i32
    %c0_i32_310 = arith.constant 0 : i32
    %c1024_i32_311 = arith.constant 1024 : i32
    %267 = tpu.memref_slice %0[%c0_i32_310, %c1024_i32_311] : memref<8192x2048xbf16, #tpu.memory_space<hbm>> -> memref<8192x1024xbf16, #tpu.memory_space<hbm>>
    %c0_i32_312 = arith.constant 0 : i32
    %c0_i32_313 = arith.constant 0 : i32
    %268 = tpu.memref_slice %2[%c1_i32_308, %c0_i32_312, %c0_i32_313] : memref<2x8192x1024xbf16, #tpu.memory_space<vmem>> -> memref<1x8192x1024xbf16, #tpu.memory_space<vmem>>
    %269 = tpu.memref_squeeze %268 : memref<1x8192x1024xbf16, #tpu.memory_space<vmem>> -> memref<8192x1024xbf16, #tpu.memory_space<vmem>>
    %270 = tpu.memref_slice %3[%c1_i32_309] : memref<2x!tpu.dma_semaphore, #tpu.memory_space<semaphore_mem>> -> memref<1x!tpu.dma_semaphore, #tpu.memory_space<semaphore_mem>>
    %271 = tpu.memref_squeeze %270 : memref<1x!tpu.dma_semaphore, #tpu.memory_space<semaphore_mem>> -> memref<!tpu.dma_semaphore, #tpu.memory_space<semaphore_mem>>
    tpu.wait_dma2 semaphore(%271 : memref<!tpu.dma_semaphore, #tpu.memory_space<semaphore_mem>>) src(%267 : memref<8192x1024xbf16, #tpu.memory_space<hbm>>) dst(%269 : memref<8192x1024xbf16, #tpu.memory_space<vmem>>)
    %c1_i32_314 = arith.constant 1 : i32
    %c1_i32_315 = arith.constant 1 : i32
    %c0_i32_316 = arith.constant 0 : i32
    %c1024_i32_317 = arith.constant 1024 : i32
    %272 = tpu.memref_slice %0[%c0_i32_316, %c1024_i32_317] : memref<8192x2048xbf16, #tpu.memory_space<hbm>> -> memref<8192x1024xbf16, #tpu.memory_space<hbm>>
    %c0_i32_318 = arith.constant 0 : i32
    %c0_i32_319 = arith.constant 0 : i32
    %273 = tpu.memref_slice %2[%c1_i32_314, %c0_i32_318, %c0_i32_319] : memref<2x8192x1024xbf16, #tpu.memory_space<vmem>> -> memref<1x8192x1024xbf16, #tpu.memory_space<vmem>>
    %274 = tpu.memref_squeeze %273 : memref<1x8192x1024xbf16, #tpu.memory_space<vmem>> -> memref<8192x1024xbf16, #tpu.memory_space<vmem>>
    %275 = tpu.memref_slice %3[%c1_i32_315] : memref<2x!tpu.dma_semaphore, #tpu.memory_space<semaphore_mem>> -> memref<1x!tpu.dma_semaphore, #tpu.memory_space<semaphore_mem>>
    %276 = tpu.memref_squeeze %275 : memref<1x!tpu.dma_semaphore, #tpu.memory_space<semaphore_mem>> -> memref<!tpu.dma_semaphore, #tpu.memory_space<semaphore_mem>>
    tpu.enqueue_dma source(%272 : memref<8192x1024xbf16, #tpu.memory_space<hbm>>) target(%274 : memref<8192x1024xbf16, #tpu.memory_space<vmem>>) target_semaphore(%276 : memref<!tpu.dma_semaphore, #tpu.memory_space<semaphore_mem>>)
    %cst_320 = arith.constant 1.000000e+00 : f32
    %277 = arith.addf %266, %cst_320 : f32
    %c0_i32_321 = arith.constant 0 : i32
    %c0_i32_322 = arith.constant 0 : i32
    %c0_i32_323 = arith.constant 0 : i32
    %c0_i32_324 = arith.constant 0 : i32
    %278 = tpu.memref_slice %0[%c0_i32_323, %c0_i32_324] : memref<8192x2048xbf16, #tpu.memory_space<hbm>> -> memref<8192x1024xbf16, #tpu.memory_space<hbm>>
    %c0_i32_325 = arith.constant 0 : i32
    %c0_i32_326 = arith.constant 0 : i32
    %279 = tpu.memref_slice %2[%c0_i32_321, %c0_i32_325, %c0_i32_326] : memref<2x8192x1024xbf16, #tpu.memory_space<vmem>> -> memref<1x8192x1024xbf16, #tpu.memory_space<vmem>>
    %280 = tpu.memref_squeeze %279 : memref<1x8192x1024xbf16, #tpu.memory_space<vmem>> -> memref<8192x1024xbf16, #tpu.memory_space<vmem>>
    %281 = tpu.memref_slice %3[%c0_i32_322] : memref<2x!tpu.dma_semaphore, #tpu.memory_space<semaphore_mem>> -> memref<1x!tpu.dma_semaphore, #tpu.memory_space<semaphore_mem>>
    %282 = tpu.memref_squeeze %281 : memref<1x!tpu.dma_semaphore, #tpu.memory_space<semaphore_mem>> -> memref<!tpu.dma_semaphore, #tpu.memory_space<semaphore_mem>>
    tpu.wait_dma2 semaphore(%282 : memref<!tpu.dma_semaphore, #tpu.memory_space<semaphore_mem>>) src(%278 : memref<8192x1024xbf16, #tpu.memory_space<hbm>>) dst(%280 : memref<8192x1024xbf16, #tpu.memory_space<vmem>>)
    %c0_i32_327 = arith.constant 0 : i32
    %c0_i32_328 = arith.constant 0 : i32
    %c0_i32_329 = arith.constant 0 : i32
    %c0_i32_330 = arith.constant 0 : i32
    %283 = tpu.memref_slice %0[%c0_i32_329, %c0_i32_330] : memref<8192x2048xbf16, #tpu.memory_space<hbm>> -> memref<8192x1024xbf16, #tpu.memory_space<hbm>>
    %c0_i32_331 = arith.constant 0 : i32
    %c0_i32_332 = arith.constant 0 : i32
    %284 = tpu.memref_slice %2[%c0_i32_327, %c0_i32_331, %c0_i32_332] : memref<2x8192x1024xbf16, #tpu.memory_space<vmem>> -> memref<1x8192x1024xbf16, #tpu.memory_space<vmem>>
    %285 = tpu.memref_squeeze %284 : memref<1x8192x1024xbf16, #tpu.memory_space<vmem>> -> memref<8192x1024xbf16, #tpu.memory_space<vmem>>
    %286 = tpu.memref_slice %3[%c0_i32_328] : memref<2x!tpu.dma_semaphore, #tpu.memory_space<semaphore_mem>> -> memref<1x!tpu.dma_semaphore, #tpu.memory_space<semaphore_mem>>
    %287 = tpu.memref_squeeze %286 : memref<1x!tpu.dma_semaphore, #tpu.memory_space<semaphore_mem>> -> memref<!tpu.dma_semaphore, #tpu.memory_space<semaphore_mem>>
    tpu.enqueue_dma source(%283 : memref<8192x1024xbf16, #tpu.memory_space<hbm>>) target(%285 : memref<8192x1024xbf16, #tpu.memory_space<vmem>>) target_semaphore(%287 : memref<!tpu.dma_semaphore, #tpu.memory_space<semaphore_mem>>)
    %cst_333 = arith.constant 1.000000e+00 : f32
    %288 = arith.addf %277, %cst_333 : f32
    %c1_i32_334 = arith.constant 1 : i32
    %c1_i32_335 = arith.constant 1 : i32
    %c0_i32_336 = arith.constant 0 : i32
    %c1024_i32_337 = arith.constant 1024 : i32
    %289 = tpu.memref_slice %0[%c0_i32_336, %c1024_i32_337] : memref<8192x2048xbf16, #tpu.memory_space<hbm>> -> memref<8192x1024xbf16, #tpu.memory_space<hbm>>
    %c0_i32_338 = arith.constant 0 : i32
    %c0_i32_339 = arith.constant 0 : i32
    %290 = tpu.memref_slice %2[%c1_i32_334, %c0_i32_338, %c0_i32_339] : memref<2x8192x1024xbf16, #tpu.memory_space<vmem>> -> memref<1x8192x1024xbf16, #tpu.memory_space<vmem>>
    %291 = tpu.memref_squeeze %290 : memref<1x8192x1024xbf16, #tpu.memory_space<vmem>> -> memref<8192x1024xbf16, #tpu.memory_space<vmem>>
    %292 = tpu.memref_slice %3[%c1_i32_335] : memref<2x!tpu.dma_semaphore, #tpu.memory_space<semaphore_mem>> -> memref<1x!tpu.dma_semaphore, #tpu.memory_space<semaphore_mem>>
    %293 = tpu.memref_squeeze %292 : memref<1x!tpu.dma_semaphore, #tpu.memory_space<semaphore_mem>> -> memref<!tpu.dma_semaphore, #tpu.memory_space<semaphore_mem>>
    tpu.wait_dma2 semaphore(%293 : memref<!tpu.dma_semaphore, #tpu.memory_space<semaphore_mem>>) src(%289 : memref<8192x1024xbf16, #tpu.memory_space<hbm>>) dst(%291 : memref<8192x1024xbf16, #tpu.memory_space<vmem>>)
    %c1_i32_340 = arith.constant 1 : i32
    %c1_i32_341 = arith.constant 1 : i32
    %c0_i32_342 = arith.constant 0 : i32
    %c1024_i32_343 = arith.constant 1024 : i32
    %294 = tpu.memref_slice %0[%c0_i32_342, %c1024_i32_343] : memref<8192x2048xbf16, #tpu.memory_space<hbm>> -> memref<8192x1024xbf16, #tpu.memory_space<hbm>>
    %c0_i32_344 = arith.constant 0 : i32
    %c0_i32_345 = arith.constant 0 : i32
    %295 = tpu.memref_slice %2[%c1_i32_340, %c0_i32_344, %c0_i32_345] : memref<2x8192x1024xbf16, #tpu.memory_space<vmem>> -> memref<1x8192x1024xbf16, #tpu.memory_space<vmem>>
    %296 = tpu.memref_squeeze %295 : memref<1x8192x1024xbf16, #tpu.memory_space<vmem>> -> memref<8192x1024xbf16, #tpu.memory_space<vmem>>
    %297 = tpu.memref_slice %3[%c1_i32_341] : memref<2x!tpu.dma_semaphore, #tpu.memory_space<semaphore_mem>> -> memref<1x!tpu.dma_semaphore, #tpu.memory_space<semaphore_mem>>
    %298 = tpu.memref_squeeze %297 : memref<1x!tpu.dma_semaphore, #tpu.memory_space<semaphore_mem>> -> memref<!tpu.dma_semaphore, #tpu.memory_space<semaphore_mem>>
    tpu.enqueue_dma source(%294 : memref<8192x1024xbf16, #tpu.memory_space<hbm>>) target(%296 : memref<8192x1024xbf16, #tpu.memory_space<vmem>>) target_semaphore(%298 : memref<!tpu.dma_semaphore, #tpu.memory_space<semaphore_mem>>)
    %cst_346 = arith.constant 1.000000e+00 : f32
    %299 = arith.addf %288, %cst_346 : f32
    %c0_i32_347 = arith.constant 0 : i32
    %c0_i32_348 = arith.constant 0 : i32
    %c0_i32_349 = arith.constant 0 : i32
    %c0_i32_350 = arith.constant 0 : i32
    %300 = tpu.memref_slice %0[%c0_i32_349, %c0_i32_350] : memref<8192x2048xbf16, #tpu.memory_space<hbm>> -> memref<8192x1024xbf16, #tpu.memory_space<hbm>>
    %c0_i32_351 = arith.constant 0 : i32
    %c0_i32_352 = arith.constant 0 : i32
    %301 = tpu.memref_slice %2[%c0_i32_347, %c0_i32_351, %c0_i32_352] : memref<2x8192x1024xbf16, #tpu.memory_space<vmem>> -> memref<1x8192x1024xbf16, #tpu.memory_space<vmem>>
    %302 = tpu.memref_squeeze %301 : memref<1x8192x1024xbf16, #tpu.memory_space<vmem>> -> memref<8192x1024xbf16, #tpu.memory_space<vmem>>
    %303 = tpu.memref_slice %3[%c0_i32_348] : memref<2x!tpu.dma_semaphore, #tpu.memory_space<semaphore_mem>> -> memref<1x!tpu.dma_semaphore, #tpu.memory_space<semaphore_mem>>
    %304 = tpu.memref_squeeze %303 : memref<1x!tpu.dma_semaphore, #tpu.memory_space<semaphore_mem>> -> memref<!tpu.dma_semaphore, #tpu.memory_space<semaphore_mem>>
    tpu.wait_dma2 semaphore(%304 : memref<!tpu.dma_semaphore, #tpu.memory_space<semaphore_mem>>) src(%300 : memref<8192x1024xbf16, #tpu.memory_space<hbm>>) dst(%302 : memref<8192x1024xbf16, #tpu.memory_space<vmem>>)
    %c0_i32_353 = arith.constant 0 : i32
    %c0_i32_354 = arith.constant 0 : i32
    %c0_i32_355 = arith.constant 0 : i32
    %c0_i32_356 = arith.constant 0 : i32
    %305 = tpu.memref_slice %0[%c0_i32_355, %c0_i32_356] : memref<8192x2048xbf16, #tpu.memory_space<hbm>> -> memref<8192x1024xbf16, #tpu.memory_space<hbm>>
    %c0_i32_357 = arith.constant 0 : i32
    %c0_i32_358 = arith.constant 0 : i32
    %306 = tpu.memref_slice %2[%c0_i32_353, %c0_i32_357, %c0_i32_358] : memref<2x8192x1024xbf16, #tpu.memory_space<vmem>> -> memref<1x8192x1024xbf16, #tpu.memory_space<vmem>>
    %307 = tpu.memref_squeeze %306 : memref<1x8192x1024xbf16, #tpu.memory_space<vmem>> -> memref<8192x1024xbf16, #tpu.memory_space<vmem>>
    %308 = tpu.memref_slice %3[%c0_i32_354] : memref<2x!tpu.dma_semaphore, #tpu.memory_space<semaphore_mem>> -> memref<1x!tpu.dma_semaphore, #tpu.memory_space<semaphore_mem>>
    %309 = tpu.memref_squeeze %308 : memref<1x!tpu.dma_semaphore, #tpu.memory_space<semaphore_mem>> -> memref<!tpu.dma_semaphore, #tpu.memory_space<semaphore_mem>>
    tpu.enqueue_dma source(%305 : memref<8192x1024xbf16, #tpu.memory_space<hbm>>) target(%307 : memref<8192x1024xbf16, #tpu.memory_space<vmem>>) target_semaphore(%309 : memref<!tpu.dma_semaphore, #tpu.memory_space<semaphore_mem>>)
    %cst_359 = arith.constant 1.000000e+00 : f32
    %310 = arith.addf %299, %cst_359 : f32
    %c1_i32_360 = arith.constant 1 : i32
    %c1_i32_361 = arith.constant 1 : i32
    %c0_i32_362 = arith.constant 0 : i32
    %c1024_i32_363 = arith.constant 1024 : i32
    %311 = tpu.memref_slice %0[%c0_i32_362, %c1024_i32_363] : memref<8192x2048xbf16, #tpu.memory_space<hbm>> -> memref<8192x1024xbf16, #tpu.memory_space<hbm>>
    %c0_i32_364 = arith.constant 0 : i32
    %c0_i32_365 = arith.constant 0 : i32
    %312 = tpu.memref_slice %2[%c1_i32_360, %c0_i32_364, %c0_i32_365] : memref<2x8192x1024xbf16, #tpu.memory_space<vmem>> -> memref<1x8192x1024xbf16, #tpu.memory_space<vmem>>
    %313 = tpu.memref_squeeze %312 : memref<1x8192x1024xbf16, #tpu.memory_space<vmem>> -> memref<8192x1024xbf16, #tpu.memory_space<vmem>>
    %314 = tpu.memref_slice %3[%c1_i32_361] : memref<2x!tpu.dma_semaphore, #tpu.memory_space<semaphore_mem>> -> memref<1x!tpu.dma_semaphore, #tpu.memory_space<semaphore_mem>>
    %315 = tpu.memref_squeeze %314 : memref<1x!tpu.dma_semaphore, #tpu.memory_space<semaphore_mem>> -> memref<!tpu.dma_semaphore, #tpu.memory_space<semaphore_mem>>
    tpu.wait_dma2 semaphore(%315 : memref<!tpu.dma_semaphore, #tpu.memory_space<semaphore_mem>>) src(%311 : memref<8192x1024xbf16, #tpu.memory_space<hbm>>) dst(%313 : memref<8192x1024xbf16, #tpu.memory_space<vmem>>)
    %c1_i32_366 = arith.constant 1 : i32
    %c1_i32_367 = arith.constant 1 : i32
    %c0_i32_368 = arith.constant 0 : i32
    %c1024_i32_369 = arith.constant 1024 : i32
    %316 = tpu.memref_slice %0[%c0_i32_368, %c1024_i32_369] : memref<8192x2048xbf16, #tpu.memory_space<hbm>> -> memref<8192x1024xbf16, #tpu.memory_space<hbm>>
    %c0_i32_370 = arith.constant 0 : i32
    %c0_i32_371 = arith.constant 0 : i32
    %317 = tpu.memref_slice %2[%c1_i32_366, %c0_i32_370, %c0_i32_371] : memref<2x8192x1024xbf16, #tpu.memory_space<vmem>> -> memref<1x8192x1024xbf16, #tpu.memory_space<vmem>>
    %318 = tpu.memref_squeeze %317 : memref<1x8192x1024xbf16, #tpu.memory_space<vmem>> -> memref<8192x1024xbf16, #tpu.memory_space<vmem>>
    %319 = tpu.memref_slice %3[%c1_i32_367] : memref<2x!tpu.dma_semaphore, #tpu.memory_space<semaphore_mem>> -> memref<1x!tpu.dma_semaphore, #tpu.memory_space<semaphore_mem>>
    %320 = tpu.memref_squeeze %319 : memref<1x!tpu.dma_semaphore, #tpu.memory_space<semaphore_mem>> -> memref<!tpu.dma_semaphore, #tpu.memory_space<semaphore_mem>>
    tpu.enqueue_dma source(%316 : memref<8192x1024xbf16, #tpu.memory_space<hbm>>) target(%318 : memref<8192x1024xbf16, #tpu.memory_space<vmem>>) target_semaphore(%320 : memref<!tpu.dma_semaphore, #tpu.memory_space<semaphore_mem>>)
    %cst_372 = arith.constant 1.000000e+00 : f32
    %321 = arith.addf %310, %cst_372 : f32
    %c0_i32_373 = arith.constant 0 : i32
    %c0_i32_374 = arith.constant 0 : i32
    %c0_i32_375 = arith.constant 0 : i32
    %c0_i32_376 = arith.constant 0 : i32
    %322 = tpu.memref_slice %0[%c0_i32_375, %c0_i32_376] : memref<8192x2048xbf16, #tpu.memory_space<hbm>> -> memref<8192x1024xbf16, #tpu.memory_space<hbm>>
    %c0_i32_377 = arith.constant 0 : i32
    %c0_i32_378 = arith.constant 0 : i32
    %323 = tpu.memref_slice %2[%c0_i32_373, %c0_i32_377, %c0_i32_378] : memref<2x8192x1024xbf16, #tpu.memory_space<vmem>> -> memref<1x8192x1024xbf16, #tpu.memory_space<vmem>>
    %324 = tpu.memref_squeeze %323 : memref<1x8192x1024xbf16, #tpu.memory_space<vmem>> -> memref<8192x1024xbf16, #tpu.memory_space<vmem>>
    %325 = tpu.memref_slice %3[%c0_i32_374] : memref<2x!tpu.dma_semaphore, #tpu.memory_space<semaphore_mem>> -> memref<1x!tpu.dma_semaphore, #tpu.memory_space<semaphore_mem>>
    %326 = tpu.memref_squeeze %325 : memref<1x!tpu.dma_semaphore, #tpu.memory_space<semaphore_mem>> -> memref<!tpu.dma_semaphore, #tpu.memory_space<semaphore_mem>>
    tpu.wait_dma2 semaphore(%326 : memref<!tpu.dma_semaphore, #tpu.memory_space<semaphore_mem>>) src(%322 : memref<8192x1024xbf16, #tpu.memory_space<hbm>>) dst(%324 : memref<8192x1024xbf16, #tpu.memory_space<vmem>>)
    %c0_i32_379 = arith.constant 0 : i32
    %c0_i32_380 = arith.constant 0 : i32
    %c0_i32_381 = arith.constant 0 : i32
    %c0_i32_382 = arith.constant 0 : i32
    %327 = tpu.memref_slice %0[%c0_i32_381, %c0_i32_382] : memref<8192x2048xbf16, #tpu.memory_space<hbm>> -> memref<8192x1024xbf16, #tpu.memory_space<hbm>>
    %c0_i32_383 = arith.constant 0 : i32
    %c0_i32_384 = arith.constant 0 : i32
    %328 = tpu.memref_slice %2[%c0_i32_379, %c0_i32_383, %c0_i32_384] : memref<2x8192x1024xbf16, #tpu.memory_space<vmem>> -> memref<1x8192x1024xbf16, #tpu.memory_space<vmem>>
    %329 = tpu.memref_squeeze %328 : memref<1x8192x1024xbf16, #tpu.memory_space<vmem>> -> memref<8192x1024xbf16, #tpu.memory_space<vmem>>
    %330 = tpu.memref_slice %3[%c0_i32_380] : memref<2x!tpu.dma_semaphore, #tpu.memory_space<semaphore_mem>> -> memref<1x!tpu.dma_semaphore, #tpu.memory_space<semaphore_mem>>
    %331 = tpu.memref_squeeze %330 : memref<1x!tpu.dma_semaphore, #tpu.memory_space<semaphore_mem>> -> memref<!tpu.dma_semaphore, #tpu.memory_space<semaphore_mem>>
    tpu.enqueue_dma source(%327 : memref<8192x1024xbf16, #tpu.memory_space<hbm>>) target(%329 : memref<8192x1024xbf16, #tpu.memory_space<vmem>>) target_semaphore(%331 : memref<!tpu.dma_semaphore, #tpu.memory_space<semaphore_mem>>)
    %cst_385 = arith.constant 1.000000e+00 : f32
    %332 = arith.addf %321, %cst_385 : f32
    %c1_i32_386 = arith.constant 1 : i32
    %c1_i32_387 = arith.constant 1 : i32
    %c0_i32_388 = arith.constant 0 : i32
    %c1024_i32_389 = arith.constant 1024 : i32
    %333 = tpu.memref_slice %0[%c0_i32_388, %c1024_i32_389] : memref<8192x2048xbf16, #tpu.memory_space<hbm>> -> memref<8192x1024xbf16, #tpu.memory_space<hbm>>
    %c0_i32_390 = arith.constant 0 : i32
    %c0_i32_391 = arith.constant 0 : i32
    %334 = tpu.memref_slice %2[%c1_i32_386, %c0_i32_390, %c0_i32_391] : memref<2x8192x1024xbf16, #tpu.memory_space<vmem>> -> memref<1x8192x1024xbf16, #tpu.memory_space<vmem>>
    %335 = tpu.memref_squeeze %334 : memref<1x8192x1024xbf16, #tpu.memory_space<vmem>> -> memref<8192x1024xbf16, #tpu.memory_space<vmem>>
    %336 = tpu.memref_slice %3[%c1_i32_387] : memref<2x!tpu.dma_semaphore, #tpu.memory_space<semaphore_mem>> -> memref<1x!tpu.dma_semaphore, #tpu.memory_space<semaphore_mem>>
    %337 = tpu.memref_squeeze %336 : memref<1x!tpu.dma_semaphore, #tpu.memory_space<semaphore_mem>> -> memref<!tpu.dma_semaphore, #tpu.memory_space<semaphore_mem>>
    tpu.wait_dma2 semaphore(%337 : memref<!tpu.dma_semaphore, #tpu.memory_space<semaphore_mem>>) src(%333 : memref<8192x1024xbf16, #tpu.memory_space<hbm>>) dst(%335 : memref<8192x1024xbf16, #tpu.memory_space<vmem>>)
    %c1_i32_392 = arith.constant 1 : i32
    %c1_i32_393 = arith.constant 1 : i32
    %c0_i32_394 = arith.constant 0 : i32
    %c1024_i32_395 = arith.constant 1024 : i32
    %338 = tpu.memref_slice %0[%c0_i32_394, %c1024_i32_395] : memref<8192x2048xbf16, #tpu.memory_space<hbm>> -> memref<8192x1024xbf16, #tpu.memory_space<hbm>>
    %c0_i32_396 = arith.constant 0 : i32
    %c0_i32_397 = arith.constant 0 : i32
    %339 = tpu.memref_slice %2[%c1_i32_392, %c0_i32_396, %c0_i32_397] : memref<2x8192x1024xbf16, #tpu.memory_space<vmem>> -> memref<1x8192x1024xbf16, #tpu.memory_space<vmem>>
    %340 = tpu.memref_squeeze %339 : memref<1x8192x1024xbf16, #tpu.memory_space<vmem>> -> memref<8192x1024xbf16, #tpu.memory_space<vmem>>
    %341 = tpu.memref_slice %3[%c1_i32_393] : memref<2x!tpu.dma_semaphore, #tpu.memory_space<semaphore_mem>> -> memref<1x!tpu.dma_semaphore, #tpu.memory_space<semaphore_mem>>
    %342 = tpu.memref_squeeze %341 : memref<1x!tpu.dma_semaphore, #tpu.memory_space<semaphore_mem>> -> memref<!tpu.dma_semaphore, #tpu.memory_space<semaphore_mem>>
    tpu.enqueue_dma source(%338 : memref<8192x1024xbf16, #tpu.memory_space<hbm>>) target(%340 : memref<8192x1024xbf16, #tpu.memory_space<vmem>>) target_semaphore(%342 : memref<!tpu.dma_semaphore, #tpu.memory_space<semaphore_mem>>)
    %cst_398 = arith.constant 1.000000e+00 : f32
    %343 = arith.addf %332, %cst_398 : f32
    %c0_i32_399 = arith.constant 0 : i32
    %c0_i32_400 = arith.constant 0 : i32
    %c0_i32_401 = arith.constant 0 : i32
    %c0_i32_402 = arith.constant 0 : i32
    %344 = tpu.memref_slice %0[%c0_i32_401, %c0_i32_402] : memref<8192x2048xbf16, #tpu.memory_space<hbm>> -> memref<8192x1024xbf16, #tpu.memory_space<hbm>>
    %c0_i32_403 = arith.constant 0 : i32
    %c0_i32_404 = arith.constant 0 : i32
    %345 = tpu.memref_slice %2[%c0_i32_399, %c0_i32_403, %c0_i32_404] : memref<2x8192x1024xbf16, #tpu.memory_space<vmem>> -> memref<1x8192x1024xbf16, #tpu.memory_space<vmem>>
    %346 = tpu.memref_squeeze %345 : memref<1x8192x1024xbf16, #tpu.memory_space<vmem>> -> memref<8192x1024xbf16, #tpu.memory_space<vmem>>
    %347 = tpu.memref_slice %3[%c0_i32_400] : memref<2x!tpu.dma_semaphore, #tpu.memory_space<semaphore_mem>> -> memref<1x!tpu.dma_semaphore, #tpu.memory_space<semaphore_mem>>
    %348 = tpu.memref_squeeze %347 : memref<1x!tpu.dma_semaphore, #tpu.memory_space<semaphore_mem>> -> memref<!tpu.dma_semaphore, #tpu.memory_space<semaphore_mem>>
    tpu.wait_dma2 semaphore(%348 : memref<!tpu.dma_semaphore, #tpu.memory_space<semaphore_mem>>) src(%344 : memref<8192x1024xbf16, #tpu.memory_space<hbm>>) dst(%346 : memref<8192x1024xbf16, #tpu.memory_space<vmem>>)
    %c0_i32_405 = arith.constant 0 : i32
    %c0_i32_406 = arith.constant 0 : i32
    %c0_i32_407 = arith.constant 0 : i32
    %c0_i32_408 = arith.constant 0 : i32
    %349 = tpu.memref_slice %0[%c0_i32_407, %c0_i32_408] : memref<8192x2048xbf16, #tpu.memory_space<hbm>> -> memref<8192x1024xbf16, #tpu.memory_space<hbm>>
    %c0_i32_409 = arith.constant 0 : i32
    %c0_i32_410 = arith.constant 0 : i32
    %350 = tpu.memref_slice %2[%c0_i32_405, %c0_i32_409, %c0_i32_410] : memref<2x8192x1024xbf16, #tpu.memory_space<vmem>> -> memref<1x8192x1024xbf16, #tpu.memory_space<vmem>>
    %351 = tpu.memref_squeeze %350 : memref<1x8192x1024xbf16, #tpu.memory_space<vmem>> -> memref<8192x1024xbf16, #tpu.memory_space<vmem>>
    %352 = tpu.memref_slice %3[%c0_i32_406] : memref<2x!tpu.dma_semaphore, #tpu.memory_space<semaphore_mem>> -> memref<1x!tpu.dma_semaphore, #tpu.memory_space<semaphore_mem>>
    %353 = tpu.memref_squeeze %352 : memref<1x!tpu.dma_semaphore, #tpu.memory_space<semaphore_mem>> -> memref<!tpu.dma_semaphore, #tpu.memory_space<semaphore_mem>>
    tpu.enqueue_dma source(%349 : memref<8192x1024xbf16, #tpu.memory_space<hbm>>) target(%351 : memref<8192x1024xbf16, #tpu.memory_space<vmem>>) target_semaphore(%353 : memref<!tpu.dma_semaphore, #tpu.memory_space<semaphore_mem>>)
    %cst_411 = arith.constant 1.000000e+00 : f32
    %354 = arith.addf %343, %cst_411 : f32
    %c1_i32_412 = arith.constant 1 : i32
    %c1_i32_413 = arith.constant 1 : i32
    %c0_i32_414 = arith.constant 0 : i32
    %c1024_i32_415 = arith.constant 1024 : i32
    %355 = tpu.memref_slice %0[%c0_i32_414, %c1024_i32_415] : memref<8192x2048xbf16, #tpu.memory_space<hbm>> -> memref<8192x1024xbf16, #tpu.memory_space<hbm>>
    %c0_i32_416 = arith.constant 0 : i32
    %c0_i32_417 = arith.constant 0 : i32
    %356 = tpu.memref_slice %2[%c1_i32_412, %c0_i32_416, %c0_i32_417] : memref<2x8192x1024xbf16, #tpu.memory_space<vmem>> -> memref<1x8192x1024xbf16, #tpu.memory_space<vmem>>
    %357 = tpu.memref_squeeze %356 : memref<1x8192x1024xbf16, #tpu.memory_space<vmem>> -> memref<8192x1024xbf16, #tpu.memory_space<vmem>>
    %358 = tpu.memref_slice %3[%c1_i32_413] : memref<2x!tpu.dma_semaphore, #tpu.memory_space<semaphore_mem>> -> memref<1x!tpu.dma_semaphore, #tpu.memory_space<semaphore_mem>>
    %359 = tpu.memref_squeeze %358 : memref<1x!tpu.dma_semaphore, #tpu.memory_space<semaphore_mem>> -> memref<!tpu.dma_semaphore, #tpu.memory_space<semaphore_mem>>
    tpu.wait_dma2 semaphore(%359 : memref<!tpu.dma_semaphore, #tpu.memory_space<semaphore_mem>>) src(%355 : memref<8192x1024xbf16, #tpu.memory_space<hbm>>) dst(%357 : memref<8192x1024xbf16, #tpu.memory_space<vmem>>)
    %c1_i32_418 = arith.constant 1 : i32
    %c1_i32_419 = arith.constant 1 : i32
    %c0_i32_420 = arith.constant 0 : i32
    %c1024_i32_421 = arith.constant 1024 : i32
    %360 = tpu.memref_slice %0[%c0_i32_420, %c1024_i32_421] : memref<8192x2048xbf16, #tpu.memory_space<hbm>> -> memref<8192x1024xbf16, #tpu.memory_space<hbm>>
    %c0_i32_422 = arith.constant 0 : i32
    %c0_i32_423 = arith.constant 0 : i32
    %361 = tpu.memref_slice %2[%c1_i32_418, %c0_i32_422, %c0_i32_423] : memref<2x8192x1024xbf16, #tpu.memory_space<vmem>> -> memref<1x8192x1024xbf16, #tpu.memory_space<vmem>>
    %362 = tpu.memref_squeeze %361 : memref<1x8192x1024xbf16, #tpu.memory_space<vmem>> -> memref<8192x1024xbf16, #tpu.memory_space<vmem>>
    %363 = tpu.memref_slice %3[%c1_i32_419] : memref<2x!tpu.dma_semaphore, #tpu.memory_space<semaphore_mem>> -> memref<1x!tpu.dma_semaphore, #tpu.memory_space<semaphore_mem>>
    %364 = tpu.memref_squeeze %363 : memref<1x!tpu.dma_semaphore, #tpu.memory_space<semaphore_mem>> -> memref<!tpu.dma_semaphore, #tpu.memory_space<semaphore_mem>>
    tpu.enqueue_dma source(%360 : memref<8192x1024xbf16, #tpu.memory_space<hbm>>) target(%362 : memref<8192x1024xbf16, #tpu.memory_space<vmem>>) target_semaphore(%364 : memref<!tpu.dma_semaphore, #tpu.memory_space<semaphore_mem>>)
    %cst_424 = arith.constant 1.000000e+00 : f32
    %365 = arith.addf %354, %cst_424 : f32
    %c0_i32_425 = arith.constant 0 : i32
    %c0_i32_426 = arith.constant 0 : i32
    %c0_i32_427 = arith.constant 0 : i32
    %c0_i32_428 = arith.constant 0 : i32
    %366 = tpu.memref_slice %0[%c0_i32_427, %c0_i32_428] : memref<8192x2048xbf16, #tpu.memory_space<hbm>> -> memref<8192x1024xbf16, #tpu.memory_space<hbm>>
    %c0_i32_429 = arith.constant 0 : i32
    %c0_i32_430 = arith.constant 0 : i32
    %367 = tpu.memref_slice %2[%c0_i32_425, %c0_i32_429, %c0_i32_430] : memref<2x8192x1024xbf16, #tpu.memory_space<vmem>> -> memref<1x8192x1024xbf16, #tpu.memory_space<vmem>>
    %368 = tpu.memref_squeeze %367 : memref<1x8192x1024xbf16, #tpu.memory_space<vmem>> -> memref<8192x1024xbf16, #tpu.memory_space<vmem>>
    %369 = tpu.memref_slice %3[%c0_i32_426] : memref<2x!tpu.dma_semaphore, #tpu.memory_space<semaphore_mem>> -> memref<1x!tpu.dma_semaphore, #tpu.memory_space<semaphore_mem>>
    %370 = tpu.memref_squeeze %369 : memref<1x!tpu.dma_semaphore, #tpu.memory_space<semaphore_mem>> -> memref<!tpu.dma_semaphore, #tpu.memory_space<semaphore_mem>>
    tpu.wait_dma2 semaphore(%370 : memref<!tpu.dma_semaphore, #tpu.memory_space<semaphore_mem>>) src(%366 : memref<8192x1024xbf16, #tpu.memory_space<hbm>>) dst(%368 : memref<8192x1024xbf16, #tpu.memory_space<vmem>>)
    %c0_i32_431 = arith.constant 0 : i32
    %c0_i32_432 = arith.constant 0 : i32
    %c0_i32_433 = arith.constant 0 : i32
    %c0_i32_434 = arith.constant 0 : i32
    %371 = tpu.memref_slice %0[%c0_i32_433, %c0_i32_434] : memref<8192x2048xbf16, #tpu.memory_space<hbm>> -> memref<8192x1024xbf16, #tpu.memory_space<hbm>>
    %c0_i32_435 = arith.constant 0 : i32
    %c0_i32_436 = arith.constant 0 : i32
    %372 = tpu.memref_slice %2[%c0_i32_431, %c0_i32_435, %c0_i32_436] : memref<2x8192x1024xbf16, #tpu.memory_space<vmem>> -> memref<1x8192x1024xbf16, #tpu.memory_space<vmem>>
    %373 = tpu.memref_squeeze %372 : memref<1x8192x1024xbf16, #tpu.memory_space<vmem>> -> memref<8192x1024xbf16, #tpu.memory_space<vmem>>
    %374 = tpu.memref_slice %3[%c0_i32_432] : memref<2x!tpu.dma_semaphore, #tpu.memory_space<semaphore_mem>> -> memref<1x!tpu.dma_semaphore, #tpu.memory_space<semaphore_mem>>
    %375 = tpu.memref_squeeze %374 : memref<1x!tpu.dma_semaphore, #tpu.memory_space<semaphore_mem>> -> memref<!tpu.dma_semaphore, #tpu.memory_space<semaphore_mem>>
    tpu.enqueue_dma source(%371 : memref<8192x1024xbf16, #tpu.memory_space<hbm>>) target(%373 : memref<8192x1024xbf16, #tpu.memory_space<vmem>>) target_semaphore(%375 : memref<!tpu.dma_semaphore, #tpu.memory_space<semaphore_mem>>)
    %cst_437 = arith.constant 1.000000e+00 : f32
    %376 = arith.addf %365, %cst_437 : f32
    %c1_i32_438 = arith.constant 1 : i32
    %c1_i32_439 = arith.constant 1 : i32
    %c0_i32_440 = arith.constant 0 : i32
    %c1024_i32_441 = arith.constant 1024 : i32
    %377 = tpu.memref_slice %0[%c0_i32_440, %c1024_i32_441] : memref<8192x2048xbf16, #tpu.memory_space<hbm>> -> memref<8192x1024xbf16, #tpu.memory_space<hbm>>
    %c0_i32_442 = arith.constant 0 : i32
    %c0_i32_443 = arith.constant 0 : i32
    %378 = tpu.memref_slice %2[%c1_i32_438, %c0_i32_442, %c0_i32_443] : memref<2x8192x1024xbf16, #tpu.memory_space<vmem>> -> memref<1x8192x1024xbf16, #tpu.memory_space<vmem>>
    %379 = tpu.memref_squeeze %378 : memref<1x8192x1024xbf16, #tpu.memory_space<vmem>> -> memref<8192x1024xbf16, #tpu.memory_space<vmem>>
    %380 = tpu.memref_slice %3[%c1_i32_439] : memref<2x!tpu.dma_semaphore, #tpu.memory_space<semaphore_mem>> -> memref<1x!tpu.dma_semaphore, #tpu.memory_space<semaphore_mem>>
    %381 = tpu.memref_squeeze %380 : memref<1x!tpu.dma_semaphore, #tpu.memory_space<semaphore_mem>> -> memref<!tpu.dma_semaphore, #tpu.memory_space<semaphore_mem>>
    tpu.wait_dma2 semaphore(%381 : memref<!tpu.dma_semaphore, #tpu.memory_space<semaphore_mem>>) src(%377 : memref<8192x1024xbf16, #tpu.memory_space<hbm>>) dst(%379 : memref<8192x1024xbf16, #tpu.memory_space<vmem>>)
    %c1_i32_444 = arith.constant 1 : i32
    %c1_i32_445 = arith.constant 1 : i32
    %c0_i32_446 = arith.constant 0 : i32
    %c1024_i32_447 = arith.constant 1024 : i32
    %382 = tpu.memref_slice %0[%c0_i32_446, %c1024_i32_447] : memref<8192x2048xbf16, #tpu.memory_space<hbm>> -> memref<8192x1024xbf16, #tpu.memory_space<hbm>>
    %c0_i32_448 = arith.constant 0 : i32
    %c0_i32_449 = arith.constant 0 : i32
    %383 = tpu.memref_slice %2[%c1_i32_444, %c0_i32_448, %c0_i32_449] : memref<2x8192x1024xbf16, #tpu.memory_space<vmem>> -> memref<1x8192x1024xbf16, #tpu.memory_space<vmem>>
    %384 = tpu.memref_squeeze %383 : memref<1x8192x1024xbf16, #tpu.memory_space<vmem>> -> memref<8192x1024xbf16, #tpu.memory_space<vmem>>
    %385 = tpu.memref_slice %3[%c1_i32_445] : memref<2x!tpu.dma_semaphore, #tpu.memory_space<semaphore_mem>> -> memref<1x!tpu.dma_semaphore, #tpu.memory_space<semaphore_mem>>
    %386 = tpu.memref_squeeze %385 : memref<1x!tpu.dma_semaphore, #tpu.memory_space<semaphore_mem>> -> memref<!tpu.dma_semaphore, #tpu.memory_space<semaphore_mem>>
    tpu.enqueue_dma source(%382 : memref<8192x1024xbf16, #tpu.memory_space<hbm>>) target(%384 : memref<8192x1024xbf16, #tpu.memory_space<vmem>>) target_semaphore(%386 : memref<!tpu.dma_semaphore, #tpu.memory_space<semaphore_mem>>)
    %cst_450 = arith.constant 1.000000e+00 : f32
    %387 = arith.addf %376, %cst_450 : f32
    %c0_i32_451 = arith.constant 0 : i32
    %c0_i32_452 = arith.constant 0 : i32
    %c0_i32_453 = arith.constant 0 : i32
    %c0_i32_454 = arith.constant 0 : i32
    %388 = tpu.memref_slice %0[%c0_i32_453, %c0_i32_454] : memref<8192x2048xbf16, #tpu.memory_space<hbm>> -> memref<8192x1024xbf16, #tpu.memory_space<hbm>>
    %c0_i32_455 = arith.constant 0 : i32
    %c0_i32_456 = arith.constant 0 : i32
    %389 = tpu.memref_slice %2[%c0_i32_451, %c0_i32_455, %c0_i32_456] : memref<2x8192x1024xbf16, #tpu.memory_space<vmem>> -> memref<1x8192x1024xbf16, #tpu.memory_space<vmem>>
    %390 = tpu.memref_squeeze %389 : memref<1x8192x1024xbf16, #tpu.memory_space<vmem>> -> memref<8192x1024xbf16, #tpu.memory_space<vmem>>
    %391 = tpu.memref_slice %3[%c0_i32_452] : memref<2x!tpu.dma_semaphore, #tpu.memory_space<semaphore_mem>> -> memref<1x!tpu.dma_semaphore, #tpu.memory_space<semaphore_mem>>
    %392 = tpu.memref_squeeze %391 : memref<1x!tpu.dma_semaphore, #tpu.memory_space<semaphore_mem>> -> memref<!tpu.dma_semaphore, #tpu.memory_space<semaphore_mem>>
    tpu.wait_dma2 semaphore(%392 : memref<!tpu.dma_semaphore, #tpu.memory_space<semaphore_mem>>) src(%388 : memref<8192x1024xbf16, #tpu.memory_space<hbm>>) dst(%390 : memref<8192x1024xbf16, #tpu.memory_space<vmem>>)
    %c0_i32_457 = arith.constant 0 : i32
    %c0_i32_458 = arith.constant 0 : i32
    %c0_i32_459 = arith.constant 0 : i32
    %c0_i32_460 = arith.constant 0 : i32
    %393 = tpu.memref_slice %0[%c0_i32_459, %c0_i32_460] : memref<8192x2048xbf16, #tpu.memory_space<hbm>> -> memref<8192x1024xbf16, #tpu.memory_space<hbm>>
    %c0_i32_461 = arith.constant 0 : i32
    %c0_i32_462 = arith.constant 0 : i32
    %394 = tpu.memref_slice %2[%c0_i32_457, %c0_i32_461, %c0_i32_462] : memref<2x8192x1024xbf16, #tpu.memory_space<vmem>> -> memref<1x8192x1024xbf16, #tpu.memory_space<vmem>>
    %395 = tpu.memref_squeeze %394 : memref<1x8192x1024xbf16, #tpu.memory_space<vmem>> -> memref<8192x1024xbf16, #tpu.memory_space<vmem>>
    %396 = tpu.memref_slice %3[%c0_i32_458] : memref<2x!tpu.dma_semaphore, #tpu.memory_space<semaphore_mem>> -> memref<1x!tpu.dma_semaphore, #tpu.memory_space<semaphore_mem>>
    %397 = tpu.memref_squeeze %396 : memref<1x!tpu.dma_semaphore, #tpu.memory_space<semaphore_mem>> -> memref<!tpu.dma_semaphore, #tpu.memory_space<semaphore_mem>>
    tpu.enqueue_dma source(%393 : memref<8192x1024xbf16, #tpu.memory_space<hbm>>) target(%395 : memref<8192x1024xbf16, #tpu.memory_space<vmem>>) target_semaphore(%397 : memref<!tpu.dma_semaphore, #tpu.memory_space<semaphore_mem>>)
    %cst_463 = arith.constant 1.000000e+00 : f32
    %398 = arith.addf %387, %cst_463 : f32
    %c1_i32_464 = arith.constant 1 : i32
    %c1_i32_465 = arith.constant 1 : i32
    %c0_i32_466 = arith.constant 0 : i32
    %c1024_i32_467 = arith.constant 1024 : i32
    %399 = tpu.memref_slice %0[%c0_i32_466, %c1024_i32_467] : memref<8192x2048xbf16, #tpu.memory_space<hbm>> -> memref<8192x1024xbf16, #tpu.memory_space<hbm>>
    %c0_i32_468 = arith.constant 0 : i32
    %c0_i32_469 = arith.constant 0 : i32
    %400 = tpu.memref_slice %2[%c1_i32_464, %c0_i32_468, %c0_i32_469] : memref<2x8192x1024xbf16, #tpu.memory_space<vmem>> -> memref<1x8192x1024xbf16, #tpu.memory_space<vmem>>
    %401 = tpu.memref_squeeze %400 : memref<1x8192x1024xbf16, #tpu.memory_space<vmem>> -> memref<8192x1024xbf16, #tpu.memory_space<vmem>>
    %402 = tpu.memref_slice %3[%c1_i32_465] : memref<2x!tpu.dma_semaphore, #tpu.memory_space<semaphore_mem>> -> memref<1x!tpu.dma_semaphore, #tpu.memory_space<semaphore_mem>>
    %403 = tpu.memref_squeeze %402 : memref<1x!tpu.dma_semaphore, #tpu.memory_space<semaphore_mem>> -> memref<!tpu.dma_semaphore, #tpu.memory_space<semaphore_mem>>
    tpu.wait_dma2 semaphore(%403 : memref<!tpu.dma_semaphore, #tpu.memory_space<semaphore_mem>>) src(%399 : memref<8192x1024xbf16, #tpu.memory_space<hbm>>) dst(%401 : memref<8192x1024xbf16, #tpu.memory_space<vmem>>)
    %c1_i32_470 = arith.constant 1 : i32
    %c1_i32_471 = arith.constant 1 : i32
    %c0_i32_472 = arith.constant 0 : i32
    %c1024_i32_473 = arith.constant 1024 : i32
    %404 = tpu.memref_slice %0[%c0_i32_472, %c1024_i32_473] : memref<8192x2048xbf16, #tpu.memory_space<hbm>> -> memref<8192x1024xbf16, #tpu.memory_space<hbm>>
    %c0_i32_474 = arith.constant 0 : i32
    %c0_i32_475 = arith.constant 0 : i32
    %405 = tpu.memref_slice %2[%c1_i32_470, %c0_i32_474, %c0_i32_475] : memref<2x8192x1024xbf16, #tpu.memory_space<vmem>> -> memref<1x8192x1024xbf16, #tpu.memory_space<vmem>>
    %406 = tpu.memref_squeeze %405 : memref<1x8192x1024xbf16, #tpu.memory_space<vmem>> -> memref<8192x1024xbf16, #tpu.memory_space<vmem>>
    %407 = tpu.memref_slice %3[%c1_i32_471] : memref<2x!tpu.dma_semaphore, #tpu.memory_space<semaphore_mem>> -> memref<1x!tpu.dma_semaphore, #tpu.memory_space<semaphore_mem>>
    %408 = tpu.memref_squeeze %407 : memref<1x!tpu.dma_semaphore, #tpu.memory_space<semaphore_mem>> -> memref<!tpu.dma_semaphore, #tpu.memory_space<semaphore_mem>>
    tpu.enqueue_dma source(%404 : memref<8192x1024xbf16, #tpu.memory_space<hbm>>) target(%406 : memref<8192x1024xbf16, #tpu.memory_space<vmem>>) target_semaphore(%408 : memref<!tpu.dma_semaphore, #tpu.memory_space<semaphore_mem>>)
    %cst_476 = arith.constant 1.000000e+00 : f32
    %409 = arith.addf %398, %cst_476 : f32
    %c0_i32_477 = arith.constant 0 : i32
    %c0_i32_478 = arith.constant 0 : i32
    %c0_i32_479 = arith.constant 0 : i32
    %c0_i32_480 = arith.constant 0 : i32
    %410 = tpu.memref_slice %0[%c0_i32_479, %c0_i32_480] : memref<8192x2048xbf16, #tpu.memory_space<hbm>> -> memref<8192x1024xbf16, #tpu.memory_space<hbm>>
    %c0_i32_481 = arith.constant 0 : i32
    %c0_i32_482 = arith.constant 0 : i32
    %411 = tpu.memref_slice %2[%c0_i32_477, %c0_i32_481, %c0_i32_482] : memref<2x8192x1024xbf16, #tpu.memory_space<vmem>> -> memref<1x8192x1024xbf16, #tpu.memory_space<vmem>>
    %412 = tpu.memref_squeeze %411 : memref<1x8192x1024xbf16, #tpu.memory_space<vmem>> -> memref<8192x1024xbf16, #tpu.memory_space<vmem>>
    %413 = tpu.memref_slice %3[%c0_i32_478] : memref<2x!tpu.dma_semaphore, #tpu.memory_space<semaphore_mem>> -> memref<1x!tpu.dma_semaphore, #tpu.memory_space<semaphore_mem>>
    %414 = tpu.memref_squeeze %413 : memref<1x!tpu.dma_semaphore, #tpu.memory_space<semaphore_mem>> -> memref<!tpu.dma_semaphore, #tpu.memory_space<semaphore_mem>>
    tpu.wait_dma2 semaphore(%414 : memref<!tpu.dma_semaphore, #tpu.memory_space<semaphore_mem>>) src(%410 : memref<8192x1024xbf16, #tpu.memory_space<hbm>>) dst(%412 : memref<8192x1024xbf16, #tpu.memory_space<vmem>>)
    %c0_i32_483 = arith.constant 0 : i32
    %c0_i32_484 = arith.constant 0 : i32
    %c0_i32_485 = arith.constant 0 : i32
    %c0_i32_486 = arith.constant 0 : i32
    %415 = tpu.memref_slice %0[%c0_i32_485, %c0_i32_486] : memref<8192x2048xbf16, #tpu.memory_space<hbm>> -> memref<8192x1024xbf16, #tpu.memory_space<hbm>>
    %c0_i32_487 = arith.constant 0 : i32
    %c0_i32_488 = arith.constant 0 : i32
    %416 = tpu.memref_slice %2[%c0_i32_483, %c0_i32_487, %c0_i32_488] : memref<2x8192x1024xbf16, #tpu.memory_space<vmem>> -> memref<1x8192x1024xbf16, #tpu.memory_space<vmem>>
    %417 = tpu.memref_squeeze %416 : memref<1x8192x1024xbf16, #tpu.memory_space<vmem>> -> memref<8192x1024xbf16, #tpu.memory_space<vmem>>
    %418 = tpu.memref_slice %3[%c0_i32_484] : memref<2x!tpu.dma_semaphore, #tpu.memory_space<semaphore_mem>> -> memref<1x!tpu.dma_semaphore, #tpu.memory_space<semaphore_mem>>
    %419 = tpu.memref_squeeze %418 : memref<1x!tpu.dma_semaphore, #tpu.memory_space<semaphore_mem>> -> memref<!tpu.dma_semaphore, #tpu.memory_space<semaphore_mem>>
    tpu.enqueue_dma source(%415 : memref<8192x1024xbf16, #tpu.memory_space<hbm>>) target(%417 : memref<8192x1024xbf16, #tpu.memory_space<vmem>>) target_semaphore(%419 : memref<!tpu.dma_semaphore, #tpu.memory_space<semaphore_mem>>)
    %cst_489 = arith.constant 1.000000e+00 : f32
    %420 = arith.addf %409, %cst_489 : f32
    %c1_i32_490 = arith.constant 1 : i32
    %c1_i32_491 = arith.constant 1 : i32
    %c0_i32_492 = arith.constant 0 : i32
    %c1024_i32_493 = arith.constant 1024 : i32
    %421 = tpu.memref_slice %0[%c0_i32_492, %c1024_i32_493] : memref<8192x2048xbf16, #tpu.memory_space<hbm>> -> memref<8192x1024xbf16, #tpu.memory_space<hbm>>
    %c0_i32_494 = arith.constant 0 : i32
    %c0_i32_495 = arith.constant 0 : i32
    %422 = tpu.memref_slice %2[%c1_i32_490, %c0_i32_494, %c0_i32_495] : memref<2x8192x1024xbf16, #tpu.memory_space<vmem>> -> memref<1x8192x1024xbf16, #tpu.memory_space<vmem>>
    %423 = tpu.memref_squeeze %422 : memref<1x8192x1024xbf16, #tpu.memory_space<vmem>> -> memref<8192x1024xbf16, #tpu.memory_space<vmem>>
    %424 = tpu.memref_slice %3[%c1_i32_491] : memref<2x!tpu.dma_semaphore, #tpu.memory_space<semaphore_mem>> -> memref<1x!tpu.dma_semaphore, #tpu.memory_space<semaphore_mem>>
    %425 = tpu.memref_squeeze %424 : memref<1x!tpu.dma_semaphore, #tpu.memory_space<semaphore_mem>> -> memref<!tpu.dma_semaphore, #tpu.memory_space<semaphore_mem>>
    tpu.wait_dma2 semaphore(%425 : memref<!tpu.dma_semaphore, #tpu.memory_space<semaphore_mem>>) src(%421 : memref<8192x1024xbf16, #tpu.memory_space<hbm>>) dst(%423 : memref<8192x1024xbf16, #tpu.memory_space<vmem>>)
    %c1_i32_496 = arith.constant 1 : i32
    %c1_i32_497 = arith.constant 1 : i32
    %c0_i32_498 = arith.constant 0 : i32
    %c1024_i32_499 = arith.constant 1024 : i32
    %426 = tpu.memref_slice %0[%c0_i32_498, %c1024_i32_499] : memref<8192x2048xbf16, #tpu.memory_space<hbm>> -> memref<8192x1024xbf16, #tpu.memory_space<hbm>>
    %c0_i32_500 = arith.constant 0 : i32
    %c0_i32_501 = arith.constant 0 : i32
    %427 = tpu.memref_slice %2[%c1_i32_496, %c0_i32_500, %c0_i32_501] : memref<2x8192x1024xbf16, #tpu.memory_space<vmem>> -> memref<1x8192x1024xbf16, #tpu.memory_space<vmem>>
    %428 = tpu.memref_squeeze %427 : memref<1x8192x1024xbf16, #tpu.memory_space<vmem>> -> memref<8192x1024xbf16, #tpu.memory_space<vmem>>
    %429 = tpu.memref_slice %3[%c1_i32_497] : memref<2x!tpu.dma_semaphore, #tpu.memory_space<semaphore_mem>> -> memref<1x!tpu.dma_semaphore, #tpu.memory_space<semaphore_mem>>
    %430 = tpu.memref_squeeze %429 : memref<1x!tpu.dma_semaphore, #tpu.memory_space<semaphore_mem>> -> memref<!tpu.dma_semaphore, #tpu.memory_space<semaphore_mem>>
    tpu.enqueue_dma source(%426 : memref<8192x1024xbf16, #tpu.memory_space<hbm>>) target(%428 : memref<8192x1024xbf16, #tpu.memory_space<vmem>>) target_semaphore(%430 : memref<!tpu.dma_semaphore, #tpu.memory_space<semaphore_mem>>)
    %cst_502 = arith.constant 1.000000e+00 : f32
    %431 = arith.addf %420, %cst_502 : f32
    %c0_i32_503 = arith.constant 0 : i32
    %c0_i32_504 = arith.constant 0 : i32
    %c0_i32_505 = arith.constant 0 : i32
    %c0_i32_506 = arith.constant 0 : i32
    %432 = tpu.memref_slice %0[%c0_i32_505, %c0_i32_506] : memref<8192x2048xbf16, #tpu.memory_space<hbm>> -> memref<8192x1024xbf16, #tpu.memory_space<hbm>>
    %c0_i32_507 = arith.constant 0 : i32
    %c0_i32_508 = arith.constant 0 : i32
    %433 = tpu.memref_slice %2[%c0_i32_503, %c0_i32_507, %c0_i32_508] : memref<2x8192x1024xbf16, #tpu.memory_space<vmem>> -> memref<1x8192x1024xbf16, #tpu.memory_space<vmem>>
    %434 = tpu.memref_squeeze %433 : memref<1x8192x1024xbf16, #tpu.memory_space<vmem>> -> memref<8192x1024xbf16, #tpu.memory_space<vmem>>
    %435 = tpu.memref_slice %3[%c0_i32_504] : memref<2x!tpu.dma_semaphore, #tpu.memory_space<semaphore_mem>> -> memref<1x!tpu.dma_semaphore, #tpu.memory_space<semaphore_mem>>
    %436 = tpu.memref_squeeze %435 : memref<1x!tpu.dma_semaphore, #tpu.memory_space<semaphore_mem>> -> memref<!tpu.dma_semaphore, #tpu.memory_space<semaphore_mem>>
    tpu.wait_dma2 semaphore(%436 : memref<!tpu.dma_semaphore, #tpu.memory_space<semaphore_mem>>) src(%432 : memref<8192x1024xbf16, #tpu.memory_space<hbm>>) dst(%434 : memref<8192x1024xbf16, #tpu.memory_space<vmem>>)
    %c0_i32_509 = arith.constant 0 : i32
    %c0_i32_510 = arith.constant 0 : i32
    %c0_i32_511 = arith.constant 0 : i32
    %c0_i32_512 = arith.constant 0 : i32
    %437 = tpu.memref_slice %0[%c0_i32_511, %c0_i32_512] : memref<8192x2048xbf16, #tpu.memory_space<hbm>> -> memref<8192x1024xbf16, #tpu.memory_space<hbm>>
    %c0_i32_513 = arith.constant 0 : i32
    %c0_i32_514 = arith.constant 0 : i32
    %438 = tpu.memref_slice %2[%c0_i32_509, %c0_i32_513, %c0_i32_514] : memref<2x8192x1024xbf16, #tpu.memory_space<vmem>> -> memref<1x8192x1024xbf16, #tpu.memory_space<vmem>>
    %439 = tpu.memref_squeeze %438 : memref<1x8192x1024xbf16, #tpu.memory_space<vmem>> -> memref<8192x1024xbf16, #tpu.memory_space<vmem>>
    %440 = tpu.memref_slice %3[%c0_i32_510] : memref<2x!tpu.dma_semaphore, #tpu.memory_space<semaphore_mem>> -> memref<1x!tpu.dma_semaphore, #tpu.memory_space<semaphore_mem>>
    %441 = tpu.memref_squeeze %440 : memref<1x!tpu.dma_semaphore, #tpu.memory_space<semaphore_mem>> -> memref<!tpu.dma_semaphore, #tpu.memory_space<semaphore_mem>>
    tpu.enqueue_dma source(%437 : memref<8192x1024xbf16, #tpu.memory_space<hbm>>) target(%439 : memref<8192x1024xbf16, #tpu.memory_space<vmem>>) target_semaphore(%441 : memref<!tpu.dma_semaphore, #tpu.memory_space<semaphore_mem>>)
    %cst_515 = arith.constant 1.000000e+00 : f32
    %442 = arith.addf %431, %cst_515 : f32
    %c1_i32_516 = arith.constant 1 : i32
    %c1_i32_517 = arith.constant 1 : i32
    %c0_i32_518 = arith.constant 0 : i32
    %c1024_i32_519 = arith.constant 1024 : i32
    %443 = tpu.memref_slice %0[%c0_i32_518, %c1024_i32_519] : memref<8192x2048xbf16, #tpu.memory_space<hbm>> -> memref<8192x1024xbf16, #tpu.memory_space<hbm>>
    %c0_i32_520 = arith.constant 0 : i32
    %c0_i32_521 = arith.constant 0 : i32
    %444 = tpu.memref_slice %2[%c1_i32_516, %c0_i32_520, %c0_i32_521] : memref<2x8192x1024xbf16, #tpu.memory_space<vmem>> -> memref<1x8192x1024xbf16, #tpu.memory_space<vmem>>
    %445 = tpu.memref_squeeze %444 : memref<1x8192x1024xbf16, #tpu.memory_space<vmem>> -> memref<8192x1024xbf16, #tpu.memory_space<vmem>>
    %446 = tpu.memref_slice %3[%c1_i32_517] : memref<2x!tpu.dma_semaphore, #tpu.memory_space<semaphore_mem>> -> memref<1x!tpu.dma_semaphore, #tpu.memory_space<semaphore_mem>>
    %447 = tpu.memref_squeeze %446 : memref<1x!tpu.dma_semaphore, #tpu.memory_space<semaphore_mem>> -> memref<!tpu.dma_semaphore, #tpu.memory_space<semaphore_mem>>
    tpu.wait_dma2 semaphore(%447 : memref<!tpu.dma_semaphore, #tpu.memory_space<semaphore_mem>>) src(%443 : memref<8192x1024xbf16, #tpu.memory_space<hbm>>) dst(%445 : memref<8192x1024xbf16, #tpu.memory_space<vmem>>)
    %c1_i32_522 = arith.constant 1 : i32
    %c1_i32_523 = arith.constant 1 : i32
    %c0_i32_524 = arith.constant 0 : i32
    %c1024_i32_525 = arith.constant 1024 : i32
    %448 = tpu.memref_slice %0[%c0_i32_524, %c1024_i32_525] : memref<8192x2048xbf16, #tpu.memory_space<hbm>> -> memref<8192x1024xbf16, #tpu.memory_space<hbm>>
    %c0_i32_526 = arith.constant 0 : i32
    %c0_i32_527 = arith.constant 0 : i32
    %449 = tpu.memref_slice %2[%c1_i32_522, %c0_i32_526, %c0_i32_527] : memref<2x8192x1024xbf16, #tpu.memory_space<vmem>> -> memref<1x8192x1024xbf16, #tpu.memory_space<vmem>>
    %450 = tpu.memref_squeeze %449 : memref<1x8192x1024xbf16, #tpu.memory_space<vmem>> -> memref<8192x1024xbf16, #tpu.memory_space<vmem>>
    %451 = tpu.memref_slice %3[%c1_i32_523] : memref<2x!tpu.dma_semaphore, #tpu.memory_space<semaphore_mem>> -> memref<1x!tpu.dma_semaphore, #tpu.memory_space<semaphore_mem>>
    %452 = tpu.memref_squeeze %451 : memref<1x!tpu.dma_semaphore, #tpu.memory_space<semaphore_mem>> -> memref<!tpu.dma_semaphore, #tpu.memory_space<semaphore_mem>>
    tpu.enqueue_dma source(%448 : memref<8192x1024xbf16, #tpu.memory_space<hbm>>) target(%450 : memref<8192x1024xbf16, #tpu.memory_space<vmem>>) target_semaphore(%452 : memref<!tpu.dma_semaphore, #tpu.memory_space<semaphore_mem>>)
    %cst_528 = arith.constant 1.000000e+00 : f32
    %453 = arith.addf %442, %cst_528 : f32
    %c0_i32_529 = arith.constant 0 : i32
    %c0_i32_530 = arith.constant 0 : i32
    %c0_i32_531 = arith.constant 0 : i32
    %c0_i32_532 = arith.constant 0 : i32
    %454 = tpu.memref_slice %0[%c0_i32_531, %c0_i32_532] : memref<8192x2048xbf16, #tpu.memory_space<hbm>> -> memref<8192x1024xbf16, #tpu.memory_space<hbm>>
    %c0_i32_533 = arith.constant 0 : i32
    %c0_i32_534 = arith.constant 0 : i32
    %455 = tpu.memref_slice %2[%c0_i32_529, %c0_i32_533, %c0_i32_534] : memref<2x8192x1024xbf16, #tpu.memory_space<vmem>> -> memref<1x8192x1024xbf16, #tpu.memory_space<vmem>>
    %456 = tpu.memref_squeeze %455 : memref<1x8192x1024xbf16, #tpu.memory_space<vmem>> -> memref<8192x1024xbf16, #tpu.memory_space<vmem>>
    %457 = tpu.memref_slice %3[%c0_i32_530] : memref<2x!tpu.dma_semaphore, #tpu.memory_space<semaphore_mem>> -> memref<1x!tpu.dma_semaphore, #tpu.memory_space<semaphore_mem>>
    %458 = tpu.memref_squeeze %457 : memref<1x!tpu.dma_semaphore, #tpu.memory_space<semaphore_mem>> -> memref<!tpu.dma_semaphore, #tpu.memory_space<semaphore_mem>>
    tpu.wait_dma2 semaphore(%458 : memref<!tpu.dma_semaphore, #tpu.memory_space<semaphore_mem>>) src(%454 : memref<8192x1024xbf16, #tpu.memory_space<hbm>>) dst(%456 : memref<8192x1024xbf16, #tpu.memory_space<vmem>>)
    %c0_i32_535 = arith.constant 0 : i32
    %c0_i32_536 = arith.constant 0 : i32
    %c0_i32_537 = arith.constant 0 : i32
    %c0_i32_538 = arith.constant 0 : i32
    %459 = tpu.memref_slice %0[%c0_i32_537, %c0_i32_538] : memref<8192x2048xbf16, #tpu.memory_space<hbm>> -> memref<8192x1024xbf16, #tpu.memory_space<hbm>>
    %c0_i32_539 = arith.constant 0 : i32
    %c0_i32_540 = arith.constant 0 : i32
    %460 = tpu.memref_slice %2[%c0_i32_535, %c0_i32_539, %c0_i32_540] : memref<2x8192x1024xbf16, #tpu.memory_space<vmem>> -> memref<1x8192x1024xbf16, #tpu.memory_space<vmem>>
    %461 = tpu.memref_squeeze %460 : memref<1x8192x1024xbf16, #tpu.memory_space<vmem>> -> memref<8192x1024xbf16, #tpu.memory_space<vmem>>
    %462 = tpu.memref_slice %3[%c0_i32_536] : memref<2x!tpu.dma_semaphore, #tpu.memory_space<semaphore_mem>> -> memref<1x!tpu.dma_semaphore, #tpu.memory_space<semaphore_mem>>
    %463 = tpu.memref_squeeze %462 : memref<1x!tpu.dma_semaphore, #tpu.memory_space<semaphore_mem>> -> memref<!tpu.dma_semaphore, #tpu.memory_space<semaphore_mem>>
    tpu.enqueue_dma source(%459 : memref<8192x1024xbf16, #tpu.memory_space<hbm>>) target(%461 : memref<8192x1024xbf16, #tpu.memory_space<vmem>>) target_semaphore(%463 : memref<!tpu.dma_semaphore, #tpu.memory_space<semaphore_mem>>)
    %cst_541 = arith.constant 1.000000e+00 : f32
    %464 = arith.addf %453, %cst_541 : f32
    %c1_i32_542 = arith.constant 1 : i32
    %c1_i32_543 = arith.constant 1 : i32
    %c0_i32_544 = arith.constant 0 : i32
    %c1024_i32_545 = arith.constant 1024 : i32
    %465 = tpu.memref_slice %0[%c0_i32_544, %c1024_i32_545] : memref<8192x2048xbf16, #tpu.memory_space<hbm>> -> memref<8192x1024xbf16, #tpu.memory_space<hbm>>
    %c0_i32_546 = arith.constant 0 : i32
    %c0_i32_547 = arith.constant 0 : i32
    %466 = tpu.memref_slice %2[%c1_i32_542, %c0_i32_546, %c0_i32_547] : memref<2x8192x1024xbf16, #tpu.memory_space<vmem>> -> memref<1x8192x1024xbf16, #tpu.memory_space<vmem>>
    %467 = tpu.memref_squeeze %466 : memref<1x8192x1024xbf16, #tpu.memory_space<vmem>> -> memref<8192x1024xbf16, #tpu.memory_space<vmem>>
    %468 = tpu.memref_slice %3[%c1_i32_543] : memref<2x!tpu.dma_semaphore, #tpu.memory_space<semaphore_mem>> -> memref<1x!tpu.dma_semaphore, #tpu.memory_space<semaphore_mem>>
    %469 = tpu.memref_squeeze %468 : memref<1x!tpu.dma_semaphore, #tpu.memory_space<semaphore_mem>> -> memref<!tpu.dma_semaphore, #tpu.memory_space<semaphore_mem>>
    tpu.wait_dma2 semaphore(%469 : memref<!tpu.dma_semaphore, #tpu.memory_space<semaphore_mem>>) src(%465 : memref<8192x1024xbf16, #tpu.memory_space<hbm>>) dst(%467 : memref<8192x1024xbf16, #tpu.memory_space<vmem>>)
    %c1_i32_548 = arith.constant 1 : i32
    %c1_i32_549 = arith.constant 1 : i32
    %c0_i32_550 = arith.constant 0 : i32
    %c1024_i32_551 = arith.constant 1024 : i32
    %470 = tpu.memref_slice %0[%c0_i32_550, %c1024_i32_551] : memref<8192x2048xbf16, #tpu.memory_space<hbm>> -> memref<8192x1024xbf16, #tpu.memory_space<hbm>>
    %c0_i32_552 = arith.constant 0 : i32
    %c0_i32_553 = arith.constant 0 : i32
    %471 = tpu.memref_slice %2[%c1_i32_548, %c0_i32_552, %c0_i32_553] : memref<2x8192x1024xbf16, #tpu.memory_space<vmem>> -> memref<1x8192x1024xbf16, #tpu.memory_space<vmem>>
    %472 = tpu.memref_squeeze %471 : memref<1x8192x1024xbf16, #tpu.memory_space<vmem>> -> memref<8192x1024xbf16, #tpu.memory_space<vmem>>
    %473 = tpu.memref_slice %3[%c1_i32_549] : memref<2x!tpu.dma_semaphore, #tpu.memory_space<semaphore_mem>> -> memref<1x!tpu.dma_semaphore, #tpu.memory_space<semaphore_mem>>
    %474 = tpu.memref_squeeze %473 : memref<1x!tpu.dma_semaphore, #tpu.memory_space<semaphore_mem>> -> memref<!tpu.dma_semaphore, #tpu.memory_space<semaphore_mem>>
    tpu.enqueue_dma source(%470 : memref<8192x1024xbf16, #tpu.memory_space<hbm>>) target(%472 : memref<8192x1024xbf16, #tpu.memory_space<vmem>>) target_semaphore(%474 : memref<!tpu.dma_semaphore, #tpu.memory_space<semaphore_mem>>)
    %cst_554 = arith.constant 1.000000e+00 : f32
    %475 = arith.addf %464, %cst_554 : f32
    %c0_i32_555 = arith.constant 0 : i32
    %c0_i32_556 = arith.constant 0 : i32
    %c0_i32_557 = arith.constant 0 : i32
    %c0_i32_558 = arith.constant 0 : i32
    %476 = tpu.memref_slice %0[%c0_i32_557, %c0_i32_558] : memref<8192x2048xbf16, #tpu.memory_space<hbm>> -> memref<8192x1024xbf16, #tpu.memory_space<hbm>>
    %c0_i32_559 = arith.constant 0 : i32
    %c0_i32_560 = arith.constant 0 : i32
    %477 = tpu.memref_slice %2[%c0_i32_555, %c0_i32_559, %c0_i32_560] : memref<2x8192x1024xbf16, #tpu.memory_space<vmem>> -> memref<1x8192x1024xbf16, #tpu.memory_space<vmem>>
    %478 = tpu.memref_squeeze %477 : memref<1x8192x1024xbf16, #tpu.memory_space<vmem>> -> memref<8192x1024xbf16, #tpu.memory_space<vmem>>
    %479 = tpu.memref_slice %3[%c0_i32_556] : memref<2x!tpu.dma_semaphore, #tpu.memory_space<semaphore_mem>> -> memref<1x!tpu.dma_semaphore, #tpu.memory_space<semaphore_mem>>
    %480 = tpu.memref_squeeze %479 : memref<1x!tpu.dma_semaphore, #tpu.memory_space<semaphore_mem>> -> memref<!tpu.dma_semaphore, #tpu.memory_space<semaphore_mem>>
    tpu.wait_dma2 semaphore(%480 : memref<!tpu.dma_semaphore, #tpu.memory_space<semaphore_mem>>) src(%476 : memref<8192x1024xbf16, #tpu.memory_space<hbm>>) dst(%478 : memref<8192x1024xbf16, #tpu.memory_space<vmem>>)
    %c0_i32_561 = arith.constant 0 : i32
    %c0_i32_562 = arith.constant 0 : i32
    %c0_i32_563 = arith.constant 0 : i32
    %c0_i32_564 = arith.constant 0 : i32
    %481 = tpu.memref_slice %0[%c0_i32_563, %c0_i32_564] : memref<8192x2048xbf16, #tpu.memory_space<hbm>> -> memref<8192x1024xbf16, #tpu.memory_space<hbm>>
    %c0_i32_565 = arith.constant 0 : i32
    %c0_i32_566 = arith.constant 0 : i32
    %482 = tpu.memref_slice %2[%c0_i32_561, %c0_i32_565, %c0_i32_566] : memref<2x8192x1024xbf16, #tpu.memory_space<vmem>> -> memref<1x8192x1024xbf16, #tpu.memory_space<vmem>>
    %483 = tpu.memref_squeeze %482 : memref<1x8192x1024xbf16, #tpu.memory_space<vmem>> -> memref<8192x1024xbf16, #tpu.memory_space<vmem>>
    %484 = tpu.memref_slice %3[%c0_i32_562] : memref<2x!tpu.dma_semaphore, #tpu.memory_space<semaphore_mem>> -> memref<1x!tpu.dma_semaphore, #tpu.memory_space<semaphore_mem>>
    %485 = tpu.memref_squeeze %484 : memref<1x!tpu.dma_semaphore, #tpu.memory_space<semaphore_mem>> -> memref<!tpu.dma_semaphore, #tpu.memory_space<semaphore_mem>>
    tpu.enqueue_dma source(%481 : memref<8192x1024xbf16, #tpu.memory_space<hbm>>) target(%483 : memref<8192x1024xbf16, #tpu.memory_space<vmem>>) target_semaphore(%485 : memref<!tpu.dma_semaphore, #tpu.memory_space<semaphore_mem>>)
    %cst_567 = arith.constant 1.000000e+00 : f32
    %486 = arith.addf %475, %cst_567 : f32
    %c1_i32_568 = arith.constant 1 : i32
    %c1_i32_569 = arith.constant 1 : i32
    %c0_i32_570 = arith.constant 0 : i32
    %c1024_i32_571 = arith.constant 1024 : i32
    %487 = tpu.memref_slice %0[%c0_i32_570, %c1024_i32_571] : memref<8192x2048xbf16, #tpu.memory_space<hbm>> -> memref<8192x1024xbf16, #tpu.memory_space<hbm>>
    %c0_i32_572 = arith.constant 0 : i32
    %c0_i32_573 = arith.constant 0 : i32
    %488 = tpu.memref_slice %2[%c1_i32_568, %c0_i32_572, %c0_i32_573] : memref<2x8192x1024xbf16, #tpu.memory_space<vmem>> -> memref<1x8192x1024xbf16, #tpu.memory_space<vmem>>
    %489 = tpu.memref_squeeze %488 : memref<1x8192x1024xbf16, #tpu.memory_space<vmem>> -> memref<8192x1024xbf16, #tpu.memory_space<vmem>>
    %490 = tpu.memref_slice %3[%c1_i32_569] : memref<2x!tpu.dma_semaphore, #tpu.memory_space<semaphore_mem>> -> memref<1x!tpu.dma_semaphore, #tpu.memory_space<semaphore_mem>>
    %491 = tpu.memref_squeeze %490 : memref<1x!tpu.dma_semaphore, #tpu.memory_space<semaphore_mem>> -> memref<!tpu.dma_semaphore, #tpu.memory_space<semaphore_mem>>
    tpu.wait_dma2 semaphore(%491 : memref<!tpu.dma_semaphore, #tpu.memory_space<semaphore_mem>>) src(%487 : memref<8192x1024xbf16, #tpu.memory_space<hbm>>) dst(%489 : memref<8192x1024xbf16, #tpu.memory_space<vmem>>)
    %c1_i32_574 = arith.constant 1 : i32
    %c1_i32_575 = arith.constant 1 : i32
    %c0_i32_576 = arith.constant 0 : i32
    %c1024_i32_577 = arith.constant 1024 : i32
    %492 = tpu.memref_slice %0[%c0_i32_576, %c1024_i32_577] : memref<8192x2048xbf16, #tpu.memory_space<hbm>> -> memref<8192x1024xbf16, #tpu.memory_space<hbm>>
    %c0_i32_578 = arith.constant 0 : i32
    %c0_i32_579 = arith.constant 0 : i32
    %493 = tpu.memref_slice %2[%c1_i32_574, %c0_i32_578, %c0_i32_579] : memref<2x8192x1024xbf16, #tpu.memory_space<vmem>> -> memref<1x8192x1024xbf16, #tpu.memory_space<vmem>>
    %494 = tpu.memref_squeeze %493 : memref<1x8192x1024xbf16, #tpu.memory_space<vmem>> -> memref<8192x1024xbf16, #tpu.memory_space<vmem>>
    %495 = tpu.memref_slice %3[%c1_i32_575] : memref<2x!tpu.dma_semaphore, #tpu.memory_space<semaphore_mem>> -> memref<1x!tpu.dma_semaphore, #tpu.memory_space<semaphore_mem>>
    %496 = tpu.memref_squeeze %495 : memref<1x!tpu.dma_semaphore, #tpu.memory_space<semaphore_mem>> -> memref<!tpu.dma_semaphore, #tpu.memory_space<semaphore_mem>>
    tpu.enqueue_dma source(%492 : memref<8192x1024xbf16, #tpu.memory_space<hbm>>) target(%494 : memref<8192x1024xbf16, #tpu.memory_space<vmem>>) target_semaphore(%496 : memref<!tpu.dma_semaphore, #tpu.memory_space<semaphore_mem>>)
    %cst_580 = arith.constant 1.000000e+00 : f32
    %497 = arith.addf %486, %cst_580 : f32
    %c0_i32_581 = arith.constant 0 : i32
    %c0_i32_582 = arith.constant 0 : i32
    %c0_i32_583 = arith.constant 0 : i32
    %c0_i32_584 = arith.constant 0 : i32
    %498 = tpu.memref_slice %0[%c0_i32_583, %c0_i32_584] : memref<8192x2048xbf16, #tpu.memory_space<hbm>> -> memref<8192x1024xbf16, #tpu.memory_space<hbm>>
    %c0_i32_585 = arith.constant 0 : i32
    %c0_i32_586 = arith.constant 0 : i32
    %499 = tpu.memref_slice %2[%c0_i32_581, %c0_i32_585, %c0_i32_586] : memref<2x8192x1024xbf16, #tpu.memory_space<vmem>> -> memref<1x8192x1024xbf16, #tpu.memory_space<vmem>>
    %500 = tpu.memref_squeeze %499 : memref<1x8192x1024xbf16, #tpu.memory_space<vmem>> -> memref<8192x1024xbf16, #tpu.memory_space<vmem>>
    %501 = tpu.memref_slice %3[%c0_i32_582] : memref<2x!tpu.dma_semaphore, #tpu.memory_space<semaphore_mem>> -> memref<1x!tpu.dma_semaphore, #tpu.memory_space<semaphore_mem>>
    %502 = tpu.memref_squeeze %501 : memref<1x!tpu.dma_semaphore, #tpu.memory_space<semaphore_mem>> -> memref<!tpu.dma_semaphore, #tpu.memory_space<semaphore_mem>>
    tpu.wait_dma2 semaphore(%502 : memref<!tpu.dma_semaphore, #tpu.memory_space<semaphore_mem>>) src(%498 : memref<8192x1024xbf16, #tpu.memory_space<hbm>>) dst(%500 : memref<8192x1024xbf16, #tpu.memory_space<vmem>>)
    %c0_i32_587 = arith.constant 0 : i32
    %c0_i32_588 = arith.constant 0 : i32
    %c0_i32_589 = arith.constant 0 : i32
    %c0_i32_590 = arith.constant 0 : i32
    %503 = tpu.memref_slice %0[%c0_i32_589, %c0_i32_590] : memref<8192x2048xbf16, #tpu.memory_space<hbm>> -> memref<8192x1024xbf16, #tpu.memory_space<hbm>>
    %c0_i32_591 = arith.constant 0 : i32
    %c0_i32_592 = arith.constant 0 : i32
    %504 = tpu.memref_slice %2[%c0_i32_587, %c0_i32_591, %c0_i32_592] : memref<2x8192x1024xbf16, #tpu.memory_space<vmem>> -> memref<1x8192x1024xbf16, #tpu.memory_space<vmem>>
    %505 = tpu.memref_squeeze %504 : memref<1x8192x1024xbf16, #tpu.memory_space<vmem>> -> memref<8192x1024xbf16, #tpu.memory_space<vmem>>
    %506 = tpu.memref_slice %3[%c0_i32_588] : memref<2x!tpu.dma_semaphore, #tpu.memory_space<semaphore_mem>> -> memref<1x!tpu.dma_semaphore, #tpu.memory_space<semaphore_mem>>
    %507 = tpu.memref_squeeze %506 : memref<1x!tpu.dma_semaphore, #tpu.memory_space<semaphore_mem>> -> memref<!tpu.dma_semaphore, #tpu.memory_space<semaphore_mem>>
    tpu.enqueue_dma source(%503 : memref<8192x1024xbf16, #tpu.memory_space<hbm>>) target(%505 : memref<8192x1024xbf16, #tpu.memory_space<vmem>>) target_semaphore(%507 : memref<!tpu.dma_semaphore, #tpu.memory_space<semaphore_mem>>)
    %cst_593 = arith.constant 1.000000e+00 : f32
    %508 = arith.addf %497, %cst_593 : f32
    %c1_i32_594 = arith.constant 1 : i32
    %c1_i32_595 = arith.constant 1 : i32
    %c0_i32_596 = arith.constant 0 : i32
    %c1024_i32_597 = arith.constant 1024 : i32
    %509 = tpu.memref_slice %0[%c0_i32_596, %c1024_i32_597] : memref<8192x2048xbf16, #tpu.memory_space<hbm>> -> memref<8192x1024xbf16, #tpu.memory_space<hbm>>
    %c0_i32_598 = arith.constant 0 : i32
    %c0_i32_599 = arith.constant 0 : i32
    %510 = tpu.memref_slice %2[%c1_i32_594, %c0_i32_598, %c0_i32_599] : memref<2x8192x1024xbf16, #tpu.memory_space<vmem>> -> memref<1x8192x1024xbf16, #tpu.memory_space<vmem>>
    %511 = tpu.memref_squeeze %510 : memref<1x8192x1024xbf16, #tpu.memory_space<vmem>> -> memref<8192x1024xbf16, #tpu.memory_space<vmem>>
    %512 = tpu.memref_slice %3[%c1_i32_595] : memref<2x!tpu.dma_semaphore, #tpu.memory_space<semaphore_mem>> -> memref<1x!tpu.dma_semaphore, #tpu.memory_space<semaphore_mem>>
    %513 = tpu.memref_squeeze %512 : memref<1x!tpu.dma_semaphore, #tpu.memory_space<semaphore_mem>> -> memref<!tpu.dma_semaphore, #tpu.memory_space<semaphore_mem>>
    tpu.wait_dma2 semaphore(%513 : memref<!tpu.dma_semaphore, #tpu.memory_space<semaphore_mem>>) src(%509 : memref<8192x1024xbf16, #tpu.memory_space<hbm>>) dst(%511 : memref<8192x1024xbf16, #tpu.memory_space<vmem>>)
    %c1_i32_600 = arith.constant 1 : i32
    %c1_i32_601 = arith.constant 1 : i32
    %c0_i32_602 = arith.constant 0 : i32
    %c1024_i32_603 = arith.constant 1024 : i32
    %514 = tpu.memref_slice %0[%c0_i32_602, %c1024_i32_603] : memref<8192x2048xbf16, #tpu.memory_space<hbm>> -> memref<8192x1024xbf16, #tpu.memory_space<hbm>>
    %c0_i32_604 = arith.constant 0 : i32
    %c0_i32_605 = arith.constant 0 : i32
    %515 = tpu.memref_slice %2[%c1_i32_600, %c0_i32_604, %c0_i32_605] : memref<2x8192x1024xbf16, #tpu.memory_space<vmem>> -> memref<1x8192x1024xbf16, #tpu.memory_space<vmem>>
    %516 = tpu.memref_squeeze %515 : memref<1x8192x1024xbf16, #tpu.memory_space<vmem>> -> memref<8192x1024xbf16, #tpu.memory_space<vmem>>
    %517 = tpu.memref_slice %3[%c1_i32_601] : memref<2x!tpu.dma_semaphore, #tpu.memory_space<semaphore_mem>> -> memref<1x!tpu.dma_semaphore, #tpu.memory_space<semaphore_mem>>
    %518 = tpu.memref_squeeze %517 : memref<1x!tpu.dma_semaphore, #tpu.memory_space<semaphore_mem>> -> memref<!tpu.dma_semaphore, #tpu.memory_space<semaphore_mem>>
    tpu.enqueue_dma source(%514 : memref<8192x1024xbf16, #tpu.memory_space<hbm>>) target(%516 : memref<8192x1024xbf16, #tpu.memory_space<vmem>>) target_semaphore(%518 : memref<!tpu.dma_semaphore, #tpu.memory_space<semaphore_mem>>)
    %cst_606 = arith.constant 1.000000e+00 : f32
    %519 = arith.addf %508, %cst_606 : f32
    %c0_i32_607 = arith.constant 0 : i32
    %c0_i32_608 = arith.constant 0 : i32
    %c0_i32_609 = arith.constant 0 : i32
    %c0_i32_610 = arith.constant 0 : i32
    %520 = tpu.memref_slice %0[%c0_i32_609, %c0_i32_610] : memref<8192x2048xbf16, #tpu.memory_space<hbm>> -> memref<8192x1024xbf16, #tpu.memory_space<hbm>>
    %c0_i32_611 = arith.constant 0 : i32
    %c0_i32_612 = arith.constant 0 : i32
    %521 = tpu.memref_slice %2[%c0_i32_607, %c0_i32_611, %c0_i32_612] : memref<2x8192x1024xbf16, #tpu.memory_space<vmem>> -> memref<1x8192x1024xbf16, #tpu.memory_space<vmem>>
    %522 = tpu.memref_squeeze %521 : memref<1x8192x1024xbf16, #tpu.memory_space<vmem>> -> memref<8192x1024xbf16, #tpu.memory_space<vmem>>
    %523 = tpu.memref_slice %3[%c0_i32_608] : memref<2x!tpu.dma_semaphore, #tpu.memory_space<semaphore_mem>> -> memref<1x!tpu.dma_semaphore, #tpu.memory_space<semaphore_mem>>
    %524 = tpu.memref_squeeze %523 : memref<1x!tpu.dma_semaphore, #tpu.memory_space<semaphore_mem>> -> memref<!tpu.dma_semaphore, #tpu.memory_space<semaphore_mem>>
    tpu.wait_dma2 semaphore(%524 : memref<!tpu.dma_semaphore, #tpu.memory_space<semaphore_mem>>) src(%520 : memref<8192x1024xbf16, #tpu.memory_space<hbm>>) dst(%522 : memref<8192x1024xbf16, #tpu.memory_space<vmem>>)
    %c0_i32_613 = arith.constant 0 : i32
    %c0_i32_614 = arith.constant 0 : i32
    %c0_i32_615 = arith.constant 0 : i32
    %c0_i32_616 = arith.constant 0 : i32
    %525 = tpu.memref_slice %0[%c0_i32_615, %c0_i32_616] : memref<8192x2048xbf16, #tpu.memory_space<hbm>> -> memref<8192x1024xbf16, #tpu.memory_space<hbm>>
    %c0_i32_617 = arith.constant 0 : i32
    %c0_i32_618 = arith.constant 0 : i32
    %526 = tpu.memref_slice %2[%c0_i32_613, %c0_i32_617, %c0_i32_618] : memref<2x8192x1024xbf16, #tpu.memory_space<vmem>> -> memref<1x8192x1024xbf16, #tpu.memory_space<vmem>>
    %527 = tpu.memref_squeeze %526 : memref<1x8192x1024xbf16, #tpu.memory_space<vmem>> -> memref<8192x1024xbf16, #tpu.memory_space<vmem>>
    %528 = tpu.memref_slice %3[%c0_i32_614] : memref<2x!tpu.dma_semaphore, #tpu.memory_space<semaphore_mem>> -> memref<1x!tpu.dma_semaphore, #tpu.memory_space<semaphore_mem>>
    %529 = tpu.memref_squeeze %528 : memref<1x!tpu.dma_semaphore, #tpu.memory_space<semaphore_mem>> -> memref<!tpu.dma_semaphore, #tpu.memory_space<semaphore_mem>>
    tpu.enqueue_dma source(%525 : memref<8192x1024xbf16, #tpu.memory_space<hbm>>) target(%527 : memref<8192x1024xbf16, #tpu.memory_space<vmem>>) target_semaphore(%529 : memref<!tpu.dma_semaphore, #tpu.memory_space<semaphore_mem>>)
    %cst_619 = arith.constant 1.000000e+00 : f32
    %530 = arith.addf %519, %cst_619 : f32
    %c1_i32_620 = arith.constant 1 : i32
    %c1_i32_621 = arith.constant 1 : i32
    %c0_i32_622 = arith.constant 0 : i32
    %c1024_i32_623 = arith.constant 1024 : i32
    %531 = tpu.memref_slice %0[%c0_i32_622, %c1024_i32_623] : memref<8192x2048xbf16, #tpu.memory_space<hbm>> -> memref<8192x1024xbf16, #tpu.memory_space<hbm>>
    %c0_i32_624 = arith.constant 0 : i32
    %c0_i32_625 = arith.constant 0 : i32
    %532 = tpu.memref_slice %2[%c1_i32_620, %c0_i32_624, %c0_i32_625] : memref<2x8192x1024xbf16, #tpu.memory_space<vmem>> -> memref<1x8192x1024xbf16, #tpu.memory_space<vmem>>
    %533 = tpu.memref_squeeze %532 : memref<1x8192x1024xbf16, #tpu.memory_space<vmem>> -> memref<8192x1024xbf16, #tpu.memory_space<vmem>>
    %534 = tpu.memref_slice %3[%c1_i32_621] : memref<2x!tpu.dma_semaphore, #tpu.memory_space<semaphore_mem>> -> memref<1x!tpu.dma_semaphore, #tpu.memory_space<semaphore_mem>>
    %535 = tpu.memref_squeeze %534 : memref<1x!tpu.dma_semaphore, #tpu.memory_space<semaphore_mem>> -> memref<!tpu.dma_semaphore, #tpu.memory_space<semaphore_mem>>
    tpu.wait_dma2 semaphore(%535 : memref<!tpu.dma_semaphore, #tpu.memory_space<semaphore_mem>>) src(%531 : memref<8192x1024xbf16, #tpu.memory_space<hbm>>) dst(%533 : memref<8192x1024xbf16, #tpu.memory_space<vmem>>)
    %c1_i32_626 = arith.constant 1 : i32
    %c1_i32_627 = arith.constant 1 : i32
    %c0_i32_628 = arith.constant 0 : i32
    %c1024_i32_629 = arith.constant 1024 : i32
    %536 = tpu.memref_slice %0[%c0_i32_628, %c1024_i32_629] : memref<8192x2048xbf16, #tpu.memory_space<hbm>> -> memref<8192x1024xbf16, #tpu.memory_space<hbm>>
    %c0_i32_630 = arith.constant 0 : i32
    %c0_i32_631 = arith.constant 0 : i32
    %537 = tpu.memref_slice %2[%c1_i32_626, %c0_i32_630, %c0_i32_631] : memref<2x8192x1024xbf16, #tpu.memory_space<vmem>> -> memref<1x8192x1024xbf16, #tpu.memory_space<vmem>>
    %538 = tpu.memref_squeeze %537 : memref<1x8192x1024xbf16, #tpu.memory_space<vmem>> -> memref<8192x1024xbf16, #tpu.memory_space<vmem>>
    %539 = tpu.memref_slice %3[%c1_i32_627] : memref<2x!tpu.dma_semaphore, #tpu.memory_space<semaphore_mem>> -> memref<1x!tpu.dma_semaphore, #tpu.memory_space<semaphore_mem>>
    %540 = tpu.memref_squeeze %539 : memref<1x!tpu.dma_semaphore, #tpu.memory_space<semaphore_mem>> -> memref<!tpu.dma_semaphore, #tpu.memory_space<semaphore_mem>>
    tpu.enqueue_dma source(%536 : memref<8192x1024xbf16, #tpu.memory_space<hbm>>) target(%538 : memref<8192x1024xbf16, #tpu.memory_space<vmem>>) target_semaphore(%540 : memref<!tpu.dma_semaphore, #tpu.memory_space<semaphore_mem>>)
    %cst_632 = arith.constant 1.000000e+00 : f32
    %541 = arith.addf %530, %cst_632 : f32
    %c0_i32_633 = arith.constant 0 : i32
    %c0_i32_634 = arith.constant 0 : i32
    %c0_i32_635 = arith.constant 0 : i32
    %c0_i32_636 = arith.constant 0 : i32
    %542 = tpu.memref_slice %0[%c0_i32_635, %c0_i32_636] : memref<8192x2048xbf16, #tpu.memory_space<hbm>> -> memref<8192x1024xbf16, #tpu.memory_space<hbm>>
    %c0_i32_637 = arith.constant 0 : i32
    %c0_i32_638 = arith.constant 0 : i32
    %543 = tpu.memref_slice %2[%c0_i32_633, %c0_i32_637, %c0_i32_638] : memref<2x8192x1024xbf16, #tpu.memory_space<vmem>> -> memref<1x8192x1024xbf16, #tpu.memory_space<vmem>>
    %544 = tpu.memref_squeeze %543 : memref<1x8192x1024xbf16, #tpu.memory_space<vmem>> -> memref<8192x1024xbf16, #tpu.memory_space<vmem>>
    %545 = tpu.memref_slice %3[%c0_i32_634] : memref<2x!tpu.dma_semaphore, #tpu.memory_space<semaphore_mem>> -> memref<1x!tpu.dma_semaphore, #tpu.memory_space<semaphore_mem>>
    %546 = tpu.memref_squeeze %545 : memref<1x!tpu.dma_semaphore, #tpu.memory_space<semaphore_mem>> -> memref<!tpu.dma_semaphore, #tpu.memory_space<semaphore_mem>>
    tpu.wait_dma2 semaphore(%546 : memref<!tpu.dma_semaphore, #tpu.memory_space<semaphore_mem>>) src(%542 : memref<8192x1024xbf16, #tpu.memory_space<hbm>>) dst(%544 : memref<8192x1024xbf16, #tpu.memory_space<vmem>>)
    %c0_i32_639 = arith.constant 0 : i32
    %c0_i32_640 = arith.constant 0 : i32
    %c0_i32_641 = arith.constant 0 : i32
    %c0_i32_642 = arith.constant 0 : i32
    %547 = tpu.memref_slice %0[%c0_i32_641, %c0_i32_642] : memref<8192x2048xbf16, #tpu.memory_space<hbm>> -> memref<8192x1024xbf16, #tpu.memory_space<hbm>>
    %c0_i32_643 = arith.constant 0 : i32
    %c0_i32_644 = arith.constant 0 : i32
    %548 = tpu.memref_slice %2[%c0_i32_639, %c0_i32_643, %c0_i32_644] : memref<2x8192x1024xbf16, #tpu.memory_space<vmem>> -> memref<1x8192x1024xbf16, #tpu.memory_space<vmem>>
    %549 = tpu.memref_squeeze %548 : memref<1x8192x1024xbf16, #tpu.memory_space<vmem>> -> memref<8192x1024xbf16, #tpu.memory_space<vmem>>
    %550 = tpu.memref_slice %3[%c0_i32_640] : memref<2x!tpu.dma_semaphore, #tpu.memory_space<semaphore_mem>> -> memref<1x!tpu.dma_semaphore, #tpu.memory_space<semaphore_mem>>
    %551 = tpu.memref_squeeze %550 : memref<1x!tpu.dma_semaphore, #tpu.memory_space<semaphore_mem>> -> memref<!tpu.dma_semaphore, #tpu.memory_space<semaphore_mem>>
    tpu.enqueue_dma source(%547 : memref<8192x1024xbf16, #tpu.memory_space<hbm>>) target(%549 : memref<8192x1024xbf16, #tpu.memory_space<vmem>>) target_semaphore(%551 : memref<!tpu.dma_semaphore, #tpu.memory_space<semaphore_mem>>)
    %cst_645 = arith.constant 1.000000e+00 : f32
    %552 = arith.addf %541, %cst_645 : f32
    %c1_i32_646 = arith.constant 1 : i32
    %c1_i32_647 = arith.constant 1 : i32
    %c0_i32_648 = arith.constant 0 : i32
    %c1024_i32_649 = arith.constant 1024 : i32
    %553 = tpu.memref_slice %0[%c0_i32_648, %c1024_i32_649] : memref<8192x2048xbf16, #tpu.memory_space<hbm>> -> memref<8192x1024xbf16, #tpu.memory_space<hbm>>
    %c0_i32_650 = arith.constant 0 : i32
    %c0_i32_651 = arith.constant 0 : i32
    %554 = tpu.memref_slice %2[%c1_i32_646, %c0_i32_650, %c0_i32_651] : memref<2x8192x1024xbf16, #tpu.memory_space<vmem>> -> memref<1x8192x1024xbf16, #tpu.memory_space<vmem>>
    %555 = tpu.memref_squeeze %554 : memref<1x8192x1024xbf16, #tpu.memory_space<vmem>> -> memref<8192x1024xbf16, #tpu.memory_space<vmem>>
    %556 = tpu.memref_slice %3[%c1_i32_647] : memref<2x!tpu.dma_semaphore, #tpu.memory_space<semaphore_mem>> -> memref<1x!tpu.dma_semaphore, #tpu.memory_space<semaphore_mem>>
    %557 = tpu.memref_squeeze %556 : memref<1x!tpu.dma_semaphore, #tpu.memory_space<semaphore_mem>> -> memref<!tpu.dma_semaphore, #tpu.memory_space<semaphore_mem>>
    tpu.wait_dma2 semaphore(%557 : memref<!tpu.dma_semaphore, #tpu.memory_space<semaphore_mem>>) src(%553 : memref<8192x1024xbf16, #tpu.memory_space<hbm>>) dst(%555 : memref<8192x1024xbf16, #tpu.memory_space<vmem>>)
    %c1_i32_652 = arith.constant 1 : i32
    %c1_i32_653 = arith.constant 1 : i32
    %c0_i32_654 = arith.constant 0 : i32
    %c1024_i32_655 = arith.constant 1024 : i32
    %558 = tpu.memref_slice %0[%c0_i32_654, %c1024_i32_655] : memref<8192x2048xbf16, #tpu.memory_space<hbm>> -> memref<8192x1024xbf16, #tpu.memory_space<hbm>>
    %c0_i32_656 = arith.constant 0 : i32
    %c0_i32_657 = arith.constant 0 : i32
    %559 = tpu.memref_slice %2[%c1_i32_652, %c0_i32_656, %c0_i32_657] : memref<2x8192x1024xbf16, #tpu.memory_space<vmem>> -> memref<1x8192x1024xbf16, #tpu.memory_space<vmem>>
    %560 = tpu.memref_squeeze %559 : memref<1x8192x1024xbf16, #tpu.memory_space<vmem>> -> memref<8192x1024xbf16, #tpu.memory_space<vmem>>
    %561 = tpu.memref_slice %3[%c1_i32_653] : memref<2x!tpu.dma_semaphore, #tpu.memory_space<semaphore_mem>> -> memref<1x!tpu.dma_semaphore, #tpu.memory_space<semaphore_mem>>
    %562 = tpu.memref_squeeze %561 : memref<1x!tpu.dma_semaphore, #tpu.memory_space<semaphore_mem>> -> memref<!tpu.dma_semaphore, #tpu.memory_space<semaphore_mem>>
    tpu.enqueue_dma source(%558 : memref<8192x1024xbf16, #tpu.memory_space<hbm>>) target(%560 : memref<8192x1024xbf16, #tpu.memory_space<vmem>>) target_semaphore(%562 : memref<!tpu.dma_semaphore, #tpu.memory_space<semaphore_mem>>)
    %cst_658 = arith.constant 1.000000e+00 : f32
    %563 = arith.addf %552, %cst_658 : f32
    %c0_i32_659 = arith.constant 0 : i32
    %c0_i32_660 = arith.constant 0 : i32
    %c0_i32_661 = arith.constant 0 : i32
    %c0_i32_662 = arith.constant 0 : i32
    %564 = tpu.memref_slice %0[%c0_i32_661, %c0_i32_662] : memref<8192x2048xbf16, #tpu.memory_space<hbm>> -> memref<8192x1024xbf16, #tpu.memory_space<hbm>>
    %c0_i32_663 = arith.constant 0 : i32
    %c0_i32_664 = arith.constant 0 : i32
    %565 = tpu.memref_slice %2[%c0_i32_659, %c0_i32_663, %c0_i32_664] : memref<2x8192x1024xbf16, #tpu.memory_space<vmem>> -> memref<1x8192x1024xbf16, #tpu.memory_space<vmem>>
    %566 = tpu.memref_squeeze %565 : memref<1x8192x1024xbf16, #tpu.memory_space<vmem>> -> memref<8192x1024xbf16, #tpu.memory_space<vmem>>
    %567 = tpu.memref_slice %3[%c0_i32_660] : memref<2x!tpu.dma_semaphore, #tpu.memory_space<semaphore_mem>> -> memref<1x!tpu.dma_semaphore, #tpu.memory_space<semaphore_mem>>
    %568 = tpu.memref_squeeze %567 : memref<1x!tpu.dma_semaphore, #tpu.memory_space<semaphore_mem>> -> memref<!tpu.dma_semaphore, #tpu.memory_space<semaphore_mem>>
    tpu.wait_dma2 semaphore(%568 : memref<!tpu.dma_semaphore, #tpu.memory_space<semaphore_mem>>) src(%564 : memref<8192x1024xbf16, #tpu.memory_space<hbm>>) dst(%566 : memref<8192x1024xbf16, #tpu.memory_space<vmem>>)
    %c0_i32_665 = arith.constant 0 : i32
    %c0_i32_666 = arith.constant 0 : i32
    %c0_i32_667 = arith.constant 0 : i32
    %c0_i32_668 = arith.constant 0 : i32
    %569 = tpu.memref_slice %0[%c0_i32_667, %c0_i32_668] : memref<8192x2048xbf16, #tpu.memory_space<hbm>> -> memref<8192x1024xbf16, #tpu.memory_space<hbm>>
    %c0_i32_669 = arith.constant 0 : i32
    %c0_i32_670 = arith.constant 0 : i32
    %570 = tpu.memref_slice %2[%c0_i32_665, %c0_i32_669, %c0_i32_670] : memref<2x8192x1024xbf16, #tpu.memory_space<vmem>> -> memref<1x8192x1024xbf16, #tpu.memory_space<vmem>>
    %571 = tpu.memref_squeeze %570 : memref<1x8192x1024xbf16, #tpu.memory_space<vmem>> -> memref<8192x1024xbf16, #tpu.memory_space<vmem>>
    %572 = tpu.memref_slice %3[%c0_i32_666] : memref<2x!tpu.dma_semaphore, #tpu.memory_space<semaphore_mem>> -> memref<1x!tpu.dma_semaphore, #tpu.memory_space<semaphore_mem>>
    %573 = tpu.memref_squeeze %572 : memref<1x!tpu.dma_semaphore, #tpu.memory_space<semaphore_mem>> -> memref<!tpu.dma_semaphore, #tpu.memory_space<semaphore_mem>>
    tpu.enqueue_dma source(%569 : memref<8192x1024xbf16, #tpu.memory_space<hbm>>) target(%571 : memref<8192x1024xbf16, #tpu.memory_space<vmem>>) target_semaphore(%573 : memref<!tpu.dma_semaphore, #tpu.memory_space<semaphore_mem>>)
    %cst_671 = arith.constant 1.000000e+00 : f32
    %574 = arith.addf %563, %cst_671 : f32
    %c1_i32_672 = arith.constant 1 : i32
    %c1_i32_673 = arith.constant 1 : i32
    %c0_i32_674 = arith.constant 0 : i32
    %c1024_i32_675 = arith.constant 1024 : i32
    %575 = tpu.memref_slice %0[%c0_i32_674, %c1024_i32_675] : memref<8192x2048xbf16, #tpu.memory_space<hbm>> -> memref<8192x1024xbf16, #tpu.memory_space<hbm>>
    %c0_i32_676 = arith.constant 0 : i32
    %c0_i32_677 = arith.constant 0 : i32
    %576 = tpu.memref_slice %2[%c1_i32_672, %c0_i32_676, %c0_i32_677] : memref<2x8192x1024xbf16, #tpu.memory_space<vmem>> -> memref<1x8192x1024xbf16, #tpu.memory_space<vmem>>
    %577 = tpu.memref_squeeze %576 : memref<1x8192x1024xbf16, #tpu.memory_space<vmem>> -> memref<8192x1024xbf16, #tpu.memory_space<vmem>>
    %578 = tpu.memref_slice %3[%c1_i32_673] : memref<2x!tpu.dma_semaphore, #tpu.memory_space<semaphore_mem>> -> memref<1x!tpu.dma_semaphore, #tpu.memory_space<semaphore_mem>>
    %579 = tpu.memref_squeeze %578 : memref<1x!tpu.dma_semaphore, #tpu.memory_space<semaphore_mem>> -> memref<!tpu.dma_semaphore, #tpu.memory_space<semaphore_mem>>
    tpu.wait_dma2 semaphore(%579 : memref<!tpu.dma_semaphore, #tpu.memory_space<semaphore_mem>>) src(%575 : memref<8192x1024xbf16, #tpu.memory_space<hbm>>) dst(%577 : memref<8192x1024xbf16, #tpu.memory_space<vmem>>)
    %c1_i32_678 = arith.constant 1 : i32
    %c1_i32_679 = arith.constant 1 : i32
    %c0_i32_680 = arith.constant 0 : i32
    %c1024_i32_681 = arith.constant 1024 : i32
    %580 = tpu.memref_slice %0[%c0_i32_680, %c1024_i32_681] : memref<8192x2048xbf16, #tpu.memory_space<hbm>> -> memref<8192x1024xbf16, #tpu.memory_space<hbm>>
    %c0_i32_682 = arith.constant 0 : i32
    %c0_i32_683 = arith.constant 0 : i32
    %581 = tpu.memref_slice %2[%c1_i32_678, %c0_i32_682, %c0_i32_683] : memref<2x8192x1024xbf16, #tpu.memory_space<vmem>> -> memref<1x8192x1024xbf16, #tpu.memory_space<vmem>>
    %582 = tpu.memref_squeeze %581 : memref<1x8192x1024xbf16, #tpu.memory_space<vmem>> -> memref<8192x1024xbf16, #tpu.memory_space<vmem>>
    %583 = tpu.memref_slice %3[%c1_i32_679] : memref<2x!tpu.dma_semaphore, #tpu.memory_space<semaphore_mem>> -> memref<1x!tpu.dma_semaphore, #tpu.memory_space<semaphore_mem>>
    %584 = tpu.memref_squeeze %583 : memref<1x!tpu.dma_semaphore, #tpu.memory_space<semaphore_mem>> -> memref<!tpu.dma_semaphore, #tpu.memory_space<semaphore_mem>>
    tpu.enqueue_dma source(%580 : memref<8192x1024xbf16, #tpu.memory_space<hbm>>) target(%582 : memref<8192x1024xbf16, #tpu.memory_space<vmem>>) target_semaphore(%584 : memref<!tpu.dma_semaphore, #tpu.memory_space<semaphore_mem>>)
    %cst_684 = arith.constant 1.000000e+00 : f32
    %585 = arith.addf %574, %cst_684 : f32
    %c0_i32_685 = arith.constant 0 : i32
    %c0_i32_686 = arith.constant 0 : i32
    %c0_i32_687 = arith.constant 0 : i32
    %c0_i32_688 = arith.constant 0 : i32
    %586 = tpu.memref_slice %0[%c0_i32_687, %c0_i32_688] : memref<8192x2048xbf16, #tpu.memory_space<hbm>> -> memref<8192x1024xbf16, #tpu.memory_space<hbm>>
    %c0_i32_689 = arith.constant 0 : i32
    %c0_i32_690 = arith.constant 0 : i32
    %587 = tpu.memref_slice %2[%c0_i32_685, %c0_i32_689, %c0_i32_690] : memref<2x8192x1024xbf16, #tpu.memory_space<vmem>> -> memref<1x8192x1024xbf16, #tpu.memory_space<vmem>>
    %588 = tpu.memref_squeeze %587 : memref<1x8192x1024xbf16, #tpu.memory_space<vmem>> -> memref<8192x1024xbf16, #tpu.memory_space<vmem>>
    %589 = tpu.memref_slice %3[%c0_i32_686] : memref<2x!tpu.dma_semaphore, #tpu.memory_space<semaphore_mem>> -> memref<1x!tpu.dma_semaphore, #tpu.memory_space<semaphore_mem>>
    %590 = tpu.memref_squeeze %589 : memref<1x!tpu.dma_semaphore, #tpu.memory_space<semaphore_mem>> -> memref<!tpu.dma_semaphore, #tpu.memory_space<semaphore_mem>>
    tpu.wait_dma2 semaphore(%590 : memref<!tpu.dma_semaphore, #tpu.memory_space<semaphore_mem>>) src(%586 : memref<8192x1024xbf16, #tpu.memory_space<hbm>>) dst(%588 : memref<8192x1024xbf16, #tpu.memory_space<vmem>>)
    %c0_i32_691 = arith.constant 0 : i32
    %c0_i32_692 = arith.constant 0 : i32
    %c0_i32_693 = arith.constant 0 : i32
    %c0_i32_694 = arith.constant 0 : i32
    %591 = tpu.memref_slice %0[%c0_i32_693, %c0_i32_694] : memref<8192x2048xbf16, #tpu.memory_space<hbm>> -> memref<8192x1024xbf16, #tpu.memory_space<hbm>>
    %c0_i32_695 = arith.constant 0 : i32
    %c0_i32_696 = arith.constant 0 : i32
    %592 = tpu.memref_slice %2[%c0_i32_691, %c0_i32_695, %c0_i32_696] : memref<2x8192x1024xbf16, #tpu.memory_space<vmem>> -> memref<1x8192x1024xbf16, #tpu.memory_space<vmem>>
    %593 = tpu.memref_squeeze %592 : memref<1x8192x1024xbf16, #tpu.memory_space<vmem>> -> memref<8192x1024xbf16, #tpu.memory_space<vmem>>
    %594 = tpu.memref_slice %3[%c0_i32_692] : memref<2x!tpu.dma_semaphore, #tpu.memory_space<semaphore_mem>> -> memref<1x!tpu.dma_semaphore, #tpu.memory_space<semaphore_mem>>
    %595 = tpu.memref_squeeze %594 : memref<1x!tpu.dma_semaphore, #tpu.memory_space<semaphore_mem>> -> memref<!tpu.dma_semaphore, #tpu.memory_space<semaphore_mem>>
    tpu.enqueue_dma source(%591 : memref<8192x1024xbf16, #tpu.memory_space<hbm>>) target(%593 : memref<8192x1024xbf16, #tpu.memory_space<vmem>>) target_semaphore(%595 : memref<!tpu.dma_semaphore, #tpu.memory_space<semaphore_mem>>)
    %cst_697 = arith.constant 1.000000e+00 : f32
    %596 = arith.addf %585, %cst_697 : f32
    %c1_i32_698 = arith.constant 1 : i32
    %c1_i32_699 = arith.constant 1 : i32
    %c0_i32_700 = arith.constant 0 : i32
    %c1024_i32_701 = arith.constant 1024 : i32
    %597 = tpu.memref_slice %0[%c0_i32_700, %c1024_i32_701] : memref<8192x2048xbf16, #tpu.memory_space<hbm>> -> memref<8192x1024xbf16, #tpu.memory_space<hbm>>
    %c0_i32_702 = arith.constant 0 : i32
    %c0_i32_703 = arith.constant 0 : i32
    %598 = tpu.memref_slice %2[%c1_i32_698, %c0_i32_702, %c0_i32_703] : memref<2x8192x1024xbf16, #tpu.memory_space<vmem>> -> memref<1x8192x1024xbf16, #tpu.memory_space<vmem>>
    %599 = tpu.memref_squeeze %598 : memref<1x8192x1024xbf16, #tpu.memory_space<vmem>> -> memref<8192x1024xbf16, #tpu.memory_space<vmem>>
    %600 = tpu.memref_slice %3[%c1_i32_699] : memref<2x!tpu.dma_semaphore, #tpu.memory_space<semaphore_mem>> -> memref<1x!tpu.dma_semaphore, #tpu.memory_space<semaphore_mem>>
    %601 = tpu.memref_squeeze %600 : memref<1x!tpu.dma_semaphore, #tpu.memory_space<semaphore_mem>> -> memref<!tpu.dma_semaphore, #tpu.memory_space<semaphore_mem>>
    tpu.wait_dma2 semaphore(%601 : memref<!tpu.dma_semaphore, #tpu.memory_space<semaphore_mem>>) src(%597 : memref<8192x1024xbf16, #tpu.memory_space<hbm>>) dst(%599 : memref<8192x1024xbf16, #tpu.memory_space<vmem>>)
    %c1_i32_704 = arith.constant 1 : i32
    %c1_i32_705 = arith.constant 1 : i32
    %c0_i32_706 = arith.constant 0 : i32
    %c1024_i32_707 = arith.constant 1024 : i32
    %602 = tpu.memref_slice %0[%c0_i32_706, %c1024_i32_707] : memref<8192x2048xbf16, #tpu.memory_space<hbm>> -> memref<8192x1024xbf16, #tpu.memory_space<hbm>>
    %c0_i32_708 = arith.constant 0 : i32
    %c0_i32_709 = arith.constant 0 : i32
    %603 = tpu.memref_slice %2[%c1_i32_704, %c0_i32_708, %c0_i32_709] : memref<2x8192x1024xbf16, #tpu.memory_space<vmem>> -> memref<1x8192x1024xbf16, #tpu.memory_space<vmem>>
    %604 = tpu.memref_squeeze %603 : memref<1x8192x1024xbf16, #tpu.memory_space<vmem>> -> memref<8192x1024xbf16, #tpu.memory_space<vmem>>
    %605 = tpu.memref_slice %3[%c1_i32_705] : memref<2x!tpu.dma_semaphore, #tpu.memory_space<semaphore_mem>> -> memref<1x!tpu.dma_semaphore, #tpu.memory_space<semaphore_mem>>
    %606 = tpu.memref_squeeze %605 : memref<1x!tpu.dma_semaphore, #tpu.memory_space<semaphore_mem>> -> memref<!tpu.dma_semaphore, #tpu.memory_space<semaphore_mem>>
    tpu.enqueue_dma source(%602 : memref<8192x1024xbf16, #tpu.memory_space<hbm>>) target(%604 : memref<8192x1024xbf16, #tpu.memory_space<vmem>>) target_semaphore(%606 : memref<!tpu.dma_semaphore, #tpu.memory_space<semaphore_mem>>)
    %cst_710 = arith.constant 1.000000e+00 : f32
    %607 = arith.addf %596, %cst_710 : f32
    %c0_i32_711 = arith.constant 0 : i32
    %c0_i32_712 = arith.constant 0 : i32
    %c0_i32_713 = arith.constant 0 : i32
    %c0_i32_714 = arith.constant 0 : i32
    %608 = tpu.memref_slice %0[%c0_i32_713, %c0_i32_714] : memref<8192x2048xbf16, #tpu.memory_space<hbm>> -> memref<8192x1024xbf16, #tpu.memory_space<hbm>>
    %c0_i32_715 = arith.constant 0 : i32
    %c0_i32_716 = arith.constant 0 : i32
    %609 = tpu.memref_slice %2[%c0_i32_711, %c0_i32_715, %c0_i32_716] : memref<2x8192x1024xbf16, #tpu.memory_space<vmem>> -> memref<1x8192x1024xbf16, #tpu.memory_space<vmem>>
    %610 = tpu.memref_squeeze %609 : memref<1x8192x1024xbf16, #tpu.memory_space<vmem>> -> memref<8192x1024xbf16, #tpu.memory_space<vmem>>
    %611 = tpu.memref_slice %3[%c0_i32_712] : memref<2x!tpu.dma_semaphore, #tpu.memory_space<semaphore_mem>> -> memref<1x!tpu.dma_semaphore, #tpu.memory_space<semaphore_mem>>
    %612 = tpu.memref_squeeze %611 : memref<1x!tpu.dma_semaphore, #tpu.memory_space<semaphore_mem>> -> memref<!tpu.dma_semaphore, #tpu.memory_space<semaphore_mem>>
    tpu.wait_dma2 semaphore(%612 : memref<!tpu.dma_semaphore, #tpu.memory_space<semaphore_mem>>) src(%608 : memref<8192x1024xbf16, #tpu.memory_space<hbm>>) dst(%610 : memref<8192x1024xbf16, #tpu.memory_space<vmem>>)
    %c0_i32_717 = arith.constant 0 : i32
    %c0_i32_718 = arith.constant 0 : i32
    %c0_i32_719 = arith.constant 0 : i32
    %c0_i32_720 = arith.constant 0 : i32
    %613 = tpu.memref_slice %0[%c0_i32_719, %c0_i32_720] : memref<8192x2048xbf16, #tpu.memory_space<hbm>> -> memref<8192x1024xbf16, #tpu.memory_space<hbm>>
    %c0_i32_721 = arith.constant 0 : i32
    %c0_i32_722 = arith.constant 0 : i32
    %614 = tpu.memref_slice %2[%c0_i32_717, %c0_i32_721, %c0_i32_722] : memref<2x8192x1024xbf16, #tpu.memory_space<vmem>> -> memref<1x8192x1024xbf16, #tpu.memory_space<vmem>>
    %615 = tpu.memref_squeeze %614 : memref<1x8192x1024xbf16, #tpu.memory_space<vmem>> -> memref<8192x1024xbf16, #tpu.memory_space<vmem>>
    %616 = tpu.memref_slice %3[%c0_i32_718] : memref<2x!tpu.dma_semaphore, #tpu.memory_space<semaphore_mem>> -> memref<1x!tpu.dma_semaphore, #tpu.memory_space<semaphore_mem>>
    %617 = tpu.memref_squeeze %616 : memref<1x!tpu.dma_semaphore, #tpu.memory_space<semaphore_mem>> -> memref<!tpu.dma_semaphore, #tpu.memory_space<semaphore_mem>>
    tpu.enqueue_dma source(%613 : memref<8192x1024xbf16, #tpu.memory_space<hbm>>) target(%615 : memref<8192x1024xbf16, #tpu.memory_space<vmem>>) target_semaphore(%617 : memref<!tpu.dma_semaphore, #tpu.memory_space<semaphore_mem>>)
    %cst_723 = arith.constant 1.000000e+00 : f32
    %618 = arith.addf %607, %cst_723 : f32
    %c1_i32_724 = arith.constant 1 : i32
    %c1_i32_725 = arith.constant 1 : i32
    %c0_i32_726 = arith.constant 0 : i32
    %c1024_i32_727 = arith.constant 1024 : i32
…
    %1209 = tpu.memref_squeeze %1208 : memref<1x8192x1024xbf16, #tpu.memory_space<vmem>> -> memref<8192x1024xbf16, #tpu.memory_space<vmem>>
    %1210 = tpu.memref_slice %3[%c0_i32_1420] : memref<2x!tpu.dma_semaphore, #tpu.memory_space<semaphore_mem>> -> memref<1x!tpu.dma_semaphore, #tpu.memory_space<semaphore_mem>>
    %1211 = tpu.memref_squeeze %1210 : memref<1x!tpu.dma_semaphore, #tpu.memory_space<semaphore_mem>> -> memref<!tpu.dma_semaphore, #tpu.memory_space<semaphore_mem>>
    tpu.enqueue_dma source(%1207 : memref<8192x1024xbf16, #tpu.memory_space<hbm>>) target(%1209 : memref<8192x1024xbf16, #tpu.memory_space<vmem>>) target_semaphore(%1211 : memref<!tpu.dma_semaphore, #tpu.memory_space<semaphore_mem>>)
    %cst_1425 = arith.constant 1.000000e+00 : f32
    %1212 = arith.addf %1201, %cst_1425 : f32
    %c1_i32_1426 = arith.constant 1 : i32
    %c1_i32_1427 = arith.constant 1 : i32
    %c0_i32_1428 = arith.constant 0 : i32
    %c1024_i32_1429 = arith.constant 1024 : i32
    %1213 = tpu.memref_slice %0[%c0_i32_1428, %c1024_i32_1429] : memref<8192x2048xbf16, #tpu.memory_space<hbm>> -> memref<8192x1024xbf16, #tpu.memory_space<hbm>>
    %c0_i32_1430 = arith.constant 0 : i32
    %c0_i32_1431 = arith.constant 0 : i32
    %1214 = tpu.memref_slice %2[%c1_i32_1426, %c0_i32_1430, %c0_i32_1431] : memref<2x8192x1024xbf16, #tpu.memory_space<vmem>> -> memref<1x8192x1024xbf16, #tpu.memory_space<vmem>>
    %1215 = tpu.memref_squeeze %1214 : memref<1x8192x1024xbf16, #tpu.memory_space<vmem>> -> memref<8192x1024xbf16, #tpu.memory_space<vmem>>
    %1216 = tpu.memref_slice %3[%c1_i32_1427] : memref<2x!tpu.dma_semaphore, #tpu.memory_space<semaphore_mem>> -> memref<1x!tpu.dma_semaphore, #tpu.memory_space<semaphore_mem>>
    %1217 = tpu.memref_squeeze %1216 : memref<1x!tpu.dma_semaphore, #tpu.memory_space<semaphore_mem>> -> memref<!tpu.dma_semaphore, #tpu.memory_space<semaphore_mem>>
    tpu.wait_dma2 semaphore(%1217 : memref<!tpu.dma_semaphore, #tpu.memory_space<semaphore_mem>>) src(%1213 : memref<8192x1024xbf16, #tpu.memory_space<hbm>>) dst(%1215 : memref<8192x1024xbf16, #tpu.memory_space<vmem>>)
    %c1_i32_1432 = arith.constant 1 : i32
    %c1_i32_1433 = arith.constant 1 : i32
    %c0_i32_1434 = arith.constant 0 : i32
    %c1024_i32_1435 = arith.constant 1024 : i32
    %1218 = tpu.memref_slice %0[%c0_i32_1434, %c1024_i32_1435] : memref<8192x2048xbf16, #tpu.memory_space<hbm>> -> memref<8192x1024xbf16, #tpu.memory_space<hbm>>
    %c0_i32_1436 = arith.constant 0 : i32
    %c0_i32_1437 = arith.constant 0 : i32
    %1219 = tpu.memref_slice %2[%c1_i32_1432, %c0_i32_1436, %c0_i32_1437] : memref<2x8192x1024xbf16, #tpu.memory_space<vmem>> -> memref<1x8192x1024xbf16, #tpu.memory_space<vmem>>
    %1220 = tpu.memref_squeeze %1219 : memref<1x8192x1024xbf16, #tpu.memory_space<vmem>> -> memref<8192x1024xbf16, #tpu.memory_space<vmem>>
    %1221 = tpu.memref_slice %3[%c1_i32_1433] : memref<2x!tpu.dma_semaphore, #tpu.memory_space<semaphore_mem>> -> memref<1x!tpu.dma_semaphore, #tpu.memory_space<semaphore_mem>>
    %1222 = tpu.memref_squeeze %1221 : memref<1x!tpu.dma_semaphore, #tpu.memory_space<semaphore_mem>> -> memref<!tpu.dma_semaphore, #tpu.memory_space<semaphore_mem>>
    tpu.enqueue_dma source(%1218 : memref<8192x1024xbf16, #tpu.memory_space<hbm>>) target(%1220 : memref<8192x1024xbf16, #tpu.memory_space<vmem>>) target_semaphore(%1222 : memref<!tpu.dma_semaphore, #tpu.memory_space<semaphore_mem>>)
    %cst_1438 = arith.constant 1.000000e+00 : f32
    %1223 = arith.addf %1212, %cst_1438 : f32
    %c0_i32_1439 = arith.constant 0 : i32
    %c0_i32_1440 = arith.constant 0 : i32
    %c0_i32_1441 = arith.constant 0 : i32
    %c0_i32_1442 = arith.constant 0 : i32
    %1224 = tpu.memref_slice %0[%c0_i32_1441, %c0_i32_1442] : memref<8192x2048xbf16, #tpu.memory_space<hbm>> -> memref<8192x1024xbf16, #tpu.memory_space<hbm>>
    %c0_i32_1443 = arith.constant 0 : i32
    %c0_i32_1444 = arith.constant 0 : i32
    %1225 = tpu.memref_slice %2[%c0_i32_1439, %c0_i32_1443, %c0_i32_1444] : memref<2x8192x1024xbf16, #tpu.memory_space<vmem>> -> memref<1x8192x1024xbf16, #tpu.memory_space<vmem>>
    %1226 = tpu.memref_squeeze %1225 : memref<1x8192x1024xbf16, #tpu.memory_space<vmem>> -> memref<8192x1024xbf16, #tpu.memory_space<vmem>>
    %1227 = tpu.memref_slice %3[%c0_i32_1440] : memref<2x!tpu.dma_semaphore, #tpu.memory_space<semaphore_mem>> -> memref<1x!tpu.dma_semaphore, #tpu.memory_space<semaphore_mem>>
    %1228 = tpu.memref_squeeze %1227 : memref<1x!tpu.dma_semaphore, #tpu.memory_space<semaphore_mem>> -> memref<!tpu.dma_semaphore, #tpu.memory_space<semaphore_mem>>
    tpu.wait_dma2 semaphore(%1228 : memref<!tpu.dma_semaphore, #tpu.memory_space<semaphore_mem>>) src(%1224 : memref<8192x1024xbf16, #tpu.memory_space<hbm>>) dst(%1226 : memref<8192x1024xbf16, #tpu.memory_space<vmem>>)
    %c0_i32_1445 = arith.constant 0 : i32
    %c0_i32_1446 = arith.constant 0 : i32
    %c0_i32_1447 = arith.constant 0 : i32
    %c0_i32_1448 = arith.constant 0 : i32
    %1229 = tpu.memref_slice %0[%c0_i32_1447, %c0_i32_1448] : memref<8192x2048xbf16, #tpu.memory_space<hbm>> -> memref<8192x1024xbf16, #tpu.memory_space<hbm>>
    %c0_i32_1449 = arith.constant 0 : i32
    %c0_i32_1450 = arith.constant 0 : i32
    %1230 = tpu.memref_slice %2[%c0_i32_1445, %c0_i32_1449, %c0_i32_1450] : memref<2x8192x1024xbf16, #tpu.memory_space<vmem>> -> memref<1x8192x1024xbf16, #tpu.memory_space<vmem>>
    %1231 = tpu.memref_squeeze %1230 : memref<1x8192x1024xbf16, #tpu.memory_space<vmem>> -> memref<8192x1024xbf16, #tpu.memory_space<vmem>>
    %1232 = tpu.memref_slice %3[%c0_i32_1446] : memref<2x!tpu.dma_semaphore, #tpu.memory_space<semaphore_mem>> -> memref<1x!tpu.dma_semaphore, #tpu.memory_space<semaphore_mem>>
    %1233 = tpu.memref_squeeze %1232 : memref<1x!tpu.dma_semaphore, #tpu.memory_space<semaphore_mem>> -> memref<!tpu.dma_semaphore, #tpu.memory_space<semaphore_mem>>
    tpu.enqueue_dma source(%1229 : memref<8192x1024xbf16, #tpu.memory_space<hbm>>) target(%1231 : memref<8192x1024xbf16, #tpu.memory_space<vmem>>) target_semaphore(%1233 : memref<!tpu.dma_semaphore, #tpu.memory_space<semaphore_mem>>)
    %cst_1451 = arith.constant 1.000000e+00 : f32
    %1234 = arith.addf %1223, %cst_1451 : f32
    %c1_i32_1452 = arith.constant 1 : i32
    %c1_i32_1453 = arith.constant 1 : i32
    %c0_i32_1454 = arith.constant 0 : i32
    %c1024_i32_1455 = arith.constant 1024 : i32
    %1235 = tpu.memref_slice %0[%c0_i32_1454, %c1024_i32_1455] : memref<8192x2048xbf16, #tpu.memory_space<hbm>> -> memref<8192x1024xbf16, #tpu.memory_space<hbm>>
    %c0_i32_1456 = arith.constant 0 : i32
    %c0_i32_1457 = arith.constant 0 : i32
    %1236 = tpu.memref_slice %2[%c1_i32_1452, %c0_i32_1456, %c0_i32_1457] : memref<2x8192x1024xbf16, #tpu.memory_space<vmem>> -> memref<1x8192x1024xbf16, #tpu.memory_space<vmem>>
    %1237 = tpu.memref_squeeze %1236 : memref<1x8192x1024xbf16, #tpu.memory_space<vmem>> -> memref<8192x1024xbf16, #tpu.memory_space<vmem>>
    %1238 = tpu.memref_slice %3[%c1_i32_1453] : memref<2x!tpu.dma_semaphore, #tpu.memory_space<semaphore_mem>> -> memref<1x!tpu.dma_semaphore, #tpu.memory_space<semaphore_mem>>
    %1239 = tpu.memref_squeeze %1238 : memref<1x!tpu.dma_semaphore, #tpu.memory_space<semaphore_mem>> -> memref<!tpu.dma_semaphore, #tpu.memory_space<semaphore_mem>>
    tpu.wait_dma2 semaphore(%1239 : memref<!tpu.dma_semaphore, #tpu.memory_space<semaphore_mem>>) src(%1235 : memref<8192x1024xbf16, #tpu.memory_space<hbm>>) dst(%1237 : memref<8192x1024xbf16, #tpu.memory_space<vmem>>)
    %c1_i32_1458 = arith.constant 1 : i32
    %c1_i32_1459 = arith.constant 1 : i32
    %c0_i32_1460 = arith.constant 0 : i32
    %c1024_i32_1461 = arith.constant 1024 : i32
    %1240 = tpu.memref_slice %0[%c0_i32_1460, %c1024_i32_1461] : memref<8192x2048xbf16, #tpu.memory_space<hbm>> -> memref<8192x1024xbf16, #tpu.memory_space<hbm>>
    %c0_i32_1462 = arith.constant 0 : i32
    %c0_i32_1463 = arith.constant 0 : i32
    %1241 = tpu.memref_slice %2[%c1_i32_1458, %c0_i32_1462, %c0_i32_1463] : memref<2x8192x1024xbf16, #tpu.memory_space<vmem>> -> memref<1x8192x1024xbf16, #tpu.memory_space<vmem>>
    %1242 = tpu.memref_squeeze %1241 : memref<1x8192x1024xbf16, #tpu.memory_space<vmem>> -> memref<8192x1024xbf16, #tpu.memory_space<vmem>>
    %1243 = tpu.memref_slice %3[%c1_i32_1459] : memref<2x!tpu.dma_semaphore, #tpu.memory_space<semaphore_mem>> -> memref<1x!tpu.dma_semaphore, #tpu.memory_space<semaphore_mem>>
    %1244 = tpu.memref_squeeze %1243 : memref<1x!tpu.dma_semaphore, #tpu.memory_space<semaphore_mem>> -> memref<!tpu.dma_semaphore, #tpu.memory_space<semaphore_mem>>
    tpu.enqueue_dma source(%1240 : memref<8192x1024xbf16, #tpu.memory_space<hbm>>) target(%1242 : memref<8192x1024xbf16, #tpu.memory_space<vmem>>) target_semaphore(%1244 : memref<!tpu.dma_semaphore, #tpu.memory_space<semaphore_mem>>)
    %cst_1464 = arith.constant 1.000000e+00 : f32
    %1245 = arith.addf %1234, %cst_1464 : f32
    %c0_i32_1465 = arith.constant 0 : i32
    %c0_i32_1466 = arith.constant 0 : i32
    %c0_i32_1467 = arith.constant 0 : i32
    %c0_i32_1468 = arith.constant 0 : i32
    %1246 = tpu.memref_slice %0[%c0_i32_1467, %c0_i32_1468] : memref<8192x2048xbf16, #tpu.memory_space<hbm>> -> memref<8192x1024xbf16, #tpu.memory_space<hbm>>
    %c0_i32_1469 = arith.constant 0 : i32
    %c0_i32_1470 = arith.constant 0 : i32
    %1247 = tpu.memref_slice %2[%c0_i32_1465, %c0_i32_1469, %c0_i32_1470] : memref<2x8192x1024xbf16, #tpu.memory_space<vmem>> -> memref<1x8192x1024xbf16, #tpu.memory_space<vmem>>
    %1248 = tpu.memref_squeeze %1247 : memref<1x8192x1024xbf16, #tpu.memory_space<vmem>> -> memref<8192x1024xbf16, #tpu.memory_space<vmem>>
    %1249 = tpu.memref_slice %3[%c0_i32_1466] : memref<2x!tpu.dma_semaphore, #tpu.memory_space<semaphore_mem>> -> memref<1x!tpu.dma_semaphore, #tpu.memory_space<semaphore_mem>>
    %1250 = tpu.memref_squeeze %1249 : memref<1x!tpu.dma_semaphore, #tpu.memory_space<semaphore_mem>> -> memref<!tpu.dma_semaphore, #tpu.memory_space<semaphore_mem>>
    tpu.wait_dma2 semaphore(%1250 : memref<!tpu.dma_semaphore, #tpu.memory_space<semaphore_mem>>) src(%1246 : memref<8192x1024xbf16, #tpu.memory_space<hbm>>) dst(%1248 : memref<8192x1024xbf16, #tpu.memory_space<vmem>>)
    %c0_i32_1471 = arith.constant 0 : i32
    %c0_i32_1472 = arith.constant 0 : i32
    %c0_i32_1473 = arith.constant 0 : i32
    %c0_i32_1474 = arith.constant 0 : i32
    %1251 = tpu.memref_slice %0[%c0_i32_1473, %c0_i32_1474] : memref<8192x2048xbf16, #tpu.memory_space<hbm>> -> memref<8192x1024xbf16, #tpu.memory_space<hbm>>
    %c0_i32_1475 = arith.constant 0 : i32
    %c0_i32_1476 = arith.constant 0 : i32
    %1252 = tpu.memref_slice %2[%c0_i32_1471, %c0_i32_1475, %c0_i32_1476] : memref<2x8192x1024xbf16, #tpu.memory_space<vmem>> -> memref<1x8192x1024xbf16, #tpu.memory_space<vmem>>
    %1253 = tpu.memref_squeeze %1252 : memref<1x8192x1024xbf16, #tpu.memory_space<vmem>> -> memref<8192x1024xbf16, #tpu.memory_space<vmem>>
    %1254 = tpu.memref_slice %3[%c0_i32_1472] : memref<2x!tpu.dma_semaphore, #tpu.memory_space<semaphore_mem>> -> memref<1x!tpu.dma_semaphore, #tpu.memory_space<semaphore_mem>>
    %1255 = tpu.memref_squeeze %1254 : memref<1x!tpu.dma_semaphore, #tpu.memory_space<semaphore_mem>> -> memref<!tpu.dma_semaphore, #tpu.memory_space<semaphore_mem>>
    tpu.enqueue_dma source(%1251 : memref<8192x1024xbf16, #tpu.memory_space<hbm>>) target(%1253 : memref<8192x1024xbf16, #tpu.memory_space<vmem>>) target_semaphore(%1255 : memref<!tpu.dma_semaphore, #tpu.memory_space<semaphore_mem>>)
    %cst_1477 = arith.constant 1.000000e+00 : f32
    %1256 = arith.addf %1245, %cst_1477 : f32
    %c1_i32_1478 = arith.constant 1 : i32
    %c1_i32_1479 = arith.constant 1 : i32
    %c0_i32_1480 = arith.constant 0 : i32
    %c1024_i32_1481 = arith.constant 1024 : i32
    %1257 = tpu.memref_slice %0[%c0_i32_1480, %c1024_i32_1481] : memref<8192x2048xbf16, #tpu.memory_space<hbm>> -> memref<8192x1024xbf16, #tpu.memory_space<hbm>>
    %c0_i32_1482 = arith.constant 0 : i32
    %c0_i32_1483 = arith.constant 0 : i32
    %1258 = tpu.memref_slice %2[%c1_i32_1478, %c0_i32_1482, %c0_i32_1483] : memref<2x8192x1024xbf16, #tpu.memory_space<vmem>> -> memref<1x8192x1024xbf16, #tpu.memory_space<vmem>>
    %1259 = tpu.memref_squeeze %1258 : memref<1x8192x1024xbf16, #tpu.memory_space<vmem>> -> memref<8192x1024xbf16, #tpu.memory_space<vmem>>
    %1260 = tpu.memref_slice %3[%c1_i32_1479] : memref<2x!tpu.dma_semaphore, #tpu.memory_space<semaphore_mem>> -> memref<1x!tpu.dma_semaphore, #tpu.memory_space<semaphore_mem>>
    %1261 = tpu.memref_squeeze %1260 : memref<1x!tpu.dma_semaphore, #tpu.memory_space<semaphore_mem>> -> memref<!tpu.dma_semaphore, #tpu.memory_space<semaphore_mem>>
    tpu.wait_dma2 semaphore(%1261 : memref<!tpu.dma_semaphore, #tpu.memory_space<semaphore_mem>>) src(%1257 : memref<8192x1024xbf16, #tpu.memory_space<hbm>>) dst(%1259 : memref<8192x1024xbf16, #tpu.memory_space<vmem>>)
    %c1_i32_1484 = arith.constant 1 : i32
    %c1_i32_1485 = arith.constant 1 : i32
    %c0_i32_1486 = arith.constant 0 : i32
    %c1024_i32_1487 = arith.constant 1024 : i32
    %1262 = tpu.memref_slice %0[%c0_i32_1486, %c1024_i32_1487] : memref<8192x2048xbf16, #tpu.memory_space<hbm>> -> memref<8192x1024xbf16, #tpu.memory_space<hbm>>
    %c0_i32_1488 = arith.constant 0 : i32
    %c0_i32_1489 = arith.constant 0 : i32
    %1263 = tpu.memref_slice %2[%c1_i32_1484, %c0_i32_1488, %c0_i32_1489] : memref<2x8192x1024xbf16, #tpu.memory_space<vmem>> -> memref<1x8192x1024xbf16, #tpu.memory_space<vmem>>
    %1264 = tpu.memref_squeeze %1263 : memref<1x8192x1024xbf16, #tpu.memory_space<vmem>> -> memref<8192x1024xbf16, #tpu.memory_space<vmem>>
    %1265 = tpu.memref_slice %3[%c1_i32_1485] : memref<2x!tpu.dma_semaphore, #tpu.memory_space<semaphore_mem>> -> memref<1x!tpu.dma_semaphore, #tpu.memory_space<semaphore_mem>>
    %1266 = tpu.memref_squeeze %1265 : memref<1x!tpu.dma_semaphore, #tpu.memory_space<semaphore_mem>> -> memref<!tpu.dma_semaphore, #tpu.memory_space<semaphore_mem>>
    tpu.enqueue_dma source(%1262 : memref<8192x1024xbf16, #tpu.memory_space<hbm>>) target(%1264 : memref<8192x1024xbf16, #tpu.memory_space<vmem>>) target_semaphore(%1266 : memref<!tpu.dma_semaphore, #tpu.memory_space<semaphore_mem>>)
    %cst_1490 = arith.constant 1.000000e+00 : f32
    %1267 = arith.addf %1256, %cst_1490 : f32
    %c0_i32_1491 = arith.constant 0 : i32
    %c0_i32_1492 = arith.constant 0 : i32
    %c0_i32_1493 = arith.constant 0 : i32
    %c0_i32_1494 = arith.constant 0 : i32
    %1268 = tpu.memref_slice %0[%c0_i32_1493, %c0_i32_1494] : memref<8192x2048xbf16, #tpu.memory_space<hbm>> -> memref<8192x1024xbf16, #tpu.memory_space<hbm>>
    %c0_i32_1495 = arith.constant 0 : i32
    %c0_i32_1496 = arith.constant 0 : i32
    %1269 = tpu.memref_slice %2[%c0_i32_1491, %c0_i32_1495, %c0_i32_1496] : memref<2x8192x1024xbf16, #tpu.memory_space<vmem>> -> memref<1x8192x1024xbf16, #tpu.memory_space<vmem>>
    %1270 = tpu.memref_squeeze %1269 : memref<1x8192x1024xbf16, #tpu.memory_space<vmem>> -> memref<8192x1024xbf16, #tpu.memory_space<vmem>>
    %1271 = tpu.memref_slice %3[%c0_i32_1492] : memref<2x!tpu.dma_semaphore, #tpu.memory_space<semaphore_mem>> -> memref<1x!tpu.dma_semaphore, #tpu.memory_space<semaphore_mem>>
    %1272 = tpu.memref_squeeze %1271 : memref<1x!tpu.dma_semaphore, #tpu.memory_space<semaphore_mem>> -> memref<!tpu.dma_semaphore, #tpu.memory_space<semaphore_mem>>
    tpu.wait_dma2 semaphore(%1272 : memref<!tpu.dma_semaphore, #tpu.memory_space<semaphore_mem>>) src(%1268 : memref<8192x1024xbf16, #tpu.memory_space<hbm>>) dst(%1270 : memref<8192x1024xbf16, #tpu.memory_space<vmem>>)
    %c0_i32_1497 = arith.constant 0 : i32
    %c0_i32_1498 = arith.constant 0 : i32
    %c0_i32_1499 = arith.constant 0 : i32
    %c0_i32_1500 = arith.constant 0 : i32
    %1273 = tpu.memref_slice %0[%c0_i32_1499, %c0_i32_1500] : memref<8192x2048xbf16, #tpu.memory_space<hbm>> -> memref<8192x1024xbf16, #tpu.memory_space<hbm>>
    %c0_i32_1501 = arith.constant 0 : i32
    %c0_i32_1502 = arith.constant 0 : i32
    %1274 = tpu.memref_slice %2[%c0_i32_1497, %c0_i32_1501, %c0_i32_1502] : memref<2x8192x1024xbf16, #tpu.memory_space<vmem>> -> memref<1x8192x1024xbf16, #tpu.memory_space<vmem>>
    %1275 = tpu.memref_squeeze %1274 : memref<1x8192x1024xbf16, #tpu.memory_space<vmem>> -> memref<8192x1024xbf16, #tpu.memory_space<vmem>>
    %1276 = tpu.memref_slice %3[%c0_i32_1498] : memref<2x!tpu.dma_semaphore, #tpu.memory_space<semaphore_mem>> -> memref<1x!tpu.dma_semaphore, #tpu.memory_space<semaphore_mem>>
    %1277 = tpu.memref_squeeze %1276 : memref<1x!tpu.dma_semaphore, #tpu.memory_space<semaphore_mem>> -> memref<!tpu.dma_semaphore, #tpu.memory_space<semaphore_mem>>
    tpu.enqueue_dma source(%1273 : memref<8192x1024xbf16, #tpu.memory_space<hbm>>) target(%1275 : memref<8192x1024xbf16, #tpu.memory_space<vmem>>) target_semaphore(%1277 : memref<!tpu.dma_semaphore, #tpu.memory_space<semaphore_mem>>)
    %cst_1503 = arith.constant 1.000000e+00 : f32
    %1278 = arith.addf %1267, %cst_1503 : f32
    %c1_i32_1504 = arith.constant 1 : i32
    %c1_i32_1505 = arith.constant 1 : i32
    %c0_i32_1506 = arith.constant 0 : i32
    %c1024_i32_1507 = arith.constant 1024 : i32
    %1279 = tpu.memref_slice %0[%c0_i32_1506, %c1024_i32_1507] : memref<8192x2048xbf16, #tpu.memory_space<hbm>> -> memref<8192x1024xbf16, #tpu.memory_space<hbm>>
    %c0_i32_1508 = arith.constant 0 : i32
    %c0_i32_1509 = arith.constant 0 : i32
    %1280 = tpu.memref_slice %2[%c1_i32_1504, %c0_i32_1508, %c0_i32_1509] : memref<2x8192x1024xbf16, #tpu.memory_space<vmem>> -> memref<1x8192x1024xbf16, #tpu.memory_space<vmem>>
    %1281 = tpu.memref_squeeze %1280 : memref<1x8192x1024xbf16, #tpu.memory_space<vmem>> -> memref<8192x1024xbf16, #tpu.memory_space<vmem>>
    %1282 = tpu.memref_slice %3[%c1_i32_1505] : memref<2x!tpu.dma_semaphore, #tpu.memory_space<semaphore_mem>> -> memref<1x!tpu.dma_semaphore, #tpu.memory_space<semaphore_mem>>
    %1283 = tpu.memref_squeeze %1282 : memref<1x!tpu.dma_semaphore, #tpu.memory_space<semaphore_mem>> -> memref<!tpu.dma_semaphore, #tpu.memory_space<semaphore_mem>>
    tpu.wait_dma2 semaphore(%1283 : memref<!tpu.dma_semaphore, #tpu.memory_space<semaphore_mem>>) src(%1279 : memref<8192x1024xbf16, #tpu.memory_space<hbm>>) dst(%1281 : memref<8192x1024xbf16, #tpu.memory_space<vmem>>)
    %c1_i32_1510 = arith.constant 1 : i32
    %c1_i32_1511 = arith.constant 1 : i32
    %c0_i32_1512 = arith.constant 0 : i32
    %c1024_i32_1513 = arith.constant 1024 : i32
    %1284 = tpu.memref_slice %0[%c0_i32_1512, %c1024_i32_1513] : memref<8192x2048xbf16, #tpu.memory_space<hbm>> -> memref<8192x1024xbf16, #tpu.memory_space<hbm>>
    %c0_i32_1514 = arith.constant 0 : i32
    %c0_i32_1515 = arith.constant 0 : i32
    %1285 = tpu.memref_slice %2[%c1_i32_1510, %c0_i32_1514, %c0_i32_1515] : memref<2x8192x1024xbf16, #tpu.memory_space<vmem>> -> memref<1x8192x1024xbf16, #tpu.memory_space<vmem>>
    %1286 = tpu.memref_squeeze %1285 : memref<1x8192x1024xbf16, #tpu.memory_space<vmem>> -> memref<8192x1024xbf16, #tpu.memory_space<vmem>>
    %1287 = tpu.memref_slice %3[%c1_i32_1511] : memref<2x!tpu.dma_semaphore, #tpu.memory_space<semaphore_mem>> -> memref<1x!tpu.dma_semaphore, #tpu.memory_space<semaphore_mem>>
    %1288 = tpu.memref_squeeze %1287 : memref<1x!tpu.dma_semaphore, #tpu.memory_space<semaphore_mem>> -> memref<!tpu.dma_semaphore, #tpu.memory_space<semaphore_mem>>
    tpu.enqueue_dma source(%1284 : memref<8192x1024xbf16, #tpu.memory_space<hbm>>) target(%1286 : memref<8192x1024xbf16, #tpu.memory_space<vmem>>) target_semaphore(%1288 : memref<!tpu.dma_semaphore, #tpu.memory_space<semaphore_mem>>)
    %cst_1516 = arith.constant 1.000000e+00 : f32
    %1289 = arith.addf %1278, %cst_1516 : f32
    %c0_i32_1517 = arith.constant 0 : i32
    %c0_i32_1518 = arith.constant 0 : i32
    %c0_i32_1519 = arith.constant 0 : i32
    %c0_i32_1520 = arith.constant 0 : i32
    %1290 = tpu.memref_slice %0[%c0_i32_1519, %c0_i32_1520] : memref<8192x2048xbf16, #tpu.memory_space<hbm>> -> memref<8192x1024xbf16, #tpu.memory_space<hbm>>
    %c0_i32_1521 = arith.constant 0 : i32
    %c0_i32_1522 = arith.constant 0 : i32
    %1291 = tpu.memref_slice %2[%c0_i32_1517, %c0_i32_1521, %c0_i32_1522] : memref<2x8192x1024xbf16, #tpu.memory_space<vmem>> -> memref<1x8192x1024xbf16, #tpu.memory_space<vmem>>
    %1292 = tpu.memref_squeeze %1291 : memref<1x8192x1024xbf16, #tpu.memory_space<vmem>> -> memref<8192x1024xbf16, #tpu.memory_space<vmem>>
    %1293 = tpu.memref_slice %3[%c0_i32_1518] : memref<2x!tpu.dma_semaphore, #tpu.memory_space<semaphore_mem>> -> memref<1x!tpu.dma_semaphore, #tpu.memory_space<semaphore_mem>>
    %1294 = tpu.memref_squeeze %1293 : memref<1x!tpu.dma_semaphore, #tpu.memory_space<semaphore_mem>> -> memref<!tpu.dma_semaphore, #tpu.memory_space<semaphore_mem>>
    tpu.wait_dma2 semaphore(%1294 : memref<!tpu.dma_semaphore, #tpu.memory_space<semaphore_mem>>) src(%1290 : memref<8192x1024xbf16, #tpu.memory_space<hbm>>) dst(%1292 : memref<8192x1024xbf16, #tpu.memory_space<vmem>>)
    %c0_i32_1523 = arith.constant 0 : i32
    %c0_i32_1524 = arith.constant 0 : i32
    %c0_i32_1525 = arith.constant 0 : i32
    %c0_i32_1526 = arith.constant 0 : i32
    %1295 = tpu.memref_slice %0[%c0_i32_1525, %c0_i32_1526] : memref<8192x2048xbf16, #tpu.memory_space<hbm>> -> memref<8192x1024xbf16, #tpu.memory_space<hbm>>
    %c0_i32_1527 = arith.constant 0 : i32
    %c0_i32_1528 = arith.constant 0 : i32
    %1296 = tpu.memref_slice %2[%c0_i32_1523, %c0_i32_1527, %c0_i32_1528] : memref<2x8192x1024xbf16, #tpu.memory_space<vmem>> -> memref<1x8192x1024xbf16, #tpu.memory_space<vmem>>
    %1297 = tpu.memref_squeeze %1296 : memref<1x8192x1024xbf16, #tpu.memory_space<vmem>> -> memref<8192x1024xbf16, #tpu.memory_space<vmem>>
    %1298 = tpu.memref_slice %3[%c0_i32_1524] : memref<2x!tpu.dma_semaphore, #tpu.memory_space<semaphore_mem>> -> memref<1x!tpu.dma_semaphore, #tpu.memory_space<semaphore_mem>>
    %1299 = tpu.memref_squeeze %1298 : memref<1x!tpu.dma_semaphore, #tpu.memory_space<semaphore_mem>> -> memref<!tpu.dma_semaphore, #tpu.memory_space<semaphore_mem>>
    tpu.enqueue_dma source(%1295 : memref<8192x1024xbf16, #tpu.memory_space<hbm>>) target(%1297 : memref<8192x1024xbf16, #tpu.memory_space<vmem>>) target_semaphore(%1299 : memref<!tpu.dma_semaphore, #tpu.memory_space<semaphore_mem>>)
    %cst_1529 = arith.constant 1.000000e+00 : f32
    %1300 = arith.addf %1289, %cst_1529 : f32
    %c1_i32_1530 = arith.constant 1 : i32
    %c1_i32_1531 = arith.constant 1 : i32
    %c0_i32_1532 = arith.constant 0 : i32
    %c1024_i32_1533 = arith.constant 1024 : i32
    %1301 = tpu.memref_slice %0[%c0_i32_1532, %c1024_i32_1533] : memref<8192x2048xbf16, #tpu.memory_space<hbm>> -> memref<8192x1024xbf16, #tpu.memory_space<hbm>>
    %c0_i32_1534 = arith.constant 0 : i32
    %c0_i32_1535 = arith.constant 0 : i32
    %1302 = tpu.memref_slice %2[%c1_i32_1530, %c0_i32_1534, %c0_i32_1535] : memref<2x8192x1024xbf16, #tpu.memory_space<vmem>> -> memref<1x8192x1024xbf16, #tpu.memory_space<vmem>>
    %1303 = tpu.memref_squeeze %1302 : memref<1x8192x1024xbf16, #tpu.memory_space<vmem>> -> memref<8192x1024xbf16, #tpu.memory_space<vmem>>
    %1304 = tpu.memref_slice %3[%c1_i32_1531] : memref<2x!tpu.dma_semaphore, #tpu.memory_space<semaphore_mem>> -> memref<1x!tpu.dma_semaphore, #tpu.memory_space<semaphore_mem>>
    %1305 = tpu.memref_squeeze %1304 : memref<1x!tpu.dma_semaphore, #tpu.memory_space<semaphore_mem>> -> memref<!tpu.dma_semaphore, #tpu.memory_space<semaphore_mem>>
    tpu.wait_dma2 semaphore(%1305 : memref<!tpu.dma_semaphore, #tpu.memory_space<semaphore_mem>>) src(%1301 : memref<8192x1024xbf16, #tpu.memory_space<hbm>>) dst(%1303 : memref<8192x1024xbf16, #tpu.memory_space<vmem>>)
    %c1_i32_1536 = arith.constant 1 : i32
    %c1_i32_1537 = arith.constant 1 : i32
    %c0_i32_1538 = arith.constant 0 : i32
    %c1024_i32_1539 = arith.constant 1024 : i32
    %1306 = tpu.memref_slice %0[%c0_i32_1538, %c1024_i32_1539] : memref<8192x2048xbf16, #tpu.memory_space<hbm>> -> memref<8192x1024xbf16, #tpu.memory_space<hbm>>
    %c0_i32_1540 = arith.constant 0 : i32
    %c0_i32_1541 = arith.constant 0 : i32
    %1307 = tpu.memref_slice %2[%c1_i32_1536, %c0_i32_1540, %c0_i32_1541] : memref<2x8192x1024xbf16, #tpu.memory_space<vmem>> -> memref<1x8192x1024xbf16, #tpu.memory_space<vmem>>
    %1308 = tpu.memref_squeeze %1307 : memref<1x8192x1024xbf16, #tpu.memory_space<vmem>> -> memref<8192x1024xbf16, #tpu.memory_space<vmem>>
    %1309 = tpu.memref_slice %3[%c1_i32_1537] : memref<2x!tpu.dma_semaphore, #tpu.memory_space<semaphore_mem>> -> memref<1x!tpu.dma_semaphore, #tpu.memory_space<semaphore_mem>>
    %1310 = tpu.memref_squeeze %1309 : memref<1x!tpu.dma_semaphore, #tpu.memory_space<semaphore_mem>> -> memref<!tpu.dma_semaphore, #tpu.memory_space<semaphore_mem>>
    tpu.enqueue_dma source(%1306 : memref<8192x1024xbf16, #tpu.memory_space<hbm>>) target(%1308 : memref<8192x1024xbf16, #tpu.memory_space<vmem>>) target_semaphore(%1310 : memref<!tpu.dma_semaphore, #tpu.memory_space<semaphore_mem>>)
    %cst_1542 = arith.constant 1.000000e+00 : f32
    %1311 = arith.addf %1300, %cst_1542 : f32
    %c0_i32_1543 = arith.constant 0 : i32
    %c0_i32_1544 = arith.constant 0 : i32
    %c0_i32_1545 = arith.constant 0 : i32
    %c0_i32_1546 = arith.constant 0 : i32
    %1312 = tpu.memref_slice %0[%c0_i32_1545, %c0_i32_1546] : memref<8192x2048xbf16, #tpu.memory_space<hbm>> -> memref<8192x1024xbf16, #tpu.memory_space<hbm>>
    %c0_i32_1547 = arith.constant 0 : i32
    %c0_i32_1548 = arith.constant 0 : i32
    %1313 = tpu.memref_slice %2[%c0_i32_1543, %c0_i32_1547, %c0_i32_1548] : memref<2x8192x1024xbf16, #tpu.memory_space<vmem>> -> memref<1x8192x1024xbf16, #tpu.memory_space<vmem>>
    %1314 = tpu.memref_squeeze %1313 : memref<1x8192x1024xbf16, #tpu.memory_space<vmem>> -> memref<8192x1024xbf16, #tpu.memory_space<vmem>>
    %1315 = tpu.memref_slice %3[%c0_i32_1544] : memref<2x!tpu.dma_semaphore, #tpu.memory_space<semaphore_mem>> -> memref<1x!tpu.dma_semaphore, #tpu.memory_space<semaphore_mem>>
    %1316 = tpu.memref_squeeze %1315 : memref<1x!tpu.dma_semaphore, #tpu.memory_space<semaphore_mem>> -> memref<!tpu.dma_semaphore, #tpu.memory_space<semaphore_mem>>
    tpu.wait_dma2 semaphore(%1316 : memref<!tpu.dma_semaphore, #tpu.memory_space<semaphore_mem>>) src(%1312 : memref<8192x1024xbf16, #tpu.memory_space<hbm>>) dst(%1314 : memref<8192x1024xbf16, #tpu.memory_space<vmem>>)
    %c0_i32_1549 = arith.constant 0 : i32
    %c0_i32_1550 = arith.constant 0 : i32
    %c0_i32_1551 = arith.constant 0 : i32
    %c0_i32_1552 = arith.constant 0 : i32
    %1317 = tpu.memref_slice %0[%c0_i32_1551, %c0_i32_1552] : memref<8192x2048xbf16, #tpu.memory_space<hbm>> -> memref<8192x1024xbf16, #tpu.memory_space<hbm>>
    %c0_i32_1553 = arith.constant 0 : i32
    %c0_i32_1554 = arith.constant 0 : i32
    %1318 = tpu.memref_slice %2[%c0_i32_1549, %c0_i32_1553, %c0_i32_1554] : memref<2x8192x1024xbf16, #tpu.memory_space<vmem>> -> memref<1x8192x1024xbf16, #tpu.memory_space<vmem>>
    %1319 = tpu.memref_squeeze %1318 : memref<1x8192x1024xbf16, #tpu.memory_space<vmem>> -> memref<8192x1024xbf16, #tpu.memory_space<vmem>>
    %1320 = tpu.memref_slice %3[%c0_i32_1550] : memref<2x!tpu.dma_semaphore, #tpu.memory_space<semaphore_mem>> -> memref<1x!tpu.dma_semaphore, #tpu.memory_space<semaphore_mem>>
    %1321 = tpu.memref_squeeze %1320 : memref<1x!tpu.dma_semaphore, #tpu.memory_space<semaphore_mem>> -> memref<!tpu.dma_semaphore, #tpu.memory_space<semaphore_mem>>
    tpu.enqueue_dma source(%1317 : memref<8192x1024xbf16, #tpu.memory_space<hbm>>) target(%1319 : memref<8192x1024xbf16, #tpu.memory_space<vmem>>) target_semaphore(%1321 : memref<!tpu.dma_semaphore, #tpu.memory_space<semaphore_mem>>)
    %cst_1555 = arith.constant 1.000000e+00 : f32
    %1322 = arith.addf %1311, %cst_1555 : f32
    %c1_i32_1556 = arith.constant 1 : i32
    %c1_i32_1557 = arith.constant 1 : i32
    %c0_i32_1558 = arith.constant 0 : i32
    %c1024_i32_1559 = arith.constant 1024 : i32
    %1323 = tpu.memref_slice %0[%c0_i32_1558, %c1024_i32_1559] : memref<8192x2048xbf16, #tpu.memory_space<hbm>> -> memref<8192x1024xbf16, #tpu.memory_space<hbm>>
    %c0_i32_1560 = arith.constant 0 : i32
    %c0_i32_1561 = arith.constant 0 : i32
    %1324 = tpu.memref_slice %2[%c1_i32_1556, %c0_i32_1560, %c0_i32_1561] : memref<2x8192x1024xbf16, #tpu.memory_space<vmem>> -> memref<1x8192x1024xbf16, #tpu.memory_space<vmem>>
    %1325 = tpu.memref_squeeze %1324 : memref<1x8192x1024xbf16, #tpu.memory_space<vmem>> -> memref<8192x1024xbf16, #tpu.memory_space<vmem>>
    %1326 = tpu.memref_slice %3[%c1_i32_1557] : memref<2x!tpu.dma_semaphore, #tpu.memory_space<semaphore_mem>> -> memref<1x!tpu.dma_semaphore, #tpu.memory_space<semaphore_mem>>
    %1327 = tpu.memref_squeeze %1326 : memref<1x!tpu.dma_semaphore, #tpu.memory_space<semaphore_mem>> -> memref<!tpu.dma_semaphore, #tpu.memory_space<semaphore_mem>>
    tpu.wait_dma2 semaphore(%1327 : memref<!tpu.dma_semaphore, #tpu.memory_space<semaphore_mem>>) src(%1323 : memref<8192x1024xbf16, #tpu.memory_space<hbm>>) dst(%1325 : memref<8192x1024xbf16, #tpu.memory_space<vmem>>)
    %c1_i32_1562 = arith.constant 1 : i32
    %c1_i32_1563 = arith.constant 1 : i32
    %c0_i32_1564 = arith.constant 0 : i32
    %c1024_i32_1565 = arith.constant 1024 : i32
    %1328 = tpu.memref_slice %0[%c0_i32_1564, %c1024_i32_1565] : memref<8192x2048xbf16, #tpu.memory_space<hbm>> -> memref<8192x1024xbf16, #tpu.memory_space<hbm>>
    %c0_i32_1566 = arith.constant 0 : i32
    %c0_i32_1567 = arith.constant 0 : i32
    %1329 = tpu.memref_slice %2[%c1_i32_1562, %c0_i32_1566, %c0_i32_1567] : memref<2x8192x1024xbf16, #tpu.memory_space<vmem>> -> memref<1x8192x1024xbf16, #tpu.memory_space<vmem>>
    %1330 = tpu.memref_squeeze %1329 : memref<1x8192x1024xbf16, #tpu.memory_space<vmem>> -> memref<8192x1024xbf16, #tpu.memory_space<vmem>>
    %1331 = tpu.memref_slice %3[%c1_i32_1563] : memref<2x!tpu.dma_semaphore, #tpu.memory_space<semaphore_mem>> -> memref<1x!tpu.dma_semaphore, #tpu.memory_space<semaphore_mem>>
    %1332 = tpu.memref_squeeze %1331 : memref<1x!tpu.dma_semaphore, #tpu.memory_space<semaphore_mem>> -> memref<!tpu.dma_semaphore, #tpu.memory_space<semaphore_mem>>
    tpu.enqueue_dma source(%1328 : memref<8192x1024xbf16, #tpu.memory_space<hbm>>) target(%1330 : memref<8192x1024xbf16, #tpu.memory_space<vmem>>) target_semaphore(%1332 : memref<!tpu.dma_semaphore, #tpu.memory_space<semaphore_mem>>)
    %cst_1568 = arith.constant 1.000000e+00 : f32
    %1333 = arith.addf %1322, %cst_1568 : f32
    %c0_i32_1569 = arith.constant 0 : i32
    %c0_i32_1570 = arith.constant 0 : i32
    %c0_i32_1571 = arith.constant 0 : i32
    %c0_i32_1572 = arith.constant 0 : i32
    %1334 = tpu.memref_slice %0[%c0_i32_1571, %c0_i32_1572] : memref<8192x2048xbf16, #tpu.memory_space<hbm>> -> memref<8192x1024xbf16, #tpu.memory_space<hbm>>
    %c0_i32_1573 = arith.constant 0 : i32
    %c0_i32_1574 = arith.constant 0 : i32
    %1335 = tpu.memref_slice %2[%c0_i32_1569, %c0_i32_1573, %c0_i32_1574] : memref<2x8192x1024xbf16, #tpu.memory_space<vmem>> -> memref<1x8192x1024xbf16, #tpu.memory_space<vmem>>
    %1336 = tpu.memref_squeeze %1335 : memref<1x8192x1024xbf16, #tpu.memory_space<vmem>> -> memref<8192x1024xbf16, #tpu.memory_space<vmem>>
    %1337 = tpu.memref_slice %3[%c0_i32_1570] : memref<2x!tpu.dma_semaphore, #tpu.memory_space<semaphore_mem>> -> memref<1x!tpu.dma_semaphore, #tpu.memory_space<semaphore_mem>>
    %1338 = tpu.memref_squeeze %1337 : memref<1x!tpu.dma_semaphore, #tpu.memory_space<semaphore_mem>> -> memref<!tpu.dma_semaphore, #tpu.memory_space<semaphore_mem>>
    tpu.wait_dma2 semaphore(%1338 : memref<!tpu.dma_semaphore, #tpu.memory_space<semaphore_mem>>) src(%1334 : memref<8192x1024xbf16, #tpu.memory_space<hbm>>) dst(%1336 : memref<8192x1024xbf16, #tpu.memory_space<vmem>>)
    %c0_i32_1575 = arith.constant 0 : i32
    %c0_i32_1576 = arith.constant 0 : i32
    %c0_i32_1577 = arith.constant 0 : i32
    %c0_i32_1578 = arith.constant 0 : i32
    %1339 = tpu.memref_slice %0[%c0_i32_1577, %c0_i32_1578] : memref<8192x2048xbf16, #tpu.memory_space<hbm>> -> memref<8192x1024xbf16, #tpu.memory_space<hbm>>
    %c0_i32_1579 = arith.constant 0 : i32
    %c0_i32_1580 = arith.constant 0 : i32
    %1340 = tpu.memref_slice %2[%c0_i32_1575, %c0_i32_1579, %c0_i32_1580] : memref<2x8192x1024xbf16, #tpu.memory_space<vmem>> -> memref<1x8192x1024xbf16, #tpu.memory_space<vmem>>
    %1341 = tpu.memref_squeeze %1340 : memref<1x8192x1024xbf16, #tpu.memory_space<vmem>> -> memref<8192x1024xbf16, #tpu.memory_space<vmem>>
    %1342 = tpu.memref_slice %3[%c0_i32_1576] : memref<2x!tpu.dma_semaphore, #tpu.memory_space<semaphore_mem>> -> memref<1x!tpu.dma_semaphore, #tpu.memory_space<semaphore_mem>>
    %1343 = tpu.memref_squeeze %1342 : memref<1x!tpu.dma_semaphore, #tpu.memory_space<semaphore_mem>> -> memref<!tpu.dma_semaphore, #tpu.memory_space<semaphore_mem>>
    tpu.enqueue_dma source(%1339 : memref<8192x1024xbf16, #tpu.memory_space<hbm>>) target(%1341 : memref<8192x1024xbf16, #tpu.memory_space<vmem>>) target_semaphore(%1343 : memref<!tpu.dma_semaphore, #tpu.memory_space<semaphore_mem>>)
    %cst_1581 = arith.constant 1.000000e+00 : f32
    %1344 = arith.addf %1333, %cst_1581 : f32
    %c1_i32_1582 = arith.constant 1 : i32
    %c1_i32_1583 = arith.constant 1 : i32
    %c0_i32_1584 = arith.constant 0 : i32
    %c1024_i32_1585 = arith.constant 1024 : i32
    %1345 = tpu.memref_slice %0[%c0_i32_1584, %c1024_i32_1585] : memref<8192x2048xbf16, #tpu.memory_space<hbm>> -> memref<8192x1024xbf16, #tpu.memory_space<hbm>>
    %c0_i32_1586 = arith.constant 0 : i32
    %c0_i32_1587 = arith.constant 0 : i32
    %1346 = tpu.memref_slice %2[%c1_i32_1582, %c0_i32_1586, %c0_i32_1587] : memref<2x8192x1024xbf16, #tpu.memory_space<vmem>> -> memref<1x8192x1024xbf16, #tpu.memory_space<vmem>>
    %1347 = tpu.memref_squeeze %1346 : memref<1x8192x1024xbf16, #tpu.memory_space<vmem>> -> memref<8192x1024xbf16, #tpu.memory_space<vmem>>
    %1348 = tpu.memref_slice %3[%c1_i32_1583] : memref<2x!tpu.dma_semaphore, #tpu.memory_space<semaphore_mem>> -> memref<1x!tpu.dma_semaphore, #tpu.memory_space<semaphore_mem>>
    %1349 = tpu.memref_squeeze %1348 : memref<1x!tpu.dma_semaphore, #tpu.memory_space<semaphore_mem>> -> memref<!tpu.dma_semaphore, #tpu.memory_space<semaphore_mem>>
    tpu.wait_dma2 semaphore(%1349 : memref<!tpu.dma_semaphore, #tpu.memory_space<semaphore_mem>>) src(%1345 : memref<8192x1024xbf16, #tpu.memory_space<hbm>>) dst(%1347 : memref<8192x1024xbf16, #tpu.memory_space<vmem>>)
    %c1_i32_1588 = arith.constant 1 : i32
    %c1_i32_1589 = arith.constant 1 : i32
    %c0_i32_1590 = arith.constant 0 : i32
    %c1024_i32_1591 = arith.constant 1024 : i32
    %1350 = tpu.memref_slice %0[%c0_i32_1590, %c1024_i32_1591] : memref<8192x2048xbf16, #tpu.memory_space<hbm>> -> memref<8192x1024xbf16, #tpu.memory_space<hbm>>
    %c0_i32_1592 = arith.constant 0 : i32
    %c0_i32_1593 = arith.constant 0 : i32
    %1351 = tpu.memref_slice %2[%c1_i32_1588, %c0_i32_1592, %c0_i32_1593] : memref<2x8192x1024xbf16, #tpu.memory_space<vmem>> -> memref<1x8192x1024xbf16, #tpu.memory_space<vmem>>
    %1352 = tpu.memref_squeeze %1351 : memref<1x8192x1024xbf16, #tpu.memory_space<vmem>> -> memref<8192x1024xbf16, #tpu.memory_space<vmem>>
    %1353 = tpu.memref_slice %3[%c1_i32_1589] : memref<2x!tpu.dma_semaphore, #tpu.memory_space<semaphore_mem>> -> memref<1x!tpu.dma_semaphore, #tpu.memory_space<semaphore_mem>>
    %1354 = tpu.memref_squeeze %1353 : memref<1x!tpu.dma_semaphore, #tpu.memory_space<semaphore_mem>> -> memref<!tpu.dma_semaphore, #tpu.memory_space<semaphore_mem>>
    tpu.enqueue_dma source(%1350 : memref<8192x1024xbf16, #tpu.memory_space<hbm>>) target(%1352 : memref<8192x1024xbf16, #tpu.memory_space<vmem>>) target_semaphore(%1354 : memref<!tpu.dma_semaphore, #tpu.memory_space<semaphore_mem>>)
    %cst_1594 = arith.constant 1.000000e+00 : f32
    %1355 = arith.addf %1344, %cst_1594 : f32
    %c0_i32_1595 = arith.constant 0 : i32
    %c0_i32_1596 = arith.constant 0 : i32
    %c0_i32_1597 = arith.constant 0 : i32
    %c0_i32_1598 = arith.constant 0 : i32
    %1356 = tpu.memref_slice %0[%c0_i32_1597, %c0_i32_1598] : memref<8192x2048xbf16, #tpu.memory_space<hbm>> -> memref<8192x1024xbf16, #tpu.memory_space<hbm>>
    %c0_i32_1599 = arith.constant 0 : i32
    %c0_i32_1600 = arith.constant 0 : i32
    %1357 = tpu.memref_slice %2[%c0_i32_1595, %c0_i32_1599, %c0_i32_1600] : memref<2x8192x1024xbf16, #tpu.memory_space<vmem>> -> memref<1x8192x1024xbf16, #tpu.memory_space<vmem>>
    %1358 = tpu.memref_squeeze %1357 : memref<1x8192x1024xbf16, #tpu.memory_space<vmem>> -> memref<8192x1024xbf16, #tpu.memory_space<vmem>>
    %1359 = tpu.memref_slice %3[%c0_i32_1596] : memref<2x!tpu.dma_semaphore, #tpu.memory_space<semaphore_mem>> -> memref<1x!tpu.dma_semaphore, #tpu.memory_space<semaphore_mem>>
    %1360 = tpu.memref_squeeze %1359 : memref<1x!tpu.dma_semaphore, #tpu.memory_space<semaphore_mem>> -> memref<!tpu.dma_semaphore, #tpu.memory_space<semaphore_mem>>
    tpu.wait_dma2 semaphore(%1360 : memref<!tpu.dma_semaphore, #tpu.memory_space<semaphore_mem>>) src(%1356 : memref<8192x1024xbf16, #tpu.memory_space<hbm>>) dst(%1358 : memref<8192x1024xbf16, #tpu.memory_space<vmem>>)
    %c0_i32_1601 = arith.constant 0 : i32
    %c0_i32_1602 = arith.constant 0 : i32
    %c0_i32_1603 = arith.constant 0 : i32
    %c0_i32_1604 = arith.constant 0 : i32
    %1361 = tpu.memref_slice %0[%c0_i32_1603, %c0_i32_1604] : memref<8192x2048xbf16, #tpu.memory_space<hbm>> -> memref<8192x1024xbf16, #tpu.memory_space<hbm>>
    %c0_i32_1605 = arith.constant 0 : i32
    %c0_i32_1606 = arith.constant 0 : i32
    %1362 = tpu.memref_slice %2[%c0_i32_1601, %c0_i32_1605, %c0_i32_1606] : memref<2x8192x1024xbf16, #tpu.memory_space<vmem>> -> memref<1x8192x1024xbf16, #tpu.memory_space<vmem>>
    %1363 = tpu.memref_squeeze %1362 : memref<1x8192x1024xbf16, #tpu.memory_space<vmem>> -> memref<8192x1024xbf16, #tpu.memory_space<vmem>>
    %1364 = tpu.memref_slice %3[%c0_i32_1602] : memref<2x!tpu.dma_semaphore, #tpu.memory_space<semaphore_mem>> -> memref<1x!tpu.dma_semaphore, #tpu.memory_space<semaphore_mem>>
    %1365 = tpu.memref_squeeze %1364 : memref<1x!tpu.dma_semaphore, #tpu.memory_space<semaphore_mem>> -> memref<!tpu.dma_semaphore, #tpu.memory_space<semaphore_mem>>
    tpu.enqueue_dma source(%1361 : memref<8192x1024xbf16, #tpu.memory_space<hbm>>) target(%1363 : memref<8192x1024xbf16, #tpu.memory_space<vmem>>) target_semaphore(%1365 : memref<!tpu.dma_semaphore, #tpu.memory_space<semaphore_mem>>)
    %cst_1607 = arith.constant 1.000000e+00 : f32
    %1366 = arith.addf %1355, %cst_1607 : f32
    %c1_i32_1608 = arith.constant 1 : i32
    %c1_i32_1609 = arith.constant 1 : i32
    %c0_i32_1610 = arith.constant 0 : i32
    %c1024_i32_1611 = arith.constant 1024 : i32
    %1367 = tpu.memref_slice %0[%c0_i32_1610, %c1024_i32_1611] : memref<8192x2048xbf16, #tpu.memory_space<hbm>> -> memref<8192x1024xbf16, #tpu.memory_space<hbm>>
    %c0_i32_1612 = arith.constant 0 : i32
    %c0_i32_1613 = arith.constant 0 : i32
    %1368 = tpu.memref_slice %2[%c1_i32_1608, %c0_i32_1612, %c0_i32_1613] : memref<2x8192x1024xbf16, #tpu.memory_space<vmem>> -> memref<1x8192x1024xbf16, #tpu.memory_space<vmem>>
    %1369 = tpu.memref_squeeze %1368 : memref<1x8192x1024xbf16, #tpu.memory_space<vmem>> -> memref<8192x1024xbf16, #tpu.memory_space<vmem>>
    %1370 = tpu.memref_slice %3[%c1_i32_1609] : memref<2x!tpu.dma_semaphore, #tpu.memory_space<semaphore_mem>> -> memref<1x!tpu.dma_semaphore, #tpu.memory_space<semaphore_mem>>
    %1371 = tpu.memref_squeeze %1370 : memref<1x!tpu.dma_semaphore, #tpu.memory_space<semaphore_mem>> -> memref<!tpu.dma_semaphore, #tpu.memory_space<semaphore_mem>>
    tpu.wait_dma2 semaphore(%1371 : memref<!tpu.dma_semaphore, #tpu.memory_space<semaphore_mem>>) src(%1367 : memref<8192x1024xbf16, #tpu.memory_space<hbm>>) dst(%1369 : memref<8192x1024xbf16, #tpu.memory_space<vmem>>)
    %c1_i32_1614 = arith.constant 1 : i32
    %c1_i32_1615 = arith.constant 1 : i32
    %c0_i32_1616 = arith.constant 0 : i32
    %c1024_i32_1617 = arith.constant 1024 : i32
    %1372 = tpu.memref_slice %0[%c0_i32_1616, %c1024_i32_1617] : memref<8192x2048xbf16, #tpu.memory_space<hbm>> -> memref<8192x1024xbf16, #tpu.memory_space<hbm>>
    %c0_i32_1618 = arith.constant 0 : i32
    %c0_i32_1619 = arith.constant 0 : i32
    %1373 = tpu.memref_slice %2[%c1_i32_1614, %c0_i32_1618, %c0_i32_1619] : memref<2x8192x1024xbf16, #tpu.memory_space<vmem>> -> memref<1x8192x1024xbf16, #tpu.memory_space<vmem>>
    %1374 = tpu.memref_squeeze %1373 : memref<1x8192x1024xbf16, #tpu.memory_space<vmem>> -> memref<8192x1024xbf16, #tpu.memory_space<vmem>>
    %1375 = tpu.memref_slice %3[%c1_i32_1615] : memref<2x!tpu.dma_semaphore, #tpu.memory_space<semaphore_mem>> -> memref<1x!tpu.dma_semaphore, #tpu.memory_space<semaphore_mem>>
    %1376 = tpu.memref_squeeze %1375 : memref<1x!tpu.dma_semaphore, #tpu.memory_space<semaphore_mem>> -> memref<!tpu.dma_semaphore, #tpu.memory_space<semaphore_mem>>
    tpu.enqueue_dma source(%1372 : memref<8192x1024xbf16, #tpu.memory_space<hbm>>) target(%1374 : memref<8192x1024xbf16, #tpu.memory_space<vmem>>) target_semaphore(%1376 : memref<!tpu.dma_semaphore, #tpu.memory_space<semaphore_mem>>)
    %cst_1620 = arith.constant 1.000000e+00 : f32
    %1377 = arith.addf %1366, %cst_1620 : f32
    %c0_i32_1621 = arith.constant 0 : i32
    %c0_i32_1622 = arith.constant 0 : i32
    %c0_i32_1623 = arith.constant 0 : i32
    %c0_i32_1624 = arith.constant 0 : i32
    %1378 = tpu.memref_slice %0[%c0_i32_1623, %c0_i32_1624] : memref<8192x2048xbf16, #tpu.memory_space<hbm>> -> memref<8192x1024xbf16, #tpu.memory_space<hbm>>
    %c0_i32_1625 = arith.constant 0 : i32
    %c0_i32_1626 = arith.constant 0 : i32
    %1379 = tpu.memref_slice %2[%c0_i32_1621, %c0_i32_1625, %c0_i32_1626] : memref<2x8192x1024xbf16, #tpu.memory_space<vmem>> -> memref<1x8192x1024xbf16, #tpu.memory_space<vmem>>
    %1380 = tpu.memref_squeeze %1379 : memref<1x8192x1024xbf16, #tpu.memory_space<vmem>> -> memref<8192x1024xbf16, #tpu.memory_space<vmem>>
    %1381 = tpu.memref_slice %3[%c0_i32_1622] : memref<2x!tpu.dma_semaphore, #tpu.memory_space<semaphore_mem>> -> memref<1x!tpu.dma_semaphore, #tpu.memory_space<semaphore_mem>>
    %1382 = tpu.memref_squeeze %1381 : memref<1x!tpu.dma_semaphore, #tpu.memory_space<semaphore_mem>> -> memref<!tpu.dma_semaphore, #tpu.memory_space<semaphore_mem>>
    tpu.wait_dma2 semaphore(%1382 : memref<!tpu.dma_semaphore, #tpu.memory_space<semaphore_mem>>) src(%1378 : memref<8192x1024xbf16, #tpu.memory_space<hbm>>) dst(%1380 : memref<8192x1024xbf16, #tpu.memory_space<vmem>>)
    %c0_i32_1627 = arith.constant 0 : i32
    %c0_i32_1628 = arith.constant 0 : i32
    %c0_i32_1629 = arith.constant 0 : i32
    %c0_i32_1630 = arith.constant 0 : i32
    %1383 = tpu.memref_slice %0[%c0_i32_1629, %c0_i32_1630] : memref<8192x2048xbf16, #tpu.memory_space<hbm>> -> memref<8192x1024xbf16, #tpu.memory_space<hbm>>
    %c0_i32_1631 = arith.constant 0 : i32
    %c0_i32_1632 = arith.constant 0 : i32
    %1384 = tpu.memref_slice %2[%c0_i32_1627, %c0_i32_1631, %c0_i32_1632] : memref<2x8192x1024xbf16, #tpu.memory_space<vmem>> -> memref<1x8192x1024xbf16, #tpu.memory_space<vmem>>
    %1385 = tpu.memref_squeeze %1384 : memref<1x8192x1024xbf16, #tpu.memory_space<vmem>> -> memref<8192x1024xbf16, #tpu.memory_space<vmem>>
    %1386 = tpu.memref_slice %3[%c0_i32_1628] : memref<2x!tpu.dma_semaphore, #tpu.memory_space<semaphore_mem>> -> memref<1x!tpu.dma_semaphore, #tpu.memory_space<semaphore_mem>>
    %1387 = tpu.memref_squeeze %1386 : memref<1x!tpu.dma_semaphore, #tpu.memory_space<semaphore_mem>> -> memref<!tpu.dma_semaphore, #tpu.memory_space<semaphore_mem>>
    tpu.enqueue_dma source(%1383 : memref<8192x1024xbf16, #tpu.memory_space<hbm>>) target(%1385 : memref<8192x1024xbf16, #tpu.memory_space<vmem>>) target_semaphore(%1387 : memref<!tpu.dma_semaphore, #tpu.memory_space<semaphore_mem>>)
    %cst_1633 = arith.constant 1.000000e+00 : f32
    %1388 = arith.addf %1377, %cst_1633 : f32
    %c1_i32_1634 = arith.constant 1 : i32
    %c1_i32_1635 = arith.constant 1 : i32
    %c0_i32_1636 = arith.constant 0 : i32
    %c1024_i32_1637 = arith.constant 1024 : i32
    %1389 = tpu.memref_slice %0[%c0_i32_1636, %c1024_i32_1637] : memref<8192x2048xbf16, #tpu.memory_space<hbm>> -> memref<8192x1024xbf16, #tpu.memory_space<hbm>>
    %c0_i32_1638 = arith.constant 0 : i32
    %c0_i32_1639 = arith.constant 0 : i32
    %1390 = tpu.memref_slice %2[%c1_i32_1634, %c0_i32_1638, %c0_i32_1639] : memref<2x8192x1024xbf16, #tpu.memory_space<vmem>> -> memref<1x8192x1024xbf16, #tpu.memory_space<vmem>>
    %1391 = tpu.memref_squeeze %1390 : memref<1x8192x1024xbf16, #tpu.memory_space<vmem>> -> memref<8192x1024xbf16, #tpu.memory_space<vmem>>
    %1392 = tpu.memref_slice %3[%c1_i32_1635] : memref<2x!tpu.dma_semaphore, #tpu.memory_space<semaphore_mem>> -> memref<1x!tpu.dma_semaphore, #tpu.memory_space<semaphore_mem>>
    %1393 = tpu.memref_squeeze %1392 : memref<1x!tpu.dma_semaphore, #tpu.memory_space<semaphore_mem>> -> memref<!tpu.dma_semaphore, #tpu.memory_space<semaphore_mem>>
    tpu.wait_dma2 semaphore(%1393 : memref<!tpu.dma_semaphore, #tpu.memory_space<semaphore_mem>>) src(%1389 : memref<8192x1024xbf16, #tpu.memory_space<hbm>>) dst(%1391 : memref<8192x1024xbf16, #tpu.memory_space<vmem>>)
    %c1_i32_1640 = arith.constant 1 : i32
    %c1_i32_1641 = arith.constant 1 : i32
    %c0_i32_1642 = arith.constant 0 : i32
    %c1024_i32_1643 = arith.constant 1024 : i32
    %1394 = tpu.memref_slice %0[%c0_i32_1642, %c1024_i32_1643] : memref<8192x2048xbf16, #tpu.memory_space<hbm>> -> memref<8192x1024xbf16, #tpu.memory_space<hbm>>
    %c0_i32_1644 = arith.constant 0 : i32
    %c0_i32_1645 = arith.constant 0 : i32
    %1395 = tpu.memref_slice %2[%c1_i32_1640, %c0_i32_1644, %c0_i32_1645] : memref<2x8192x1024xbf16, #tpu.memory_space<vmem>> -> memref<1x8192x1024xbf16, #tpu.memory_space<vmem>>
    %1396 = tpu.memref_squeeze %1395 : memref<1x8192x1024xbf16, #tpu.memory_space<vmem>> -> memref<8192x1024xbf16, #tpu.memory_space<vmem>>
    %1397 = tpu.memref_slice %3[%c1_i32_1641] : memref<2x!tpu.dma_semaphore, #tpu.memory_space<semaphore_mem>> -> memref<1x!tpu.dma_semaphore, #tpu.memory_space<semaphore_mem>>
    %1398 = tpu.memref_squeeze %1397 : memref<1x!tpu.dma_semaphore, #tpu.memory_space<semaphore_mem>> -> memref<!tpu.dma_semaphore, #tpu.memory_space<semaphore_mem>>
    tpu.enqueue_dma source(%1394 : memref<8192x1024xbf16, #tpu.memory_space<hbm>>) target(%1396 : memref<8192x1024xbf16, #tpu.memory_space<vmem>>) target_semaphore(%1398 : memref<!tpu.dma_semaphore, #tpu.memory_space<semaphore_mem>>)
    %cst_1646 = arith.constant 1.000000e+00 : f32
    %1399 = arith.addf %1388, %cst_1646 : f32
    %c0_i32_1647 = arith.constant 0 : i32
    %c0_i32_1648 = arith.constant 0 : i32
    %c0_i32_1649 = arith.constant 0 : i32
    %c0_i32_1650 = arith.constant 0 : i32
    %1400 = tpu.memref_slice %0[%c0_i32_1649, %c0_i32_1650] : memref<8192x2048xbf16, #tpu.memory_space<hbm>> -> memref<8192x1024xbf16, #tpu.memory_space<hbm>>
    %c0_i32_1651 = arith.constant 0 : i32
    %c0_i32_1652 = arith.constant 0 : i32
    %1401 = tpu.memref_slice %2[%c0_i32_1647, %c0_i32_1651, %c0_i32_1652] : memref<2x8192x1024xbf16, #tpu.memory_space<vmem>> -> memref<1x8192x1024xbf16, #tpu.memory_space<vmem>>
    %1402 = tpu.memref_squeeze %1401 : memref<1x8192x1024xbf16, #tpu.memory_space<vmem>> -> memref<8192x1024xbf16, #tpu.memory_space<vmem>>
    %1403 = tpu.memref_slice %3[%c0_i32_1648] : memref<2x!tpu.dma_semaphore, #tpu.memory_space<semaphore_mem>> -> memref<1x!tpu.dma_semaphore, #tpu.memory_space<semaphore_mem>>
    %1404 = tpu.memref_squeeze %1403 : memref<1x!tpu.dma_semaphore, #tpu.memory_space<semaphore_mem>> -> memref<!tpu.dma_semaphore, #tpu.memory_space<semaphore_mem>>
    tpu.wait_dma2 semaphore(%1404 : memref<!tpu.dma_semaphore, #tpu.memory_space<semaphore_mem>>) src(%1400 : memref<8192x1024xbf16, #tpu.memory_space<hbm>>) dst(%1402 : memref<8192x1024xbf16, #tpu.memory_space<vmem>>)
    %cst_1653 = arith.constant 1.000000e+00 : f32
    %1405 = arith.addf %1399, %cst_1653 : f32
    %c1_i32_1654 = arith.constant 1 : i32
    %c1_i32_1655 = arith.constant 1 : i32
    %c0_i32_1656 = arith.constant 0 : i32
    %c1024_i32_1657 = arith.constant 1024 : i32
    %1406 = tpu.memref_slice %0[%c0_i32_1656, %c1024_i32_1657] : memref<8192x2048xbf16, #tpu.memory_space<hbm>> -> memref<8192x1024xbf16, #tpu.memory_space<hbm>>
    %c0_i32_1658 = arith.constant 0 : i32
    %c0_i32_1659 = arith.constant 0 : i32
    %1407 = tpu.memref_slice %2[%c1_i32_1654, %c0_i32_1658, %c0_i32_1659] : memref<2x8192x1024xbf16, #tpu.memory_space<vmem>> -> memref<1x8192x1024xbf16, #tpu.memory_space<vmem>>
    %1408 = tpu.memref_squeeze %1407 : memref<1x8192x1024xbf16, #tpu.memory_space<vmem>> -> memref<8192x1024xbf16, #tpu.memory_space<vmem>>
    %1409 = tpu.memref_slice %3[%c1_i32_1655] : memref<2x!tpu.dma_semaphore, #tpu.memory_space<semaphore_mem>> -> memref<1x!tpu.dma_semaphore, #tpu.memory_space<semaphore_mem>>
    %1410 = tpu.memref_squeeze %1409 : memref<1x!tpu.dma_semaphore, #tpu.memory_space<semaphore_mem>> -> memref<!tpu.dma_semaphore, #tpu.memory_space<semaphore_mem>>
    tpu.wait_dma2 semaphore(%1410 : memref<!tpu.dma_semaphore, #tpu.memory_space<semaphore_mem>>) src(%1406 : memref<8192x1024xbf16, #tpu.memory_space<hbm>>) dst(%1408 : memref<8192x1024xbf16, #tpu.memory_space<vmem>>)
    %cst_1660 = arith.constant 1.000000e+00 : f32
    %1411 = arith.addf %1405, %cst_1660 : f32
    %1412 = vector.broadcast %1411 : f32 to vector<1xf32>
    %c0 = arith.constant 0 : index
    %1413 = vector.load %1[%c0] : memref<1xf32, #tpu.memory_space<vmem>>, vector<1xf32>
    tpu.vector_store %1[%c0], %1412 {strides = array<i32>} : memref<1xf32, #tpu.memory_space<vmem>>, vector<1xf32>, 
    return
  }
  func.func @transform_1(%arg0: i32) -> i32 {
    %c0_i32 = arith.constant 0 : i32
    %c0_i32_0 = arith.constant 0 : i32
    return %c0_i32 : i32
  }
}
